checkpoint.pth (torch_old, 20939 bytes, 6 tensors)

fc1.weight f4 [64, 8]
0	0x3d15eb7d	0.036601532
1	0x3e67a5de	0.22621867
2	0x3e1fb8e0	0.15597868
3	0x3dcc7f31	0.09985197
4	0x3e8caf6c	0.27477586
5	0x3cc134a3	0.02358467
6	0x3eb99630	0.36247396
7	0x3f013c07	0.5048222
8	0xbf3341f4	-0.7002251
9	0xbe301ec7	-0.1719924
10	0x3c66cc88	0.01408685
11	0xbeda80d2	-0.42676407
12	0xbec61c81	-0.38693622
13	0xbf12dcdf	-0.5736827
14	0xbde9b5e6	-0.114116475
15	0x3e9cb819	0.30609205
16	0x3e4b418d	0.19849224
17	0x3dab386d	0.08360372
18	0x3ef4d613	0.47819576
19	0x3ee4d500	0.44693756
20	0x3ef426b9	0.47685793
21	0x3f73d6e2	0.9524976
22	0x3e4f7a51	0.20261504
23	0x3ec895bb	0.39176735
24	0xbe1e5602	-0.15462497
25	0x3f2fcb6a	0.6866976
26	0x3f56f436	0.83966386
27	0xbfa95747	-1.322976
28	0xbf621211	-0.8830882
29	0xbe4e432c	-0.20142812
30	0x3e2ef01c	0.17083782
31	0x3ea909d8	0.33015323
32	0xbe66d797	-0.22543178
33	0xbf57d41b	-0.8430802
34	0xbf1dc034	-0.61621404
35	0xbf7492ab	-0.955363
36	0x3e94525b	0.28969082
37	0x3ed8bb59	0.42330435
38	0x3e8699be	0.2628917
39	0x3de80820	0.11329675
40	0xbe99f94a	-0.30073005
41	0xbe5215f9	-0.20516194
42	0x3e256297	0.1615089
43	0xbeda1c74	-0.42599833
44	0xbe952f74	-0.29137766
45	0xbeab4a19	-0.3345497
46	0x3eae0f62	0.3399611
47	0x3e9c5e54	0.30540717
48	0xbe86337e	-0.2621116
49	0xbe09e930	-0.1346786
50	0x3d6413ae	0.05568283
51	0xbe0ea525	-0.13930185
52	0x3db9d2b9	0.09073395
53	0x3f0b43a0	0.5440006
54	0x3e87e6ac	0.26543176
55	0xbf3db300	-0.7410126
56	0x3eaad92b	0.3336881
57	0xbfb0f019	-1.3823272
58	0x3da00083	0.078125976
59	0xbf5ba115	-0.85792667
60	0x3ee9c646	0.45659083
61	0xbc44a104	-0.01200128
62	0xbe440291	-0.19141604
63	0x3c1f945d	0.009739962
64	0xbc847824	-0.016170569
65	0x3cd83d24	0.026396342
66	0xbd6f1dfa	-0.058378197
67	0xbb8cab8e	-0.004292912
68	0x3eac558d	0.3365902
69	0x3f8272cf	1.0191287
70	0xbc104a06	-0.008806711
71	0xbf4d9ee1	-0.80320555
72	0x3e252fc5	0.16131504
73	0x3ef7865d	0.483447
74	0x3f0befd6	0.54662836
75	0x3f08ba57	0.5340933
76	0xbf342b36	-0.70378435
77	0xbf4a6450	-0.79059315
78	0xbd159f36	-0.03652879
79	0xbd98f00c	-0.0746766
80	0xbf089e21	-0.53366286
81	0x3f3c2adb	0.7350289
82	0x3e8b2780	0.27178574
83	0xbf855b5a	-1.0418503
84	0x3ed4d3c6	0.4156782
85	0xbe3e55ab	-0.18587367
86	0xbe07375e	-0.13204715
87	0xbf30e5e5	-0.6910079
88	0xbefc4658	-0.49272418
89	0xbf83c8ea	-1.0295689
90	0xbf3e2a23	-0.74283046
91	0x3e2336cb	0.1593887
92	0x3f227775	0.63463527
93	0x3e9b4cb4	0.30331957
94	0xbd5ff627	-0.05467811
95	0x3d8fe6e6	0.07026462
96	0xbea7363f	-0.32658574
97	0x3e5c9a52	0.21543244
98	0x3e92e52d	0.28690472
99	0xbce424d0	-0.027849585
100	0x3ec4e41d	0.38455287
101	0x3f4d4f3c	0.8019903
102	0x3ef1b3a8	0.4720738
103	0xbe4c0aab	-0.19925945
104	0x3c2bc842	0.010484757
105	0xbec24d41	-0.37949565
106	0xbf280c43	-0.6564371
107	0xbf2ca02a	-0.6743189
108	0x3ef3defa	0.47631055
109	0x3e0d20db	0.13782065
110	0x3e5e8dc2	0.21733764
111	0x3e57d088	0.21075642
112	0xbea0468a	-0.31303817
113	0x3f229c77	0.63519996
114	0x3ed95bed	0.42452946
115	0xbf90b716	-1.1305873
116	0xbfa3ba2d	-1.2791191
117	0x3d959aff	0.07304954
118	0x3e86b6ae	0.2631125
119	0xbcf429f7	-0.029805167
120	0x3ebcd4f5	0.36881223
121	0x3e2ea854	0.170564
122	0xbe8cf37c	-0.27529514
123	0xbdd71a0b	-0.10503014
124	0x3df7ed58	0.121058166
125	0xbf280bf9	-0.6564327
126	0xbf771ca3	-0.9652807
127	0x3dd25a10	0.10271084
128	0xbe4d6d39	-0.20061196
129	0xbf1a3cdb	-0.6024911
130	0xbe127574	-0.14302617
131	0xbefd4d35	-0.49472967
132	0xbe88524e	-0.26625293
133	0xbe91ee3d	-0.28502074
134	0x3ef47306	0.47744006
135	0x3d2cbda7	0.042173054
136	0xbeed2f0f	-0.46324965
137	0xbe0c3b4e	-0.13694498
138	0x3e32919e	0.17438361
139	0x3e0bd3d4	0.13655025
140	0x3e75866c	0.23977059
141	0x3f5fc5d0	0.8741121
142	0x3ef822dd	0.484641
143	0xbea31e2f	-0.31858966
144	0xbda0acec	-0.07845482
145	0xbf68ec0c	-0.9098518
146	0x3ef5b0de	0.479865
147	0xbebca962	-0.3684798
148	0xbdb7abb3	-0.08968296
149	0xbf952db4	-1.1654572
150	0xbf820b9d	-1.0159794
151	0x3e04fb71	0.12986542
152	0xbe4fdb92	-0.20298603
153	0x3ee8bc6d	0.45456257
154	0x3ec34d88	0.3814509
155	0xbf82bfda	-1.0214798
156	0x3f5d35d6	0.8641027
157	0xbf7836d3	-0.96958655
158	0xbe4ff57d	-0.2030849
159	0xbe932a70	-0.28743315
160	0xbf8109dd	-1.0081135
161	0xbe5d05ba	-0.21584216
162	0xbf326314	-0.6968243
163	0xbec852eb	-0.3912576
164	0xbcad2cb8	-0.021139488
165	0xbcde6279	-0.027146565
166	0xbd046791	-0.03232533
167	0x3d4e6751	0.0503915
168	0x3f66a38f	0.9009332
169	0xbee63d02	-0.4496842
170	0x3fa20f10	1.2660847
171	0xbf48c72c	-0.7842891
172	0x3dcf9c49	0.10137231
173	0xbe66d78f	-0.22543167
174	0x3dea7bc2	0.11449386
175	0x3df2b9ef	0.1185187
176	0x390598f0	0.00012740842
177	0xbf66b265	-0.9011596
178	0x3f80e7b0	1.0070705
179	0xbf825aec	-1.0183997
180	0xbea51b9c	-0.32247627
181	0xbe53b46d	-0.20674296
182	0x3eacbb67	0.33736727
183	0x3d8928a7	0.06697207
184	0x3eb80d93	0.35947856
185	0xbf9e3379	-1.2359458
186	0xbf1e108e	-0.6174401
187	0xbf16c9df	-0.5890178
188	0x3c755dd8	0.014975987
189	0xbe968539	-0.29398516
190	0x3ee326f2	0.4436565
191	0x3e784d3c	0.24248213
192	0xbe8c5329	-0.27407196
193	0xbe694c20	-0.22782946
194	0xbeb02d22	-0.34409434
195	0xbefa1daf	-0.48850772
196	0xbd41de0a	-0.047330894
197	0x3e856e53	0.26060733
198	0xba8dc1d3	-0.001081521
199	0xbcc6ae47	-0.024253024
200	0xbf077bdd	-0.52923375
201	0x3d96c2ba	0.0736136
202	0x3c80a867	0.0157053
203	0x3e5037d2	0.20333794
204	0x3ebf68b4	0.3738457
205	0x3e53ce05	0.20684059
206	0x3e90c8a4	0.28278077
207	0x3ef1b1e5	0.47206035
208	0x3e0df935	0.13864596
209	0xbf28570f	-0.6575784
210	0x3ed65557	0.41861984
211	0xbf2c54ef	-0.673171
212	0xbd8d743a	-0.06906934
213	0xbe909917	-0.28241798
214	0xbf226d29	-0.63447815
215	0xbe02f940	-0.12790394
216	0x3e92a033	0.28637847
217	0xbfe17f17	-1.761691
218	0x3f042e3f	0.51633066
219	0xbf1e33cb	-0.6179778
220	0x3e163e42	0.14672187
221	0x3e6e0935	0.232457
222	0x3daf8a22	0.085712686
223	0xbe8bebfc	-0.2732848
224	0xbeaeabd5	-0.34115472
225	0x3f5b14a1	0.8557835
226	0xbff1b4ae	-1.8883264
227	0xbfdc6933	-1.7219604
228	0x3d9f9d4a	0.077936724
229	0x3ab49549	0.0013777401
230	0xbe3eeef5	-0.18645842
231	0x3e2cf482	0.16890147
232	0xbdd9c609	-0.10633475
233	0xbd2797f0	-0.040916383
234	0x3fedfbc5	1.8592459
235	0xbfaef169	-1.3667423
236	0x3fdd46bd	1.7287213
237	0xbee5bf57	-0.44872543
238	0x3e301958	0.17197168
239	0x3def7595	0.11692349
240	0xb7862c7c	-1.599476e-05
241	0x3d1c3b5f	0.03814256
242	0x3efa512e	0.4889006
243	0xbebca654	-0.36845648
244	0xbefa1682	-0.48845297
245	0xbe840f37	-0.25792858
246	0x3e94790a	0.28998595
247	0x3cab7fd1	0.020934971
248	0xbf2fff67	-0.6874909
249	0xbf6ca37f	-0.92436975
250	0xbf165de7	-0.58737034
251	0xbed2ef0c	-0.41198003
252	0x3ed10e70	0.40831327
253	0x3ea90759	0.33013418
254	0x3db3dc0e	0.087822065
255	0xbe2321f6	-0.15930924

fc1.bias f4 [64]
0	0xbecb9b36	-0.39766854
1	0xbee3353c	-0.44376552
2	0xbeacf7e8	-0.33782887
3	0x3e8d37b7	0.2758157
4	0xbed72936	-0.4202363
5	0xbe5c93f7	-0.21540819
6	0x3e9ef2f1	0.31044725
7	0xbd817eb3	-0.06322994
8	0xbd25ef06	-0.040511154
9	0x3e2f1330	0.17097163
10	0x3eadbadd	0.33931628
11	0xbed6b819	-0.4193733
12	0xbf01dedf	-0.507307
13	0xbed429c1	-0.41438106
14	0x3edff087	0.43738195
15	0xbf06e6db	-0.5269601
16	0x3d3fb3a0	0.046802163
17	0xbf1765f1	-0.59139925
18	0x3e581209	0.2110063
19	0x3ec552f1	0.38539842
20	0xbd9a2e6d	-0.07528386
21	0xbe8388ce	-0.2569031
22	0xbed06909	-0.40705135
23	0xbcc285e0	-0.023745477
24	0xbefbb9ed	-0.49165288
25	0xbec6053b	-0.38675866
26	0xbeab0784	-0.3340417
27	0xbe525bf9	-0.20542897
28	0x3ccc891b	0.02496772
29	0xbbc0ea0d	-0.005887276
30	0xbe9fdc0e	-0.31222576
31	0xbe283c1d	-0.16429181
32	0xbefe444e	-0.49661487
33	0x3e8462f4	0.25856745
34	0x3e75fd2a	0.24022356
35	0xbe88cd84	-0.26719296
36	0x3edec772	0.4351154
37	0xbe097cab	-0.13426463
38	0xbeabbe97	-0.33543846
39	0xbef338a6	-0.47504157
40	0x3e440f13	0.19146375
41	0xbea8c34e	-0.32961506
42	0x3e5abf54	0.21362048
43	0x3e835214	0.25648558
44	0x3e6056b7	0.21908079
45	0xbd5a9529	-0.053364906
46	0x3f024a4d	0.50894624
47	0x3d98b3ae	0.07456146
48	0xbe43e372	-0.19129732
49	0xbe90e223	-0.2829753
50	0x3e742de9	0.23845638
51	0x3ee6ca4f	0.45076224
52	0xbe90bfcb	-0.28271326
53	0xbe87ac75	-0.26498762
54	0xbeb0712a	-0.34461337
55	0x3ead3fb2	0.33837658
56	0x3e4204ab	0.18947093
57	0x3ed7613a	0.42066365
58	0x3ea2a657	0.31767532
59	0xbe81c303	-0.25344095
60	0x3e553975	0.208227
61	0xbeb96fb0	-0.36218023
62	0x3eec6e45	0.4617788
63	0x3f0247c2	0.50890744

fc2.weight f4 [64, 64]
0	0x3e2f5911	0.1712382
1	0x3e486d0f	0.19572853
2	0x3e5f6076	0.2181414
3	0x3ec86205	0.39137283
4	0x3e4e8be6	0.20170555
5	0x3d78568c	0.060629413
6	0x3e7ee2b2	0.24891165
7	0x3ea9aef4	0.3314129
8	0x3e8112f0	0.2520976
9	0x3f07439a	0.52837527
10	0xbd3ddb24	-0.046351567
11	0x3f38195b	0.7191369
12	0x3f101941	0.56288534
13	0x3ea2c420	0.31790257
14	0x3d420fea	0.047378458
15	0x3eafea44	0.34358418
16	0xbddd6c9d	-0.10811732
17	0x3f139895	0.57654697
18	0x3d130214	0.035890654
19	0xbe23075c	-0.15920776
20	0x3e23fac0	0.16013622
21	0x3f20965e	0.6272944
22	0x3f90258a	1.1261456
23	0xbd6c3d5e	-0.05767571
24	0x3e9e12e0	0.30873775
25	0x3e4af969	0.19821705
26	0x3f420b91	0.757989
27	0x3f00ba9a	0.5028473
28	0xbe171008	-0.14752209
29	0xbf6da128	-0.9282403
30	0x3ef050b0	0.4693656
31	0x3efd4951	0.49469998
32	0x3e0128dc	0.12613243
33	0x3e9f1ae0	0.31075191
34	0x3d901a21	0.07036234
35	0x3e9e17a7	0.3087742
36	0x3e270630	0.16310954
37	0x3f33f256	0.7029165
38	0x3d359d30	0.04433936
39	0x3f293139	0.6609073
40	0x3e6a39dc	0.22873634
41	0x3afdb60d	0.0019356624
42	0x3ec462a9	0.38356522
43	0x3df87597	0.121318035
44	0x3f02fc36	0.51166093
45	0x3e45356c	0.1925866
46	0x3f421bf0	0.7582388
47	0x3e241613	0.16024046
48	0xbfc7bd2f	-1.5604609
49	0x3f1c18ad	0.6097515
50	0x3d3a9b13	0.045558047
51	0xbe750e75	-0.23931296
52	0x3e4f5db2	0.20250586
53	0x3ea57d7a	0.32322294
54	0x3f09ba33	0.5379974
55	0xbea820a8	-0.32837415
56	0xbe186d8a	-0.14885536
57	0x3ed9914b	0.42493662
58	0xbd866139	-0.065615125
59	0x3f292b5d	0.6608179
60	0xbe96b15d	-0.29432192
61	0x3e805c70	0.25070524
62	0xbe9f3be6	-0.31100386
63	0xbf0cbe51	-0.549779
64	0x3e15d863	0.14633326
65	0xbdefe6a9	-0.11713917
66	0x3ecca668	0.39970708
67	0x3ec592bf	0.3858852
68	0x3ee294f1	0.44254258
69	0x3eac65b7	0.33671352
70	0x3e663625	0.22481592
71	0x3f3b5238	0.7317233
72	0x3d92d8d8	0.07170266
73	0x3e3db2f0	0.1852529
74	0xbd12f8d8	-0.035881847
75	0x3f2e8706	0.6817478
76	0x3f5ca858	0.8619437
77	0x3f1184d9	0.56843334
78	0x3c6ad7bf	0.014333664
79	0xbf4c08cf	-0.7970094
80	0x3e19cc5c	0.15019363
81	0x3f27fc96	0.6561979
82	0xbf1e82fe	-0.6191863
83	0x3e287b64	0.1645332
84	0x3e4cea7b	0.20011322
85	0x3ed7e241	0.42164806
86	0x3f7f6cea	0.99775565
87	0x3e3491e9	0.17633785
88	0x3f02bea1	0.51072127
89	0x3ea965f5	0.330856
90	0x3f2f72a5	0.6853431
91	0x3efbb972	0.4916492
92	0x3d53a8ad	0.051674534
93	0xbedf9d1a	-0.43674546
94	0x3e3d1c31	0.18467785
95	0x3f490c1e	0.78534114
96	0x3ecc9826	0.3995983
97	0xbd847a00	-0.06468582
98	0x3ecaa938	0.3958223
99	0x3ec3356a	0.3812669
100	0x3ee61bc6	0.44943064
101	0x3f322b33	0.69597167
102	0x3daf4fca	0.085601404
103	0xbde90b89	-0.11379153
104	0x3e8ed240	0.27894783
105	0x3e80f89b	0.2518967
106	0x3e68ff93	0.22753744
107	0x3eaf85d6	0.34281796
108	0x3d2a4295	0.041567404
109	0x3eee9b0e	0.46602672
110	0xbf067074	-0.5251534
111	0x3f094aca	0.53629744
112	0x3ea4836b	0.32131514
113	0x3f67755a	0.9041344
114	0xbf1ecffb	-0.62036103
115	0xbe3582b5	-0.17725642
116	0x3de9868a	0.114026144
117	0x3f385abe	0.7201346
118	0x3ee8284a	0.45343238
119	0xbe209c37	-0.15684591
120	0x3e148037	0.14502035
121	0xbee2b55f	-0.44279
122	0xbc80f680	-0.01574254
123	0x3f3004e8	0.68757486
124	0xbe37e6aa	-0.17959085
125	0x3ec4a961	0.38410476
126	0xbeb49af8	-0.35274482
127	0x3d3f5d32	0.046719737
128	0xbdfab36c	-0.12241253
129	0x3f29655b	0.6617028
130	0xbde2293d	-0.11043022
131	0x3f1871a8	0.59548426
132	0xbd12cc90	-0.035839617
133	0x3e80f2df	0.25185296
134	0x3e6f0d76	0.23344979
135	0xbe87db18	-0.26534343
136	0x3dd53c95	0.10411946
137	0x3ecbcc95	0.3980452
138	0xbd79d174	-0.060990766
139	0x3e37f76a	0.17965475
140	0xbec6bdb9	-0.38816622
141	0xbe0b5f46	-0.13610563
142	0x3e7ec1e3	0.2487865
143	0x3f0978cb	0.5369994
144	0xbe445c27	-0.19175778
145	0xbed33acf	-0.41255805
146	0x3ee79bc8	0.4523604
147	0xbe2467dc	-0.16055244
148	0xbe6af9f5	-0.22946914
149	0xbe79774f	-0.24361919
150	0x3e910f22	0.28331858
151	0xbc9987af	-0.018741457
152	0x3c89fde7	0.016844703
153	0x3e04b863	0.12960963
154	0x3f5ebb79	0.8700481
155	0x3e0dec74	0.13859731
156	0xbf9a16f8	-1.203826
157	0x3f3b543b	0.731754
158	0xbe07b39d	-0.13252111
159	0x3e9a4efa	0.3013838
160	0xbc111536	-0.008855155
161	0x3f985f42	1.190407
162	0xbf1e11f9	-0.61746174
163	0x3bf85def	0.007579557
164	0xbf445374	-0.7668984
165	0x3f1b0318	0.60551596
166	0x3dcaf7cc	0.09910545
167	0x3d8c187b	0.06840607
168	0x3e86d245	0.26332298
169	0xbd9f7f3a	-0.077879384
170	0x3ec853e7	0.39126512
171	0x3f793e30	0.97360516
172	0x3f715d9a	0.9428345
173	0xbf42c794	-0.7608578
174	0xbe5a9bc2	-0.2134848
175	0x3f922019	1.1416045
176	0x3e60f795	0.21969445
177	0xbea053db	-0.31313977
178	0x3da338b7	0.07969802
179	0xbf225017	-0.6340346
180	0xbdd4a33b	-0.10382696
181	0x3effe777	0.4998128
182	0x3f369967	0.71327823
183	0xbf345b48	-0.70451784
184	0x3d068603	0.032842647
185	0xbf244957	-0.6417441
186	0xbe98bd9f	-0.2983217
187	0x3f0fbc6f	0.561469
188	0xbe80b81f	-0.25140473
189	0xbe4ef4ec	-0.20210618
190	0x3e82c7f6	0.25543183
191	0x3eb5028d	0.3535351
192	0x3ccf68eb	0.025318583
193	0x3ec105cf	0.37699744
194	0x3e7bb0f6	0.24579224
195	0x3dc1a556	0.094553635
196	0x3e50b452	0.20381287
197	0x3eb57640	0.3544178
198	0x3e99256f	0.29911372
199	0x3f1e460d	0.6182564
200	0x3f36b416	0.7136854
201	0x3c8638fc	0.016384594
202	0x3e310f3b	0.17290966
203	0x3e8a95c7	0.27067396
204	0x3e3ef1d5	0.18646939
205	0x3e121685	0.14266403
206	0x3e21543d	0.1575479
207	0x3f31770a	0.69322264
208	0x3e23d181	0.15997888
209	0x3ea86261	0.32887557
210	0xbc9d3d19	-0.019194173
211	0xbd2435b3	-0.040090274
212	0x3f010338	0.50395536
213	0x3f56a195	0.83840305
214	0x3f65e68d	0.8980492
215	0x3c9f7eb2	0.019469593
216	0x3e8ee4ea	0.27909023
217	0x3e38f1e5	0.18061025
218	0xbca4801e	-0.020080622
219	0x3f05135b	0.5198266
220	0xbba5d584	-0.0050608534
221	0xbf4284b8	-0.7598376
222	0x3eb11def	0.3459315
223	0x3eb7ccbb	0.35898384
224	0x3e37d09d	0.17950673
225	0x3e169ffb	0.14709465
226	0x3ef3dcbf	0.47629353
227	0x3e6c19a1	0.23056652
228	0xbf06befa	-0.5263516
229	0x3f52953f	0.8225898
230	0x3dfe9006	0.12429814
231	0x3e5f951d	0.21834226
232	0x3e1a4008	0.15063488
233	0xbcca6860	-0.024707973
234	0x3cea4e6b	0.028601846
235	0xbf17a72e	-0.5923947
236	0x3e267540	0.16255665
237	0xbde878bb	-0.113511525
238	0x3ec86058	0.39136004
239	0x3eccf2c8	0.40028977
240	0xbf9dcd3b	-1.2328256
241	0x3f21d13c	0.6320989
242	0xbe3cf05a	-0.18451062
243	0xbd192128	-0.037385136
244	0x3f17e91c	0.5934007
245	0x3d77c7db	0.06049333
246	0xbc84704c	-0.016166829
247	0xbe66a6ac	-0.22524518
248	0x3e7945a3	0.2434297
249	0x3eed4fe7	0.46350023
250	0x3dd5b869	0.10435564
251	0x3f0345e1	0.512785
252	0xbe334bc8	-0.17509377
253	0x3eaa9bf4	0.33322108
254	0xbd68d6a3	-0.05684532
255	0xbea341be	-0.31886095

fc2.bias f4 [64]
0	0xbe87da76	-0.2653386
1	0xbe5e7139	-0.21722879
2	0x3e6c7248	0.2309047
3	0xbda40420	-0.08008599
4	0x3cafb1f2	0.021447156
5	0xbe34f6b6	-0.17672238
6	0x3f4a95e7	0.7913498
7	0xbe33e36d	-0.17567225
8	0x3e4e90af	0.2017238
9	0xbd5eba97	-0.054377165
10	0xbec0f00d	-0.37683144
11	0xbdf3da38	-0.11906856
12	0xbe20ddd3	-0.15709619
13	0xbe699341	-0.22810079
14	0x3dd4fd33	0.103998564
15	0x3f4055fe	0.75131214
16	0x3ee20032	0.44140774
17	0xbe555bcc	-0.20835799
18	0x3e7f982b	0.24960391
19	0xbe76bf2c	-0.24096364
20	0xbe3117ff	-0.1729431
21	0x3ec5b498	0.38614345
22	0xbe61a62e	-0.22036049
23	0xbe01a402	-0.1266022
24	0xbebe762a	-0.37199527
25	0x3f0bb315	0.5457013
26	0xbdaf632c	-0.085638374
27	0xbef29cc8	-0.4738524
28	0xbe909331	-0.28237298
29	0xbe988779	-0.29790857
30	0x3e5139f1	0.20432259
31	0x3f474127	0.7783379
32	0xbe2efc82	-0.17088512
33	0xbe415ca7	-0.18883
34	0xbec629e6	-0.3870384
35	0xbdf95123	-0.12173679
36	0xbd417f62	-0.047240622
37	0xbe7cb72b	-0.24679248
38	0x3d8424c8	0.06452328
39	0xbe1e8c6b	-0.15483253
40	0xbe7d2c2b	-0.2472388
41	0xbe56dba3	-0.20982222
42	0xbce24f20	-0.02762562
43	0x3f0ecf23	0.55784816
44	0xbdf83804	-0.12120059
45	0x3d6565a5	0.05600514
46	0xbdd00fc1	-0.10159255
47	0xbe1ff57e	-0.15620992
48	0xbe93aed6	-0.28844327
49	0xbea441ca	-0.32081443
50	0xbe73935c	-0.23786682
51	0xbeb91520	-0.3614893
52	0x3db95052	0.09048523
53	0xbe299ba0	-0.16563272
54	0xbe5e4843	-0.21707253
55	0x3d45d9e4	0.0483035
56	0xbd470204	-0.048585907
57	0xbe0b17c0	-0.13583279
58	0xbeba6a1c	-0.3640908
59	0xbdcc4f93	-0.09976115
60	0xbec911d6	-0.3927142
61	0xbf0bdfd9	-0.5463844
62	0x3ea7bd9e	0.32761854
63	0xbe90d909	-0.28290585

fc3.weight f4 [4, 64]
0	0xbf3fe191	-0.7495356
1	0xbea2c90c	-0.31794012
2	0x3edf3a71	0.43599275
3	0xbed2304d	-0.41052476
4	0xbe2b5c69	-0.1673447
5	0xbef3fb44	-0.47652638
6	0x3fab699a	1.3391602
7	0xbe837036	-0.25671548
8	0x3e9b5952	0.30341583
9	0x3ff0afbd	1.8803631
10	0xbf298af0	-0.66227627
11	0xbd933616	-0.071880504
12	0xbd6d8537	-0.05798837
13	0xbed041f7	-0.40675327
14	0xbf38761c	-0.7205522
15	0x3fce0098	1.6093931
16	0x3f80c4e8	1.0060091
17	0xbf0afc09	-0.54290825
18	0x3f2cb190	0.6745844
19	0xbeced0bd	-0.4039363
20	0xbe81e2cf	-0.25368354
21	0x3fc4ff18	1.5390348
22	0xbea338b6	-0.31879205
23	0xbcb3bbcd	-0.021940136
24	0xbeeb528d	-0.4596142
25	0x3f7b8f97	0.98265976
26	0x3dd24f8a	0.10269077
27	0xbf246fa0	-0.64232826
28	0xbf2ba18f	-0.67043394
29	0xbf3bf7d1	-0.7342501
30	0x40154fa7	2.3329866
31	0x3f94ce5f	1.162548
32	0xbf65dd04	-0.8979037
33	0xbf0a1d04	-0.53950524
34	0xbef010ce	-0.4688782
35	0xbdd84c05	-0.105613746
36	0xbe9451c3	-0.2896863
37	0xbed92ee1	-0.42418578
38	0x3f2f4585	0.68465453
39	0xbf5d8c0a	-0.8654181
40	0xbeda63d5	-0.4265429
41	0xbef05ac5	-0.46944252
42	0xbe964a4a	-0.29353553
43	0x40161b7b	2.3454273
44	0x3d231d91	0.03982312
45	0xbd2d36ad	-0.04228847
46	0x3d9038cb	0.070420824
47	0xbec4f5d8	-0.38468814
48	0xbf0ed068	-0.5578675
49	0xbee6af95	-0.45055833
50	0xbed8c022	-0.42334086
51	0xbf0bc391	-0.54595286
52	0xbf015858	-0.50525427
53	0xbf087172	-0.53298104
54	0xbf0cd2e8	-0.5500932
55	0x3fb2c486	1.3966224
56	0xbf415ead	-0.7553509
57	0xbf28c5de	-0.6592692
58	0xbebf61ce	-0.37379307
59	0xbe88f606	-0.267502
60	0xbf161ca7	-0.5863747
61	0xbf399514	-0.724931
62	0x3fe271b5	1.7690951
63	0xbf1204d2	-0.57038605
64	0xbea4333f	-0.32070348
65	0xbf3dfbed	-0.74212533
66	0x3f8adb31	1.0848142
67	0xbeeb3276	-0.45936936
68	0xbea8e407	-0.3298647
69	0xbf0b7561	-0.5447598
70	0x3f97cf39	1.1860114
71	0xbf3279a8	-0.6971688
72	0x3fc471f0	1.5347271
73	0x400267ac	2.0375776
74	0xbf1272c3	-0.5720636
75	0xbd359bfc	-0.04433821
76	0x3d95ab23	0.07308032
77	0xbe831a3b	-0.2560595
78	0xbd7f9e58	-0.062406868
79	0x3fbbe638	1.4679632
80	0x3f822226	1.0166671
81	0xbef4fbc1	-0.47848323
82	0x3f4200a9	0.7578226
83	0xbf2c632f	-0.6733884
84	0xbe8ed981	-0.27900317
85	0x3fcac20b	1.5840467
86	0xbef60ea1	-0.48058036
87	0xbd4e72f1	-0.050402585
88	0xbf245060	-0.6418514
89	0x3f820274	1.0156999
90	0x3d56c733	0.052436065
91	0xbefd31db	-0.494521
92	0xbf040843	-0.51575106
93	0xbeff2136	-0.49830025
94	0x4005b1b7	2.0889719
95	0x3f7c08a7	0.984507
96	0xbf1ba336	-0.60795915
97	0xbf5ac4bd	-0.8545645
98	0xbf0512da	-0.5198189
99	0x3dff87cc	0.12477073
100	0xbf4026d8	-0.7505927
101	0xbf44fee6	-0.76951444
102	0x3f4c0836	0.7970003
103	0x3eae5722	0.34050852
104	0xbf3de402	-0.7417604
105	0xbf21e741	-0.6324349
106	0xbf285a2a	-0.6576258
107	0x4011333f	2.2687528
108	0xbd9f3ab5	-0.07774869
109	0x3cffb9f7	0.031216605
110	0x3da8536e	0.08219038
111	0xbf23b3aa	-0.6394602
112	0xbf12e098	-0.5737395
113	0xbf4a0734	-0.7891724
114	0xbf0e1144	-0.55495095
115	0xbe9e7181	-0.30945972
116	0xbec778a8	-0.3895924
117	0xbefef77d	-0.49798194
118	0xbebed827	-0.37274286
119	0x3ff7fc99	1.9373962
120	0xbf2e00e2	-0.679701
121	0xbedd9b05	-0.43282333
122	0xbf129668	-0.5726075
123	0xbf64b0c7	-0.8933224
124	0xbf0d84ec	-0.5528095
125	0xbdce761e	-0.10081123
126	0x3ffe09d6	1.9846752
127	0xbf1235f9	-0.57113606
128	0xbf37a842	-0.71741116
129	0xbec0bace	-0.3764252
130	0xbf9f16ed	-1.2428871
131	0xbda5a1bd	-0.0808749
132	0x3ebda297	0.3703811
133	0xbe4390fd	-0.19098277
134	0x3f889fdb	1.0673784
135	0xbedd6637	-0.43242046
136	0x3f91e373	1.1397537
137	0x40338818	2.8051815
138	0xbed655fa	-0.4186247
139	0x3cf17a2d	0.029477203
140	0x3d26e30f	0.040743884
141	0xbefed42a	-0.49771243
142	0xbf719f07	-0.9438328
143	0x3fd98336	1.6993167
144	0xbf83c4bc	-1.0294414
145	0xbf33227c	-0.69974494
146	0x3f160c8a	0.58612883
147	0xbee99e55	-0.4562861
148	0x3e606d5a	0.21916714
149	0x3ffeb74f	1.9899691
150	0xbf1e101c	-0.6174333
151	0x3c83e882	0.01610208
152	0xbebca619	-0.36845472
153	0x3f9b05a4	1.2111096
154	0xbde7fadc	-0.113271445
155	0xbf4abf9c	-0.7919862
156	0xbefbf28d	-0.4920849
157	0xbe9c1f03	-0.3049241
158	0x3fef5d96	1.8700435
159	0x3f1e1a25	0.61758643
160	0xbef9b634	-0.48771822
161	0xbee31257	-0.4434993
162	0xbecbebf2	-0.3982845
163	0xbd4f3290	-0.05058533
164	0x3d69b8da	0.057061054
165	0xbedc986b	-0.43085036
166	0x3fc5d857	1.5456647
167	0xbef116c5	-0.47087684
168	0xbeef3eb3	-0.46727523
169	0xbf44d0ae	-0.7688092
170	0xbf25f7df	-0.64831346
171	0x3fd51ffc	1.6650386
172	0x3c7f4fc2	0.015582981
173	0xbc86645e	-0.01640528
174	0xbd8daba5	-0.06917504
175	0xbeec052f	-0.46097705
176	0xbeaa4681	-0.33256915
177	0xbf083dc4	-0.53219247
178	0xbf29efb6	-0.66381395
179	0xbf2f11ff	-0.68386835
180	0xbf80e67e	-1.0070341
181	0xbf3a67d9	-0.7281471
182	0xbecad530	-0.39615774
183	0x3fa44977	1.283492
184	0x3ba75c0b	0.005107408
185	0xbf370599	-0.71492916
186	0xbf0ec933	-0.55775756
187	0x3b0d307e	0.0021543796
188	0xbe85db79	-0.26144007
189	0xbf093eb6	-0.53611314
190	0x3fdd8dc6	1.7308891
191	0xbf06f22e	-0.52713287
192	0xbee05d61	-0.43821242
193	0x3cf1226a	0.029435355
194	0x3d243e07	0.040098216
195	0xbf3cd3d1	-0.73760706
196	0xbee94e9b	-0.45567784
197	0xbf25aefb	-0.64720124
198	0x3fa102ff	1.2579039
199	0xbed850c2	-0.42249113
200	0x3f46242a	0.7739893
201	0x40091158	2.1416836
202	0xbf3827ee	-0.7193593
203	0xbb231280	-0.0024882853
204	0xbd9cfbcb	-0.07665213
205	0xbf78a195	-0.97121555
206	0xbe6cf25d	-0.23139329
207	0x400351a9	2.0518591
208	0x3fc227f7	1.5168446
209	0xbe8e6b49	-0.27816227
210	0x3f9c4541	1.2208635
211	0xbeea5dbb	-0.45774636
212	0xbf362e84	-0.7116473
213	0x3fd81a53	1.6883034
214	0xbec9b8b9	-0.39398745
215	0xbc4fa866	-0.012674427
216	0xbec3340f	-0.38125655
217	0x3f8c2d59	1.0951339
218	0xbd3ba9a4	-0.04581608
219	0xbec86872	-0.39142185
220	0xbf2684c8	-0.6504636
221	0xbf30696c	-0.6891086
222	0x402203d1	2.531483
223	0x3f0caefe	0.54954517
224	0xbf114b79	-0.5675579
225	0xbea1b835	-0.3158585
226	0xbf2a47f4	-0.6651604
227	0xbd9b61a4	-0.07586983
228	0xbef43306	-0.47695178
229	0xbec5dde2	-0.38645846
230	0x3f842dd9	1.0326492
231	0xbf846b33	-1.0345215
232	0xbecefa27	-0.40425226
233	0xbf10c765	-0.5655425
234	0xbe3caf8f	-0.18426345
235	0x401b5db6	2.4275947
236	0x3db1ea34	0.08687249
237	0xbd9bceb8	-0.07607788
238	0x3c801730	0.015636057
239	0xbea0a922	-0.31379038
240	0xbed66286	-0.41872042
241	0xbe5e6c6f	-0.21721052
242	0xbf08010b	-0.5312659
243	0xbef253f5	-0.4732968
244	0xbc912c9e	-0.01772147
245	0xbe4e2e22	-0.20134786
246	0xbf8d2548	-1.1027002
247	0x3fe2b922	1.7712748
248	0xbeec5cad	-0.46164456
249	0xbf11af2a	-0.56907904
250	0xbec19dde	-0.37815756
251	0xbef1a427	-0.4719555
252	0xbef249c8	-0.47321916
253	0xbec7dff8	-0.39038062
254	0x3faf0827	1.3674363
255	0xbebce13f	-0.368906

fc3.bias f4 [4]
0	0x3ecae3b5	0.39626852
1	0xbdd91a0e	-0.10600673
2	0x3f0a9766	0.54137266
3	0x3e1bc28e	0.15210935
