checkpoint1.pth (torch_old, 23734 bytes, 8 tensors)

fc1.weight f4 [64, 8]
00000000: 975d a83d a9d9 bf3e b5be 81bf 8733 09bf
00000010: 062f 7a3f 63f8 af3e a030 683f 7c66 c4be
00000020: 3365 86be b9cb ce3a 22b6 32be 9846 7ebf
00000030: f948 b4be 886e 07bf f28d dc3c d4f5 393e
00000040: f280 943e ead5 643e 8123 f53d bd7a dbbd
00000050: 1a62 093f e41b ce3d ad6e f53e e4f7 7a3f
00000060: da3f 00be 1ae8 77be ebe8 393f ba94 833f
00000070: b753 98bf 2f44 9a3d 59ed 94bb 6ca7 7d3f
00000080: 9bc9 babd 8ef5 90bf ce1a 66be c906 28bf
00000090: e763 653e c62c 0d3f d917 4a3f 86ef f5be
000000a0: 7983 aa3e b75b a03e 1e09 573f 7481 ffbf
000000b0: 8d52 ef3d 321c f8bb 7ad1 ae3e 45f3 4bbe
000000c0: 35e9 1cbe 0bc4 063e 0a4e a43d 4c90 55be
000000d0: b1b8 b8bf 568f b1be 7e88 1d3f 5479 283d
000000e0: 54b1 983f 2870 8cbf 0262 7f3e ea11 91bf
000000f0: 9e4a 1dbf ab34 a6bd 1962 d1bd 60e1 3f3e
00000100: 47c2 ab3f 2e41 a7bf 376f 2a3f 414f 54bf
00000110: 8edc 803e ebec f13d 4314 62bd 0e73 abbc
00000120: d374 b63d 461c dd3e 6297 813f f43c c73f
00000130: 9206 abbf c541 b4bf 8deb b3bd 5e83 c23d
00000140: 2cfe 9d3e ddf4 933e 3578 c93f 3754 b9bf
00000150: a79a 623f 50d0 be3e e0a1 cb3e 38e6 8dbe
00000160: 41d7 143f 84d7 45c0 51c9 3ebe ca20 183d
00000170: 81e0 2a3f 0f34 fd3e 1ea6 7bbf 39f9 96be
00000180: 9dce ab3f 63c4 253f cf2b 15bf 59fd 0ebf
00000190: 1a7e b3bd 9cc9 063f e9cd 39bf 846b 983d
000001a0: f704 07c0 c4fe 4ebf 847f 06bf 1512 98be
000001b0: 031c 2dbf 0563 31be 9847 d13d ced8 223e
000001c0: a191 053f e734 2abe f2a6 6f3f 9b86 dabe
000001d0: 3bef c03e 244e adbd 58d8 1b3e eeb7 2c3c
000001e0: 43b1 d9be 570a 323f 6916 c4bf d071 d7be
000001f0: d61b e83e 1541 58bf 61f2 babe c15b c5be
00000200: 9ef7 56bf 663b 03c0 f8b7 f7be c841 5abf
00000210: 8491 32bd 6d99 f3bd d9c6 253f 447e 67bd
00000220: 9114 21bf d748 b3be 19cc d3bc a6b3 3abe
00000230: f7b5 e1bf c03b 093f c0ef 073f 6a11 3fbd
00000240: 036d dabe e638 04be 766a 3ebf 3f5c afbe
00000250: 82ec 1bbf 3cee 7abf fc16 03c0 320f 3b3e
00000260: cfdd 833e c86f 633f 40d7 ac3e 3b94 d7bf
00000270: 872f e33e 9e6a 58bf 5fad f03e 9a9d 17bf
00000280: 89f4 cabe 8708 c1bf add5 b73d f56a b03d
00000290: a171 de3e 13cb dfbe a667 d03e 6354 463f
000002a0: f3c4 4dbf 5eb1 00c0 6c25 e43f 377e 95bf
000002b0: a10c 84bf 9255 6c3e 1267 8cbd dfeb bc3d
000002c0: 0288 10be 4679 e0bf 61c7 413e 1782 d9bf
000002d0: 42ec 4d3f 4357 8e3c e367 c83e 3e4a b8bd
000002e0: 10ba 01bf a101 603d 907d 4cbd 3eb8 1e3e
000002f0: bc6c b73e d344 4abf 4285 ad3e a494 7f3f
00000300: a9e4 dabf 33bb 1bbf 4e4b 14bf c477 d3be
00000310: 0094 2cbe ce8e 9fbd 28b6 12bf bcc6 c9bf
00000320: a5a5 573d af6b d83d 3bb0 6dbf 68dc 41bf
00000330: e18a 91bc 1272 34be e091 343f c68d 853e
00000340: b20e 2ebe fb85 5cbf 35ca 3b3f 077d b7bf
00000350: 9318 27bf 4098 25be 03fb 59ba cea3 92bc
00000360: 84a6 23bf d625 05c0 1332 c83e b27a b3be
00000370: 9ad1 273e 4286 373f 1451 7e3e 8ddf d9be
00000380: c5fe d9be 30f1 5b3e c03a 50c0 224a 6d3e
00000390: 8485 f43e f9b0 273d 7e8c e13e f219 37bf
000003a0: ac7d f23d 13e1 bf3f 9c32 7a3f 346d ebbf
000003b0: 20f7 093f 60de e1be 1105 483d 0262 4fbf
000003c0: 79f5 c4be 8c23 6a3f ea70 583f ebe7 243f
000003d0: 18aa 903f 079a 7cbf 9db3 b63e 3b44 69be
000003e0: ec6e 99bf 5bd0 02c0 fb48 223f 8b84 0fbf
000003f0: f5b1 93be a4e1 f4bd b3cd cdbf 74fd babd
0.08220976 0.3747075 -1.0136324 -0.5359425 0.97728 0.34369192 0.90699196 -0.3835944
-0.26249084 0.0015777267 -0.1745229 -0.9932647 -0.35211924 -0.5290303 0.026923154 0.18160182
0.29004627 0.22347227 0.119696625 -0.1071677 0.53665316 0.100639135 0.47936 0.980345
-0.12524357 -0.24209633 0.7262103 1.0279763 -1.1900548 0.07532536 -0.0045448956 0.9908359
-0.091204844 -1.1324937 -0.22471163 -0.65635353 0.22401391 0.55146444 0.7894264 -0.48034304
0.3330343 0.31319973 0.83998287 -1.9961381 0.11685667 -0.0075717205 0.34144193 -0.19917019
-0.15323336 0.13160722 0.08022697 -0.20855826 -1.4431363 -0.3467967 0.61536396 0.041131333
1.1929116 -1.0971727 0.24939731 -1.1333592 -0.6144198 -0.08115514 -0.10223789 0.18738317
1.3418664 -1.3066766 0.6657595 -0.8293343 0.2516827 0.11812767 -0.055195104 -0.020928886
0.08909001 0.43185633 1.0124323 1.5565476 -1.336138 -1.4082571 -0.08785162 0.094977126
0.3085798 0.28897753 1.5739809 -1.4478825 0.8851723 0.37268305 0.39771938 -0.27714705
0.5814095 -3.091279 -0.18631484 0.037140645 0.66748816 0.4945378 -0.9830035 -0.29487017
1.3422428 0.6475279 -0.5826997 -0.5585533 -0.08764286 0.5265138 -0.7257982 0.07442382
-2.109678 -0.8085749 -0.52538323 -0.29701295 -0.6762087 -0.17322929 0.102187335 0.15903017
0.5217534 -0.16621743 0.93614113 -0.4268082 0.37682518 -0.0846217 0.15219247 0.010541899
-0.42518052 0.6954703 -1.5319339 -0.4207902 0.45333737 -0.8447431 -0.36513045 -0.38546565
-0.83971584 -2.0505004 -0.48382545 -0.85256624 -0.043595806 -0.11894498 0.6475654 -0.0565169
-0.62922007 -0.3501651 -0.025854157 -0.18232593 -1.7633656 0.53606796 0.53100204 -0.046647467
-0.42661294 -0.1291233 -0.74381196 -0.34250066 -0.6090776 -0.98019767 -2.0482779 0.18267515
0.25755164 0.8884244 0.33757973 -1.6842111 0.44372198 -0.84537685 0.47007272 -0.59224856
-0.3963969 -1.5080727 0.08976302 0.086141504 0.43446067 -0.4370962 0.40704077 0.77472514
-0.80378646 -2.0108256 1.782392 -1.1679143 -1.0316354 0.23079517 -0.068555966 0.09224676
-0.14114383 -1.753701 0.18923713 -1.6992825 0.80438626 0.017375594 0.3914176 -0.089985356
-0.50674534 0.054689053 -0.049924433 0.1549997 0.35825145 -0.7901127 0.3389073 0.9983618
-1.7101032 -0.6083252 -0.57927406 -0.4130231 -0.16853333 -0.0779091 -0.573092 -1.5763774
0.052648205 0.10567414 -0.9284703 -0.7572694 -0.017766418 -0.1762164 0.7053509 0.26084727
-0.16997793 -0.8614194 0.7335542 -1.433503 -0.6527187 -0.1617136 -0.0008315297 -0.017900374
-0.6392596 -2.0804343 0.39100704 -0.35054547 0.1638855 0.71689236 0.24835616 -0.42553368
-0.42577186 0.21478724 -3.2535858 0.2317281 0.47758114 0.04094026 0.440525 -0.71523964
0.11840376 1.4990562 0.97733474 -1.8392701 0.5389271 -0.4411497 0.048832957 -0.81008923
-0.3846853 0.9146049 0.84547293 0.6441638 1.1301908 -0.9867253 0.3568391 -0.22779934
-1.1986976 -2.043967 0.6339261 -0.5606162 -0.28846708 -0.119571 -1.60784 -0.091303736

fc1.bias f4 [64]
00000000: b61f 6fbe 6a5d 713e 4572 29bc a1fe 77be
00000010: 93f6 58bf 98cf 403d 0397 343d e586 0abc
00000020: 75c4 113e eb02 2e3f c0c9 b13e c1c9 6fbf
00000030: c6cc b7be 8ec8 86be f7e9 d33e 4beb a93e
00000040: 1667 23bf 6584 66be de9d 8b3e 51a0 e73e
00000050: f5c4 2cbf 8d1a 87be 19c9 36bf aaf1 15bf
00000060: 5ba5 99bd f19f 55bf 26b0 6ebe 7bcd a0be
00000070: fd05 903d 5588 103f d1ea fdbc dfc8 edbc
00000080: 04a0 12bf 26b1 9e3f 0761 ddbe b2af f53d
00000090: f973 1fbf 4789 8c3f 97be abbe 4c89 22bf
000000a0: 5619 d13e af5a 91be 3522 853e 9e34 2f3f
000000b0: ff8a 45be 75d4 c73e 2cc4 8d3f d589 89be
000000c0: b657 b93e c3f8 6f3e d115 00bc 7941 da38
000000d0: 7003 19be 624a cc3e 43a5 1d3e ec19 0dbe
000000e0: 36ce 4c3f 0d85 4a3e c5c9 5dbe 2c8b 213e
000000f0: 70be 7dbe e5ed 8bbf 32bb 37be e83c bebb
-0.2335194 0.23570791 -0.010342185 -0.24218227 -0.8475124 0.047072977 0.04408933 -0.008455013
0.14235099 0.679732 0.34724236 -0.9366723 -0.35898417 -0.26324886 0.4138944 0.33187327
-0.6382917 -0.22511442 0.2726888 0.452395 -0.6748803 -0.26387444 -0.714006 -0.58571875
-0.07502242 -0.83447176 -0.23309383 -0.3140677 0.07032392 0.56458026 -0.030995758 -0.029026447
-0.57275414 1.2397811 -0.43238088 0.11996402 -0.62286335 1.0979394 -0.33543846 -0.6349075
0.40839642 -0.283895 0.2600266 0.6843966 -0.19291304 0.3902928 1.1075492 -0.2686297
0.3619973 0.23434739 -0.007817701 0.00010407245 -0.14942718 0.399005 0.15395074 -0.1377942
0.8000215 0.19777317 -0.21659 0.15775746 -0.24779677 -1.0931975 -0.17942503 -0.0058056004

fc2.weight f4 [64, 69]
00000000: 5c63 d03f 9771 5f3e f671 613f 21a5 393f
00000010: 9834 353f 9acb 4fbf 08b6 abbf 8145 b2bf
00000020: f785 063e ef3d 7cbf 9a08 463f 3264 103f
00000030: e3b1 ccbe 8c36 653f 0d39 2f3f b2c2 8cbf
00000040: b88d f93e e8d3 803f 7484 3b3f 1622 8a3e
00000050: 58d8 91bf ae1f 61bf 4cf9 483e 4b12 8cbe
00000060: 4629 da3f dc4f 77bf 62d4 98bf 702e 8e3f
00000070: 1675 b43e 2b8a ab3e 3e2a 8bbe 89c7 dc3f
00000080: de1e e6bd e43e 6abf 4e8f a73e 5c16 4abf
00000090: f6f7 9a3f fcc9 b4bf fce8 2e3d cc65 84bf
000000a0: 0563 22be f524 a0bf be5f 0f3d debb ad3e
000000b0: 190b 553f 3b5f 063e 1a4e 283f 80b5 c63f
000000c0: 9b51 98bb ce1c e43f b478 7a3f f1d3 b1bf
000000d0: c8bd d83f a134 ec3e 724d cf3f d972 843e
000000e0: 7909 8bbf c968 eabf 961d cebe 007b 7cbf
000000f0: ab2c edbd 8598 e03e ced1 f0bf 05e2 00be
00000100: 3163 06bf 15d8 ad3e 66e4 723d 3bd3 74bd
00000110: 9127 3bbd 1712 313f 823e a6be f718 86bd
00000120: 9eec 1cbf 1672 8d3f 3909 da3e ab39 86be
00000130: 5ee4 0a3f 2329 38be b498 95bf cf5c b0be
00000140: 927f 2e3f c3f7 0dbf 7857 6c3e e6d9 b3be
00000150: d684 a0bf 57cd cb3d 6a81 ac3e 6676 a6be
00000160: c70d 81bd d420 f93e bebf c43e 3b2e 193f
00000170: e3a1 473e 5f26 213d facf ed3e 3adb 0d3f
00000180: eaf1 f53e 49ba 013e c74f b2bc 60a9 a0bd
00000190: 888c 873e f71c ed3e ef20 1ebf 05ac d13e
000001a0: 23a2 05bf 4d28 3bbe 676b 62bf 10e1 d3bb
000001b0: ba12 d6bc 7b8a 09be 9a5a b13e f33b e7be
000001c0: fd00 bcbf 17bf 653e 02e5 753e 7280 b6bf
000001d0: 158a b03d f73d ccbe 7428 7f3d 67cc 53bf
000001e0: 8bd5 83be a208 03bf dd80 253d d3d3 a43e
000001f0: 3f63 e13e 2539 b1be 7d10 13be 6b8b c23e
00000200: 0ee9 f7be 498e a03e b7a7 213f ee54 a83e
00000210: 919b cdbe daea ec3e a757 2bbe 8839 8bbf
00000220: c2dd c63f bc8c abbd 89a8 24bf c3e0 153f
00000230: 62d0 ec3e 5d90 7ebe afd2 713e 71d1 813e
00000240: 97eb b33d 14c2 abbe d98b 063e 2395 88be
00000250: 9037 d7be fde4 03be c1cd d03f 337e b5be
00000260: 9a17 d03e 958b c93f 9d86 273e 7db7 0f3e
00000270: 485a 45be 2268 06bf 893e ae3e 18f4 8fbe
00000280: 2f24 29be 7443 2e3f dd35 bfbf 911c 213f
00000290: 62a8 38bf 5914 1b3e bbc9 493f d06a 77bf
000002a0: 3d43 993e 1644 3dbe 9ddd 443f 6a53 1d3f
000002b0: b2e9 a1be e0b9 3fbf 2fe0 a23d 0f7f a83f
000002c0: 5683 b93d 1a3f 9d3f c85e 5c3e 9a05 ac3d
000002d0: b46e 24bf 12f0 8dbe ab1f 063f fd1e 8e3f
000002e0: 2ab6 81bd 4fc7 313f ab87 603e 2857 513c
000002f0: bc94 7c3e cf3d 94bd 8e7d c7be 167f 033d
00000300: d986 4cbe b6d1 0a3f ad5b 373f 366a 833f
00000310: ed3f 443e 1f84 b13d 6868 493f e8cf be3f
00000320: 159b 7a3f 3baa 71bf aa70 0bbe 5ef3 f6be
00000330: 89b9 28bd a80e 8bbc 2af8 1e3f 8b1b cb3e
00000340: 2fac 093d 9134 a6bc bc2b 363e 7320 233e
00000350: 51fd b23e a70e ed3d 88e9 353e 35c2 873e
00000360: 54c0 7abe 6c16 213e c564 3e3f 94e2 abbf
00000370: 8df8 09be c6aa bdbd 133b 36bf 2c4c 6c3e
00000380: 8ccb c43e 8bcf a43e 7658 8f3d 851f 30be
00000390: cb35 c63e 94ca aa3f f692 d43e 0a0f 433e
000003a0: fa86 9a3e b572 613f 9d07 063f 2fe4 d53c
000003b0: a17f 693d d5eb 8bbe ab2d ad3f 9b3e 093d
000003c0: a81d 52bf 3430 083f 59d2 0bbf 3cc5 6f3f
000003d0: 47e0 92bf a8b9 16bd 92e4 e3be c988 bbbd
000003e0: b6cd b23e a873 86be c5b7 f2be ab51 acbc
000003f0: bca3 7bbf 8baa 3dbf ea75 e33d bc39 42be
1.6280322 0.21820675 0.88064516 0.7251759 0.70783377 -0.81170046 -1.3414927 -1.3927461
0.13137041 -0.98532003 0.77356875 0.56402886 -0.39979467 0.89536357 0.6844643 -1.0996916
0.48740935 1.0064669 0.7324898 0.2697913 -1.1394148 -0.87938964 0.19626349 -0.27357706
1.7043846 -0.9660623 -1.1939814 1.1107922 0.3524558 0.3350385 -0.27180666 1.7248393
-0.11236356 -0.91502213 0.3272652 -0.7894037 1.2106922 -1.4124141 0.04270266 -1.0343566
-0.15858085 -1.2511278 0.035003416 0.33932394 0.8322006 0.13122265 0.65744174 1.552414
-0.0046484 1.782129 0.9784043 -1.3892804 1.6932917 0.46133903 1.619551 0.25868872
-1.0862266 -1.8313228 -0.40256947 -0.98625183 -0.11580785 0.43866363 -1.8814027 -0.1258622
-0.52495104 0.3395392 0.05929985 -0.059771758 -0.04569203 0.6916823 -0.32469565 -0.065477304
-0.6129855 1.1050441 0.4258516 -0.26215872 0.5425471 -0.17984442 -1.1687226 -0.34445807
0.68163407 -0.5545618 0.23080242 -0.3512718 -1.2540538 0.09951275 0.33692485 -0.32512206
-0.06301456 0.48657858 0.38427538 0.5983617 0.19495349 0.039343234 0.46447736 0.5541264
0.48036128 0.12668718 -0.021766556 -0.07844806 0.26474404 0.4631116 -0.61769 0.40951553
-0.52200526 -0.18277092 -0.8844513 -0.0064660385 -0.026131976 -0.13431732 0.34639436 -0.45162925
-1.4687802 0.22436176 0.24013141 -1.4257948 0.08620087 -0.39891025 0.06229444 -0.8273377
-0.25748858 -0.5118505 0.040406097 0.3219286 0.4402103 -0.3461391 -0.14361759 0.37996992
-0.48419994 0.31358555 0.6314654 0.32877296 -0.4015775 0.46272928 -0.16732655 -1.0876932
1.5536425 -0.08376452 -0.64319664 0.58546084 0.46252733 -0.24859758 0.23615526 0.25355104
0.087851696 -0.33546507 0.13139285 -0.26676282 -0.42034578 -0.12880321 1.6312791 -0.35447845
0.40643007 1.5745722 0.16359945 0.14034839 -0.19272721 -0.52502644 0.34032086 -0.28115916
-0.16517709 0.68071675 -1.4938313 0.62934214 -0.7213193 0.15144481 0.7882344 -0.9664736
0.2993411 -0.18483004 0.76900655 0.61455405 -0.31623608 -0.74893 0.07952916 1.3163775
0.090582535 1.2284882 0.21520531 0.08399506 -0.6423142 -0.27722222 0.5239207 1.1103207
-0.06333573 0.69444746 0.21926753 0.012777127 0.24666113 -0.072383516 -0.38962978 0.03210362
-0.19973315 0.54226243 0.7162426 1.0266788 0.19165011 0.08667778 0.78674936 1.4907198
0.97892886 -0.94400376 -0.13617197 -0.4823255 -0.041192565 -0.016974762 0.6209742 0.3966945
0.033611473 -0.020288737 0.17790121 0.15930347 0.3495889 0.1157506 0.17764866 0.26515356
-0.2448743 0.1573121 0.7437251 -1.3428521 -0.13473721 -0.09261088 -0.7118389 0.23075932
0.38436544 0.32189593 0.069992945 -0.17199524 0.38712916 1.3343072 0.41518372 0.19048706
0.30181104 0.88065654 0.52355367 0.026109783 0.057006482 -0.27328363 1.3529562 0.03350697
-0.820765 0.5319855 -0.5461784 0.9366033 -1.1474694 -0.03679815 -0.44510323 -0.09156949
0.3492257 -0.26260114 -0.4740583 -0.021035036 -0.98296714 -0.7408835 0.11106475 -0.18967336

fc2.bias f4 [64]
00000000: 72c5 ed3e 9d4b 4abf e116 5b3e b8a0 c2be
00000010: 08be 1fbe c1b5 b9bd 32c8 fc3e 2b92 5b3f
00000020: 4fdd 053f d687 7dbe 04aa 83be dd92 8abf
00000030: e79f 1fbe 4ec3 253d 0538 9a3e fe48 17bf
00000040: e3da 783e 5bce 0fbf 9cc1 b7be 8882 aabe
00000050: d3b3 9e3e 83b6 eebc 01de 063e 2e70 68bf
00000060: 5e2b 9c3e 7e66 87be 0c33 99bd ee9a 6bbd
00000070: 88bf a33e 1afa e63e d436 6cbf 13e3 963e
00000080: 8e60 8cbd dd43 c3be 2116 7a3e 2515 54bf
00000090: 3842 56be 1f00 b23e 647e 15bd dfbc e7be
000000a0: a4d2 01bf ede7 de3e ec01 573e 83f5 dbbe
000000b0: 7409 e9be c709 76be a8d3 5d3d 05d3 403f
000000c0: 1acb 6bbe 89b0 083f 213b 2abf dc16 613e
000000d0: c0a7 af3d f21a a43d 6687 073e 167d 84bd
000000e0: 523a 5dbf 4329 23bf 122b 81be 3c84 c33e
000000f0: e205 c8be 5a1e 1abe 46c2 7c3d 058f 443e
0.464397 -0.79021627 0.21395446 -0.38013244 -0.15599835 -0.0906787 0.49371487 0.8576991
0.52290815 -0.24758849 -0.2571565 -1.0826069 -0.15588342 0.04046946 0.30120865 -0.5909575
0.24302249 -0.5617425 -0.358899 -0.33302712 0.3099657 -0.029139763 0.13170625 -0.9079617
0.30501837 -0.26445383 -0.074804395 -0.0575208 0.31982064 0.45112687 -0.9227116 0.2947012
-0.06854354 -0.38137713 0.24422504 -0.82844764 -0.20923698 0.34765717 -0.03649749 -0.45261285
-0.5071204 0.4353632 0.20996827 -0.42960748 -0.45515025 -0.24027167 0.05415693 0.7532199
-0.23026696 0.5339437 -0.66496474 0.21981376 0.08576918 0.08012952 0.13235244 -0.06469171
-0.86417115 -0.63734835 -0.25228173 0.38186824 -0.39066988 -0.1505064 0.06170871 0.19195183

fc3.weight f4 [5, 64]
00000000: 00b4 533d 128e fa3d 8e2e e73d 3a3f ef3d
00000010: 2a41 e53d a00b d03d 3809 063d d082 2bbc
00000020: a0c4 9b3b 98c6 54bd 3091 703d c053 6d3b
00000030: 9896 f13c dce6 a4bd 58c8 40bd 84ec bf3d
00000040: 0031 473c e0af 303d 6a7d dfbd 7440 5bbd
00000050: c07d 50bb 70e8 56bc 926a a33d 8883 1abd
00000060: 2ca8 d53d b00c c6bc 5024 473d 2e3b b4bd
00000070: 98ce ad3c 7895 f9bd 24a5 dbbd 62d7 a3bd
00000080: 8456 0f3d 00bc 1e3c f036 463c 1007 60bc
00000090: 9a1a d73d 12c7 fa3d c470 593d d495 cb3d
000000a0: c06e cabb 3c3a 3cbd 3813 c73c 4454 a83d
000000b0: c842 9ebc a090 c4bd b014 293d 5084 02bd
000000c0: 5876 76bd 02b2 a13d 0007 8bbb 0056 92bd
000000d0: ea2e 99bd 3417 f13d bc83 a63d 2a91 b7bd
000000e0: 00a0 7a38 403b 31bb 540d 743d 2241 dbbd
000000f0: 8080 f33a e897 2a3d 7847 823d 2025 563c
00000100: 90c8 7dbd 84c3 f5bd 165f 8a3d f6b7 e93d
00000110: 3c95 1abd 82c6 e4bd d0cd 153d 327b b3bd
00000120: ee42 a7bd 6090 0b3d c07b 42bc 604e 0bbc
00000130: 689e e53d a89c b3bc 6cd4 9b3d ac58 1fbd
00000140: 9c7d be3d 7432 1c3d 021f e43d 3893 323d
00000150: 005c 35bd 3c28 5f3d 421b da3d 0015 c23c
00000160: f40b 6c3d 1a1a b4bd cab5 8a3d 76fe f1bd
00000170: 3c4f e23d d877 533d 90c6 063c a29a efbd
00000180: e4cb e83d 743c a33d 92ff eb3d d445 493d
00000190: 1c6e 2c3d 08a0 04bd 88d1 51bd 54f5 4a3d
000001a0: 7890 313d e0ca 84bb 40e0 a23c 04e1 2f3d
000001b0: 2663 f7bd 5664 e2bd e04b 08bd f259 ae3d
000001c0: b4cb 793d 9e57 f4bd 30ba 19bd 007c 58bc
000001d0: 6c29 283d 6470 d13d 002c 333b 4e44 c7bd
000001e0: a053 fb3b e4b6 45bd cc73 9cbd becb 8d3d
000001f0: 9093 89bc e4ed 713d 2656 c73d e047 493c
00000200: 1031 903d 64cf 71bd 3ae7 8e3d e0a2 a33b
00000210: 9a1e aa3d 50c0 f43d fea6 c1bd b206 f33d
00000220: b06b c33d c439 cebd a416 163d 6069 d0bd
00000230: f015 263d f059 9e3c 6a61 f4bd 9cdd 393d
00000240: e4a2 0cbd cc2c ff3d aadb f93d 60bf 303d
00000250: 4aca c93d acec 383d 7633 f23d c015 3dbc
00000260: 0015 fd3c b825 a9bc c043 0fbb 0474 1abd
00000270: 60a0 4abd 2017 943d 8cb6 5b3d 2404 62bd
00000280: fa9c e1bd 9c58 7a3d b67c ebbd c040 b5bb
00000290: fa45 dcbd 505b d63d 7474 d03d 3a64 d2bd
000002a0: fe02 eebd fa5b 97bd 2c48 0d3d fa04 80bd
000002b0: 90dc f3bc 08c8 01bd d8d5 bb3c d02d 72bd
000002c0: 80dd 683d b230 b7bd e04c 36bc 0096 d63d
000002d0: 945b 8dbd 6c68 c43d de3c 853d a462 25bd
000002e0: 1c8b 313d 8af2 acbd 10d4 243c 8807 113d
000002f0: 1a6e dd3d 9040 8fbd c497 91bd ac8a 7fbd
00000300: 5e63 f9bd b814 cf3c bae8 d3bd 7c71 09bd
00000310: e871 64bd 0003 e53b 8850 1b3d 1208 babd
00000320: 6026 17bd 70e4 44bc 34fd 93bd 488e ec3c
00000330: 608a 3d3d 4672 b6bd 0a4c c93d e0e9 b53d
00000340: 40d1 19bd c85c 983c 405c 793c 9048 8dbc
00000350: b4cf abbd 00f3 d23d ecf4 7b3d 64ee d5bd
00000360: 6e67 c6bd c871 f33d 786f a33c 7042 ebbc
00000370: 3880 ad3d 3c16 133d 08cb 373d 4818 cb3d
00000380: 90d7 1fbc a2ef f33d c2d2 b3bd aac6 9bbd
00000390: 4881 ad3c 10a3 78bc 3816 923d 083a 0bbd
000003a0: b005 a13c 60c6 d4bc ec30 c03d 6055 06bc
000003b0: 007c fb3a 3e8b bb3d ace0 f83d 72f4 f43d
000003c0: 1c4c fabd d2a7 90bd 205c debc e065 d3bc
000003d0: 8014 943d 443e 673d a073 28bc 0011 423b
000003e0: 5866 db3c c0af dc3d a0a9 843d fc20 81bd
000003f0: 0c24 83bd 28eb 213d 9025 4fbc 043c a4bd
0.051685333 0.12234129 0.112881765 0.116819814 0.1119407 0.10158467 0.032723635 -0.0104682
0.004753664 -0.051947206 0.05873221 0.003621325 0.029490754 -0.080518454 -0.047066063 0.09371284
0.012157679 0.043136477 -0.10912593 -0.053528264 -0.0031813234 -0.013116941 0.07979311 -0.037723094
0.10432467 -0.024175972 0.048618615 -0.0880035 0.021216676 -0.12186712 -0.107248574 -0.080000654
0.034994617 0.009688377 0.012098059 -0.013673559 0.10503121 0.12245001 0.053086057 0.09940687
-0.006177753 -0.045953974 0.024301156 0.082191974 -0.019318953 -0.095978975 0.041279495 -0.031864464
-0.060171455 0.078952804 -0.004242778 -0.071453094 -0.07479651 0.11772004 0.08130595 -0.08963235
5.9753656e-05 -0.0027043372 0.059583023 -0.107057825 0.0018577725 0.041648775 0.06361288 0.013070375
-0.06195885 -0.12000182 0.067564175 0.11412041 -0.037739977 -0.11170675 0.03657323 -0.08763732
-0.08167063 0.034073234 -0.011870325 -0.008502573 0.11211854 -0.021925285 0.07608876 -0.038902923
0.09301302 0.038134053 0.11138727 0.04359743 -0.04427719 0.05448173 0.1064973 0.023691654
0.057628587 -0.08794041 0.06772955 -0.11816113 0.11050269 0.051627964 0.008226052 -0.11699416
0.11367014 0.07970515 0.115233555 0.04913886 0.042097196 -0.03237918 -0.051225215 0.04955037
0.043350667 -0.004052505 0.019882321 0.0429392 -0.12079458 -0.11054294 -0.033275485 0.085132495
0.060985282 -0.11930774 -0.037531078 -0.013213158 0.041055128 0.10226515 0.0027339458 -0.09729825
0.007669881 -0.04827012 -0.07639274 0.06923626 -0.016793996 0.05906476 0.097332284 0.012285203
0.07040608 -0.059035674 0.06977697 0.0049937814 0.08306618 0.11950743 -0.09455679 0.118665114
0.09542024 -0.10069612 0.036642686 -0.10176349 0.040548265 0.019329995 -0.11932643 0.04537736
-0.034335032 0.12459716 0.12200101 0.04315126 0.09853037 0.045147583 0.11826222 -0.01154083
0.030893803 -0.020647869 -0.002186045 -0.037708297 -0.04946935 0.07230973 0.053640887 -0.05517973
-0.11016269 0.06111966 -0.11498396 -0.0055314004 -0.107555345 0.10466635 0.10178462 -0.10273023
-0.116216645 -0.0739059 0.034492657 -0.06250949 -0.029768258 -0.031684905 0.022929117 -0.05912572
0.056851864 -0.08944835 -0.011126727 0.10477829 -0.06902233 0.095902294 0.0650575 -0.040377274
0.043345556 -0.08444698 0.010060325 0.035407573 0.10812016 -0.06994736 -0.07109025 -0.062388107
-0.12177156 0.025278434 -0.103471234 -0.033555493 -0.055772692 0.006988883 0.037918597 -0.090835705
-0.03690183 -0.012017354 -0.07226029 0.028876439 0.046274543 -0.08908515 0.098289564 0.08882499
-0.037553072 0.018598929 0.015219748 -0.017246515 -0.083892256 0.10300255 0.061512873 -0.1044586
-0.096876964 0.118869364 0.019950613 -0.028718203 0.084717214 0.035909876 0.04487136 0.09916741
-0.009755984 0.11910941 -0.08780433 -0.076062515 0.02117981 -0.015175596 0.07133144 -0.03399089
0.019656032 -0.025973499 0.09384331 -0.008199066 0.0019186735 0.09157418 0.12152228 0.11960687
-0.12221548 -0.07063259 -0.027143538 -0.025805414 0.072304726 0.056455866 -0.010281473 0.0029612184
0.0267822 0.10775709 0.06477666 -0.063051194 -0.0640336 0.039530903 -0.012643233 -0.080192596

fc3.bias f4 [5]
00000000: a6be d43d bcfd c83d 9841 fbbc f254 aebd
00000010: 5aa6 98bd
0.10387926 0.09814021 -0.030670926 -0.08512296 -0.07453604

fc4.weight f4 [4, 64]
00000000: 9b45 8ebf 90df a0bf ae82 3c3f a10e 45bd
00000010: 52cc 6d3d 1b8e 5c3d 4117 843e 8b2f d33f
00000020: fd98 1a40 747b 4ebf fa34 51bf 8c28 60bf
00000030: a40b 62bd 3eea 6cbf 8be5 8abf bd1f 7f3f
00000040: a616 1abf e3a5 cc3f 0990 9bbf 416f f3be
00000050: e1c7 91bf c7e8 b7bf e592 2e3f 0538 a6bf
00000060: 9f72 2f3f 1b4f 04bc ecf1 c9be 18c6 d23e
00000070: 11f2 453f 9e65 1e40 c230 a4bf 8858 d63f
00000080: e4d5 0dbd 82ed 0340 0476 2a40 98ab adbe
00000090: 0e87 44be bcfa 89bf 5b99 5bbf 9a4e 083d
000000a0: e825 81bf e945 4abf 7b7d 883f 259a 9fbf
000000b0: b6dd 64bf 304b 57be ddf9 fabf bb85 9cbf
000000c0: c8d1 0b40 0307 3d3f 5a80 39bf 4c93 35bf
000000d0: 2c26 8abf 1043 0f40 531c 993f c60f ce3c
000000e0: c03b 01bf 7d2d 0a3e 7bb3 23bf 652d 5b40
000000f0: 8077 85bf f074 a83d b502 b8bc b30d cabe
00000100: 3693 d4bf c338 93bf b985 1a3f 1f0b 9ebe
00000110: fb8e 06bd b1b7 b83c 8561 77be afdd d83f
00000120: 58f3 1e40 ad69 23bf 49d5 49bf e3fa 76be
00000130: 0023 dfbd 4890 73bf 2675 43bf 1745 cd3f
00000140: 67a4 40be 0b6d 6cbf 1c96 29bf c508 afbe
00000150: b4c5 94bf f477 9cbf d310 633f 3e2e b8bf
00000160: 49ea be3e ca69 aa3e 92fb 17bf 4055 35bf
00000170: d5ba fd3e 5b38 3240 5b28 91bf ef79 1240
00000180: abbd 593d 830c f73f f578 2840 e95e bebf
00000190: ba99 0cbf 9b39 83bf 710c 51bf 566f 53bf
000001a0: 725c a1bf 5ca2 adbe 6d58 9c3f a464 853e
000001b0: 5a42 1dbf c5a6 f5be 880c 02c0 d296 b6bf
000001c0: 7612 f73f a9cd 8b3f 43f4 78bf 77ad a4bf
000001d0: 1c2d 0ebf d7e0 c63f a619 8a3f 948c a4bd
000001e0: aba0 6abf 1006 293f 8754 68bf 4620 6340
000001f0: feb2 20bf 3d9a bfbd c1f2 973d 3905 7cbf
00000200: a285 84bf c53d 52bf 60d3 e43f 43ef 92be
00000210: 4a55 f4bc 9e33 833d 937b 43bf 3c98 9e3f
00000220: ad33 f03f c62d e7bf 50ca 24bf 3526 e43e
00000230: f1f6 bf3d 9d90 03bf 679d a4bf 3f0b 90be
00000240: ce44 babf b4ad ad3f 8c6c 84bf 3b37 55bf
00000250: ba94 92bf 91e0 9cbf 3279 733f f5d6 39bf
00000260: 9832 423f bd62 04bf 8032 26bf 930b 6b3d
00000270: 5c7e b33f a1ce 1d40 9fc3 8cbf a2e4 00be
00000280: d035 e93b 569b 2240 497c 3440 63e0 a7bf
00000290: 7d8b 22bf 57b1 54bf 6a03 98bf deff 483d
000002a0: f044 2fbf 77e8 dd3d 2a13 bc3f 4833 30bf
000002b0: ff8d 65be 2c0b bcbf f987 9cbf 430e 8cbf
000002c0: 16e8 fa3f 8d77 9f3e 33cb e5bf 59d9 a7bf
000002d0: 48b7 6fbf 68ec 2740 fbce 9a3f 266f 843d
000002e0: e5e9 a9bf 6846 70bf 1dc5 16bf 479d 3240
000002f0: ecea e6be 83ad 5c3d d210 f5bc e1a7 36bf
00000300: 7ed2 8cbf 28a0 11bf abc1 3f3f 1523 4dbf
00000310: 17f4 5cbc cd81 973d 557a 093f e756 0440
00000320: f219 1d40 a80a 52be 932e 2fbf f8ec c93f
00000330: 1dea 3c3d 1e6a 77be d5ed 7ebf f7b3 203f
00000340: 06a1 c1be ce06 d93e 014f 58bf b182 c5bf
00000350: e8a9 03be ca17 a3bf ffa4 953d 3f90 a4be
00000360: 2673 1a3f 6e5a ebbf b9d1 5dbf ba23 593e
00000370: 0ed4 943f 97f4 1540 f601 33bf 1e88 953f
00000380: e1a0 11bb 9ec1 0440 de65 2e40 c16d e53e
00000390: d2d6 1bbf 5750 82bf a4b5 97bf 4186 7bbe
000003a0: fe92 fcbe 1b38 b9bf e056 8f3f 88f6 62bf
000003b0: b980 56bf 620b 24bf dc82 e0bf b4d6 bbbf
000003c0: b1c3 1340 deab d93e 3b97 68bf 7e53 95bf
000003d0: 3d86 22bf 1365 e63f 2ef2 d23f f037 a8bd
000003e0: 5dea 10bf bb71 78bf d330 85bf 0a45 5e40
000003f0: 1cac 86bf 5432 a6b9 7d3c d03c f528 f7be
-1.1114992 -1.2568226 0.736369 -0.048109654 0.058056183 0.05384646 0.2579899 1.6498884
2.4155877 -0.80657125 -0.8172146 -0.8756187 -0.055186883 -0.92544925 -1.0851301 0.99657804
-0.6019081 1.5988125 -1.2153331 -0.47545817 -1.1389123 -1.4367913 0.68192893 -1.2985846
0.6853427 -0.008075501 -0.39442384 0.4116676 0.7732249 2.4749522 -1.282738 1.6745768
-0.03462781 2.0613713 2.663453 -0.33919978 -0.19192144 -1.0779643 -0.85780877 0.033278085
-1.0089693 -0.79012924 1.0663294 -1.2468916 -0.89400804 -0.21024776 -1.9607502 -1.2228311
2.184679 0.73838824 -0.72461474 -0.7092788 -1.0792899 2.2384682 1.1961769 0.025154006
-0.50481796 0.13493915 -0.6394574 3.4246457 -1.0427094 0.08225429 -0.022462228 -0.39463577
-1.6607425 -1.1501697 0.60360295 -0.3086786 -0.0328512 0.022548528 -0.24158294 1.6942652
2.4836025 -0.63833123 -0.7884107 -0.24119143 -0.108953476 -0.9514203 -0.7635063 1.603671
-0.18812715 -0.92353886 -0.66244674 -0.34186378 -1.1622834 -1.2224107 0.88697547 -1.4389112
0.3728812 0.33283836 -0.5936824 -0.70833206 0.49556604 2.7846897 -1.134044 2.2886922
0.053159397 1.9300693 2.6323826 -1.4872714 -0.5492207 -1.0251955 -0.8165961 -0.8259176
-1.2606337 -0.33912933 1.2214485 0.26053345 -0.6142937 -0.47978798 -2.0320148 -1.4264777
1.9302509 1.0922137 -0.97247714 -1.2865437 -0.5553758 1.5537366 1.0789077 -0.08034626
-0.9165141 0.66024876 -0.9075398 3.5488448 -0.6277312 -0.093555905 0.074193485 -0.9844547
-1.0353281 -0.821255 1.7877007 -0.28698167 -0.029825825 0.064063296 -0.76360434 1.2390208
1.876577 -1.8060844 -0.64371204 0.445604 0.09373272 -0.5139254 -1.2860535 -0.2813358
-1.4552248 1.3568635 -1.0345626 -0.832874 -1.1451638 -1.2256032 0.95106804 -0.72593623
0.7585845 -0.5171316 -0.64920807 0.057384085 1.4022937 2.4657366 -1.0997199 -0.12587216
0.0071170107 2.540731 2.8200858 -1.3115352 -0.6349409 -0.830831 -1.1876042 0.04907214
-0.68464565 0.10835355 1.4693348 -0.6882825 -0.22417448 -1.4690909 -1.2228996 -1.0941852
1.9602077 0.31145898 -1.7952636 -1.3113204 -0.9363904 2.623804 1.2094415 0.064665124
-1.3274504 -0.9385743 -0.5889452 2.7908494 -0.45101106 0.05387641 -0.029915247 -0.7134991
-1.1001737 -0.56885004 0.7490489 -0.80131656 -0.01348593 0.073978044 0.5370229 2.067804
2.4547086 -0.20511878 -0.6843044 1.5775442 0.046121705 -0.24161574 -0.9958165 0.62774605
-0.37818164 0.42388004 -0.8449555 -1.5430509 -0.12857783 -1.2741635 0.07306861 -0.321413
0.6033195 -1.8386972 -0.86648136 0.21205035 1.1627214 2.3430536 -0.6992487 1.1682165
-0.0022221135 2.0743175 2.7249675 0.44810298 -0.60874665 -1.0180768 -1.1852307 -0.24562933
-0.49330896 -1.4470247 1.1198387 -0.88657427 -0.83790165 -0.6407987 -1.7539935 -1.4674897
2.308819 0.42513937 -0.9085576 -1.1666105 -0.6348608 1.7999595 1.6480157 -0.08213794
-0.5660761 -0.9704854 -1.0405525 3.4729638 -1.0521274 -0.00031699485 0.025419468 -0.48273435

fc4.bias f4 [4]
00000000: 4610 413f 6c88 753e 2b64 09be efa6 af3c
0.75415456 0.23977822 -0.13417117 0.021441905
