checkpoint.pth (torch_old, 43958 bytes, 8 tensors)

fc1.weight f4 [64, 8]
000000 fe 1a 1d 3f 71 a6 0d c0 50 ab 1e be 73 0f f0 bf
       0.6136931 -2.2132838 -0.15495038 -1.8754715
000010 41 04 66 bf 7f 3c 22 3e 1a e7 b3 3d 8d 70 4d 3e
       -0.8985024 0.1584339 0.087843135 0.20062466
000020 b2 ed fc be 0c 63 59 bf 7d d5 66 3e 54 cb a2 3e
       -0.49400097 -0.8491676 0.22542377 0.31795752
000030 39 cc 9c bf 82 bc 00 be fe 35 33 3e 29 c1 bd be
       -1.2249824 -0.1257191 0.17501065 -0.37061432
000040 ca 3a 64 3e ce 52 98 be d8 94 10 3c d0 45 e1 be
       0.22288051 -0.29750675 0.00882455 -0.43998575
000050 77 7f 16 3f 22 f6 8b 3f 8c 84 38 3e 1b 92 8f 3f
       0.58788246 1.0934489 0.18019313 1.1216463
000060 0d 7e 56 3e 83 e7 d7 3e 8b 30 4a 3d fb 50 42 3c
       0.20946522 0.42168817 0.0493627 0.011860128
000070 66 8d a1 bf 3f 8c 00 be b5 b7 c1 be 84 9b 29 3f
       -1.2621276 -0.125535 -0.3783547 0.66252923
000080 02 3b 12 3e b7 c0 d9 bf 68 7b fa 3d 03 0f cd bf
       0.14280322 -1.7011937 0.12230569 -1.6020206
000090 31 23 4e be e1 31 d6 3e a0 42 ae be 81 1e ad 3e
       -0.20130612 0.4183493 -0.34035206 0.33812335
0000a0 85 00 12 3e 00 c0 28 bf fc 58 c4 3e 96 63 4f bf
       0.1425801 -0.6591797 0.3834914 -0.8101133
0000b0 08 11 b6 bf a7 39 cc bf 26 36 82 bd ff 6c f3 3e
       -1.4223948 -1.5955094 -0.06357984 0.47544095
0000c0 87 16 2d bf 3a 41 12 bf 1f d4 0d bf e7 7d 6c 3e
       -0.676125 -0.5713078 -0.55401796 0.23094903
0000d0 52 91 6e bf 10 2f c2 3e 9c 5f 58 3f 2e 90 0d 3e
       -0.9319049 0.3792653 0.8452089 0.13824531
0000e0 ee 55 d0 3f 2e d8 5e 3e 3c 2c 06 3f d7 0b 7d bf
       1.6276224 0.21762154 0.52411246 -0.9884619
0000f0 16 24 ca be fa d3 c6 bd f0 f8 a7 3d 45 c6 97 bb
       -0.39480656 -0.097084 0.08201778 -0.00463179
000100 da a0 95 3f 44 5e 21 3e fd 25 7a 3f fe 9c 8e bd
       1.1689713 0.15758616 0.97714216 -0.06963538
000110 f6 48 d1 be 03 de 02 3f b5 1e db be 03 d9 3e 3e
       -0.40875977 0.51120013 -0.42796865 0.18637471
000120 6b 8c 03 3e 1d 4d 2e c0 a4 e4 32 3f 12 03 e2 3f
       0.12846534 -2.7234566 0.6988013 1.7657187
000130 43 3f 06 3f 91 c7 58 bf ca 60 c6 be e9 52 67 3f
       0.5244028 -0.84679514 -0.3874572 0.90360886
000140 03 e7 29 bf fc e7 90 3f 54 1e 88 bd e1 fa 06 bf
       -0.6636812 1.1320796 -0.0664641 -0.5272656
000150 2a e7 37 3f 9e bf 20 3f f2 a0 80 be 50 c3 73 bf
       0.71837103 0.62792385 -0.25122792 -0.952199
000160 6e 90 5b be 03 13 44 bf 65 a4 2d be 35 3b ef bf
       -0.21441814 -0.7659151 -0.16957243 -1.8689944
000170 e2 29 2e 3e 51 ce c9 be 8b 65 3b bf 8d a4 5a 3d
       0.17008165 -0.3941522 -0.7320182 0.053379584
000180 cb f5 11 3e 93 93 84 3e 05 b9 8d 3e 77 e8 18 be
       0.14253919 0.2589384 0.2768022 -0.14932428
000190 bc 1f 9f 3e 63 14 c0 3f da ba b6 3e 6c 76 f4 bd
       0.310789 1.5006222 0.3568943 -0.1193665
0001a0 e1 56 64 bf 6d bc e0 bf 47 e4 13 3e 77 96 b9 bf
       -0.89195067 -1.7557503 0.1444255 -1.4499043
0001b0 19 e5 db bf 45 87 21 3d 71 c3 a9 3e a6 8c 22 3f
       -1.717929 0.039435644 0.33156922 0.6349586
0001c0 3c d4 2a bf 39 d0 6a 3f cb 89 fb 3e 58 f9 57 bf
       -0.66730094 0.9172397 0.49128565 -0.84364843
0001d0 0a 1a 19 3f b3 32 b8 be dd dd 8d 3e ae 88 76 be
       0.5980536 -0.3597618 0.2770833 -0.24075577
0001e0 f0 e3 e4 3e 29 df 1c 3f 9d 91 bb 3e 11 62 de 3e
       0.44705153 0.61278015 0.36634532 0.43434194
0001f0 c0 11 e8 be c1 84 86 bf ae 00 a1 bf d9 3d 9c bf
       -0.45326042 -1.0509263 -1.2578332 -1.2206374
000200 52 32 58 3d 5f 23 e4 bf a6 14 88 3e 59 ec ae bf
       0.052782364 -1.7823294 0.26578254 -1.3665878
000210 2e 47 64 3f 97 0e 28 be 16 dc 83 3e 4a 0b b5 bd
       0.8917111 -0.16411816 0.2575385 -0.08840044
000220 79 7c ae bf b6 91 d9 bd 3b 68 21 bd 96 4f 1e be
       -1.3631736 -0.10623495 -0.039406043 -0.15460047
000230 c8 bb 2d 3f 27 f3 1d 3f 39 9e 1a 3f e5 8d 04 bf
       0.67864656 0.61699146 0.6039768 -0.51779014
000240 2d da 7b bf 31 c4 c2 3e c9 1b 52 bf 13 d8 11 bf
       -0.98379785 0.38040307 -0.82073647 -0.5697033
000250 a7 05 83 3f 4d 81 56 bf 2f de dd bf bb 65 09 bf
       1.02361 -0.8379105 -1.733343 -0.53670853
000260 c3 dc 30 bf 77 9d 20 3f 3b f0 04 3f 62 f8 a0 bf
       -0.69086856 0.6274027 0.5192906 -1.25758
000270 fb ad 8d 3f 90 6b 8c bf 3d 29 e8 3d b3 34 97 3e
       1.106872 -1.0970325 0.113359906 0.29532394
000280 03 56 38 be 34 ba c8 bf 5b 48 1b bf 64 8a db bf
       -0.18001561 -1.5681825 -0.6065728 -1.7151608
000290 29 82 82 3f a5 95 61 3e f2 10 49 3e 8e e9 33 3d
       1.0195972 0.22029741 0.1963537 0.043923907
0002a0 d5 58 9c 3e f8 0e 29 bf 6e 8f b8 3f f3 b4 8e bf
       0.30536523 -0.66038465 1.4418771 -1.1148971
0002b0 4d 5c a0 be ea 5e 8b be 62 b7 bb 3e 90 f9 e8 3e
       -0.3132042 -0.2722085 0.36663347 0.455029
0002c0 6d 7c 98 3f c8 48 12 c0 9b 80 ba be 10 a9 8a bd
       1.1912972 -2.2856922 -0.36426243 -0.06770527
0002d0 20 0a d1 3e fe d0 be be 2c fd 22 3f ee 94 35 3f
       0.40828037 -0.37268823 0.6366756 0.70930374
0002e0 0b f6 a8 3f 43 be 97 3e 16 14 02 3f fc 3c 02 bd
       1.3200086 0.29637346 0.508119 -0.03179644
0002f0 29 c3 71 bf 1e 8c f5 bd cc d1 58 3f 8e 67 80 bc
       -0.94438416 -0.11989616 0.84695125 -0.015674379
000300 f5 65 81 be 28 f7 8d be 39 c1 49 bf a5 6d 57 bf
       -0.252731 -0.27727628 -0.7881046 -0.8415168
000310 35 fa a7 be ee da 15 3f d6 5b 29 bf 13 58 0b be
       -0.3280808 0.58537185 -0.66155756 -0.13607816
000320 07 66 99 be 70 10 9b bf 0a 9d 72 3e a2 f4 0a bf
       -0.29960653 -1.2114391 0.23692718 -0.5427953
000330 f7 83 b6 bd 53 a2 ea 3f 00 18 8d be 7e a4 93 be
       -0.08911889 1.8330787 -0.27557373 -0.28836435
000340 3c 31 79 3e 52 72 a8 be e1 a5 45 bf 25 be a1 bf
       0.24335188 -0.3289972 -0.77206236 -1.2636153
000350 ed e9 90 3f 7a 5d a4 bd 4e e7 f5 3e 33 d2 e0 be
       1.1321388 -0.08025642 0.48028034 -0.4391037
000360 8d 54 e9 be 4f f7 ee be 0a 68 41 3f 02 12 67 bf
       -0.4557232 -0.46673056 0.75549376 -0.9026185
000370 94 44 99 bf b7 ff 68 3f fe 48 7b 3d a3 d3 7f be
       -1.1974053 0.9101519 0.061348908 -0.24983077
000380 0d 13 a5 bf 2e d1 0b 3e e0 9a 54 bf 52 bd 02 be
       -1.2896439 0.13654014 -0.8304882 -0.12767532
000390 cb 41 7d bd c8 59 4a be a7 06 ff 3e b1 b4 64 3f
       -0.061830323 -0.19760811 0.49809763 0.89338213
0003a0 3c 01 ee 3e d3 fd ec bd b2 66 ca 3f ea af 8c 3f
       0.46485317 -0.11571851 1.581259 1.0991185
0003b0 da 56 1d 3f 3e f1 b3 be bc f2 c2 3c 01 6b 8f 3e
       0.6146065 -0.3514499 0.023797385 0.28011325
0003c0 58 86 3f 3f de a6 9b 3e 08 04 fe bf dd 0b 6c bf
       0.7481437 0.30400747 -1.984498 -0.922056
0003d0 73 66 14 3f 22 06 7a bf 3c 7e 2e 3f e1 b7 02 bf
       0.57968825 -0.9766561 0.6816137 -0.51061827
0003e0 8f 7e 28 be db 29 d2 3e 9a a7 7c 3d b3 ed 03 bf
       -0.16454528 0.41047558 0.061683275 -0.51534575
0003f0 a9 57 83 3f 6e f5 5a 3f 9a f2 ec bf 68 c3 8b bf
       1.0261127 0.85530746 -1.8511536 -1.0919008

fc1.bias f4 [64]
000000 74 65 8a be a5 ba 80 bf 1c 15 37 3e 79 c9 31 bf
       -0.27030528 -1.0056959 0.17879146 -0.6944805
000010 3a 48 86 bf ec f0 70 be bf ee 26 3f f8 64 f4 bd
       -1.0490792 -0.23529404 0.6520805 -0.11933321
000020 68 09 bd 3e 2f e9 d2 3e a7 e2 09 3d 64 49 ea 3e
       0.3692124 0.4119353 0.03366342 0.45759118
000030 ba 47 f6 be 1d 74 7a be 36 a2 28 3f ef 24 40 3e
       -0.48101598 -0.24458356 0.65872514 0.18764089
000040 f9 4d 20 bf 04 3c 4e 3e d1 7c a6 3e b9 4b c7 3e
       -0.62618977 0.20140082 0.32517102 0.3892496
000050 46 c6 bc be dc c7 a1 be f9 ce 2b bf 7e 9c ea 3d
       -0.3687002 -0.31597793 -0.6711269 0.1145563
000060 29 d5 ac 3e 74 c4 dd be a0 7f 68 be b7 62 58 bd
       0.33756378 -0.43313944 -0.22704935 -0.052828517
000070 b8 86 80 bd 49 9e d6 be fe b7 0e 3f ab 47 ab 3d
       -0.062756956 -0.41917637 0.557495 0.08363279
000080 26 dd b0 bd 13 4b 4d 3f 02 0e 4a be e6 a7 ae 3e
       -0.08635931 0.8019268 -0.19731906 0.3411247
000090 53 08 fb 3e ad 8d 0f 3f 97 be ab be 2a 05 4b bd
       0.49029788 0.56075555 -0.33543846 -0.04956547
0000a0 5d 93 0e 3f ad 8f 2c 3e 4c b9 1b 3f 55 08 83 3f
       0.5569361 0.16851683 0.60829616 1.0236918
0000b0 0a 7e f7 3e ba f6 28 3f 81 08 ac 3f 98 14 d7 3e
       0.48338348 0.66001475 1.3440095 0.420079
0000c0 6e 2e 4c be 47 1c 12 3e 40 3b 1a bf 31 37 1b 3f
       -0.19939587 0.142686 -0.6024666 0.6063109
0000d0 b8 76 13 3e 69 ab 4f 3f 5b e8 85 be bc b9 f2 bd
       0.14400756 0.81120926 -0.26153836 -0.11851832
0000e0 8b a9 b9 3e 1f 13 23 3f 66 e1 85 3c 9f 78 f8 3c
       0.36262164 0.6370105 0.01634283 0.030330954
0000f0 da 20 bf be a7 e1 24 bf 61 a0 12 3f a4 94 99 3f
       -0.3732975 -0.6440682 0.5727597 1.1998487

fc2.weight f4 [128, 69]
000000 24 c7 c9 bf 07 12 2a bf 92 0b 43 c0 7e c1 f3 3e
       -1.5763898 -0.6643376 -3.0475812 0.4760856
000010 7b ed 6f bf de c9 25 3e aa 35 3a bf bc 69 90 be
       -0.9372174 0.16190287 -0.72738135 -0.2820567
000020 23 35 4f bf a3 cc bd 3e 2f ea 79 3f a7 bc 57 3d
       -0.80940455 0.37070188 0.9762296 0.052670147
000030 ef e9 03 bf 85 b2 95 bf a1 55 a9 3e 9c e5 5d 3e
       -0.5152883 -1.1695105 0.33073142 0.2166962
000040 59 20 40 be 36 99 82 bf 6e 54 46 3f 21 36 e5 3e
       -0.1876234 -1.0203006 0.7747258 0.4476786
000050 6e 14 13 c0 4d 13 83 bf f6 a7 20 3e a6 96 f1 3b
       -2.298122 -1.0240265 0.15689072 0.007372695
000060 66 e8 8e bf 8b 9b 11 c0 b3 fc 3e bf 17 78 5e bf
       -1.1164672 -2.2751186 -0.7460434 -0.8690199
000070 37 39 a1 bf 68 e6 79 3e c5 c6 65 3e 50 64 01 3f
       -1.2595586 0.244043 0.22439106 0.5054369
000080 e8 69 86 be f4 4d fb be c7 1c c3 3e 19 62 0b 3f
       -0.26252675 -0.4908291 0.38107893 0.5444656
000090 2b bb 5c 3e 9f 70 a2 3e fc e8 2e 3d e4 4d 79 be
       0.21555774 0.31726548 0.04270266 -0.24346119
0000a0 ed dd 26 bf 9a ea 9f bc 34 69 15 3f fa bf 1e 3f
       -0.6518238 -0.019521046 0.5836365 0.62011683
0000b0 7d bf 42 3f 5c 1f 36 bf c0 15 c3 bd f1 9e 2a be
       0.7607344 -0.711416 -0.09525633 -0.16662194
0000c0 8a d4 3c b9 0c 39 fd be 3b 82 00 3d 81 81 19 3f
       -0.00018008254 -0.49457586 0.031374197 0.5996323
0000d0 d0 9a 67 3e c6 b4 6c 3b c5 c7 8f 3f b4 0e bb 3f
       0.2261765 0.0036118492 1.123284 1.4613862
0000e0 d8 2f 33 bf 6c 85 d7 3e 28 73 03 3f 0b f4 30 3f
       -0.6999488 0.4209398 0.5134759 0.6912238
0000f0 4a ef 89 be 6d 85 3c bd 26 68 ab be c5 63 2c bc
       -0.26940376 -0.046025682 -0.33477896 -0.010521834
000100 41 eb 3e 3e 8c 53 85 be 53 e8 ed be 7b b2 2f 3f
       0.1864443 -0.26040304 -0.46466312 0.68631715
000110 ec c3 8d bf 97 e8 ee 3e 64 99 3a 3f 33 ae ea bd
       -1.1075416 0.46661827 0.72890306 -0.11459007
000120 68 7b 5e be 1a 91 b4 3e fd 92 cf 3e 51 d6 ad be
       -0.21726763 0.35266954 0.4054183 -0.33952573
000130 61 22 47 3f fd 10 92 be 7e 7a 2d bf 7e ce 63 be
       0.77786833 -0.28528586 -0.67765033 -0.2224674
000140 8f e8 df 3e 8e cf 98 3f 36 b9 00 3d 07 ee 63 3e
       0.43732116 1.1938341 0.03142663 0.22258769
000150 76 ef 88 bf d1 67 08 3f 04 c5 a5 3e 3b 21 1c 3f
       -1.0698078 0.5328341 0.32376873 0.60988206
000160 88 28 b4 3e e0 7c b8 3e e6 c6 22 3f 92 75 82 3f
       0.35187173 0.36032772 0.63584745 1.019213
000170 2f 80 1d bd 06 08 0a bf 23 c6 83 3f 8f e3 cb 3f
       -0.038452324 -0.5391849 1.0294842 1.592882
000180 83 33 8f 3e 80 73 7c 3e 11 94 e2 bf 57 fd f3 be
       0.27968988 0.24653435 -1.7701436 -0.4765422
000190 be 0b 46 bf 14 0d dc 3d 4f ad 2c bf 8c c2 86 3e
       -0.7736167 0.10744682 -0.6745195 0.26320302
0001a0 7f a3 7d 3f 2c 47 99 be c1 d6 5b 3d 10 e1 d3 bb
       0.990776 -0.29937112 0.053671602 -0.0064660385
0001b0 3d ba 8a bc 71 1c a4 bf b6 87 33 be ed 32 2a bf
       -0.016934508 -1.282118 -0.17532238 -0.66483957
0001c0 47 fa ce 3e 59 fd 07 c0 72 1a 95 3e dc 44 f6 3d
       0.4042532 -2.124838 0.2912174 0.12024853
0001d0 f5 21 72 bf 11 e7 5c be c7 ac 54 3d 77 da e2 bf
       -0.94583064 -0.2157252 0.051922586 -1.772292
0001e0 64 06 81 3d f9 4f 83 3f b3 d3 cb bd e2 b6 df bd
       0.06300047 1.0258781 -0.09952488 -0.10923554
0001f0 15 8a 96 bf 5d fc 60 3c c0 64 7d be 90 1b 1e bd
       -1.1760889 0.013732043 -0.24745464 -0.038600504
000200 d4 c9 79 be 82 6a 8b 3d d2 64 1d 3f 77 d2 02 be
       -0.24393398 0.06807424 0.61481965 -0.12775598
000210 1c c9 b8 be 64 c3 39 bf b9 5d 51 3f 34 48 9e be
       -0.36090934 -0.7256377 0.81783634 -0.30914462
000220 a4 ce b4 3e 6e aa 02 bf 8d 57 c7 3e ee 8f a5 3e
       0.35313904 -0.51041305 0.38933983 0.32336372
000230 7f ae ed bd f2 54 97 3f 8d a7 41 3f 15 fb d3 3e
       -0.11605548 1.1822798 0.7564629 0.41402498
000240 7c cb 99 be 44 d2 2c 3d 15 61 e3 be 30 ea 34 bf
       -0.3003806 0.042192712 -0.44410005 -0.7066984
000250 ca 14 1d be 59 0d 5f 3f 87 58 97 bf 7a 06 19 3f
       -0.15339962 0.8712974 -1.1823891 0.5977551
000260 5d d2 83 be 8c 42 83 be df 9c 83 3f 72 0a 18 3f
       -0.25746432 -0.2563671 1.0282248 0.5939094
000270 55 25 35 bf 63 47 bb bc 58 93 fd 3e ad 13 82 3e
       -0.7076009 -0.022861188 0.49526477 0.25405636
000280 84 55 50 3e d7 e5 ea bd b6 8c e0 bd 3a 41 c5 be
       0.20345122 -0.1146962 -0.109643385 -0.38526326
000290 a5 f0 32 3f 73 89 37 3f 9f b2 df 3d 2d f7 7b be
       0.69898444 0.71694106 0.10922741 -0.24606009
0002a0 71 5b ec 3e 89 f5 db 3d 16 09 94 3e 6d e4 28 bf
       0.46163514 0.107401915 0.28913182 -0.6597355
0002b0 c9 a8 e6 3d f6 61 b7 bd 92 a3 93 3e 3f a2 49 bf
       0.11262662 -0.089542314 0.28835732 -0.7876319
0002c0 56 83 b9 3d dc d7 e0 3c ba 8f 1a bf b1 ee 99 3d
       0.090582535 0.02744668 -0.6037556 0.0751623
0002d0 23 33 f1 be c7 86 80 bf ec 62 24 bf 90 f2 16 bf
       -0.47109327 -1.0041131 -0.6421344 -0.5896387
0002e0 37 10 ec bf 67 50 89 bf b4 f3 ef 3d cd 85 3b 3f
       -1.8442448 -1.0727662 0.117164046 0.7325104
0002f0 58 d7 07 3f ee e6 b0 bf 6e 8d 30 3d e5 c4 6d be
       0.53062963 -1.3820474 0.043103628 -0.2321964
000300 6b 1b 2f 3f 30 16 90 3e 73 e2 29 3e 22 97 1f bf
       0.6840121 0.28141928 0.1659029 -0.62339985
000310 09 0a 87 3d 03 42 3d 3d 5a 9b 9e be 2a 0e 3c 3f
       0.06593711 0.04620553 -0.309779 0.7345911
000320 d8 65 cd be 56 d3 70 bf 06 9d 1b 40 70 3b 84 bf
       -0.40116763 -0.94072473 2.431459 -1.0330639
000330 0b 5c 85 3e 11 96 81 3f 3c 3e 93 be 3e da 66 be
       0.26046786 1.0123922 -0.2875842 -0.2254419
000340 f1 b0 c2 be d6 d8 01 3d 52 ae 1f be 9d 7c a2 be
       -0.3802562 0.03170093 -0.15593842 -0.31735697
000350 14 42 6b be 9d 17 3a 3e b0 5b ad 3c ec 11 00 3e
       -0.22974426 0.1817307 0.021161884 0.12506837
000360 57 df 07 3e d8 6b bd be 76 5c ae be 2b fe 6d be
       0.13268791 -0.3699634 -0.34054917 -0.23241489
000370 04 c3 84 be 57 37 c9 be 34 f2 f3 be 69 50 80 be
       -0.25930035 -0.39300033 -0.47645724 -0.25061348
000380 21 62 60 bb 23 e8 26 bf d2 35 c2 bd 08 08 9b bc
       -0.0034238177 -0.6519796 -0.09482922 -0.018924728
000390 aa 89 07 bc 9f d9 29 3e 96 a9 12 3d c4 d8 b5 be
       -0.008272568 0.16586922 0.03580626 -0.35516942
0003a0 66 d1 ee 3c 10 c9 8c 3e b0 3b bb 3c ca db 0c be
       0.029152583 0.2749715 0.02285561 -0.13755718
0003b0 f5 f3 c9 be a2 6a 1a bf d5 a4 ce be 37 4f d8 be
       -0.39443937 -0.6031896 -0.40360132 -0.42247936
0003c0 3d 6b 24 bf d2 b0 1a be 4e 57 b1 be 67 64 33 bf
       -0.6422613 -0.15106514 -0.3463692 -0.70075077
0003d0 c1 08 b9 be a8 b9 16 bd 73 ec ae bd 2b ef a8 be
       -0.3613949 -0.03679815 -0.08541193 -0.3299497
0003e0 6d 25 26 be 91 d5 dd be 94 f8 56 be 7f a2 4d be
       -0.16225214 -0.43327 -0.20993263 -0.20081519
0003f0 a0 44 3f bd 2d 3c 05 bf 8e cc 92 3e 87 10 e5 3e
       -0.046696305 -0.52044946 0.28671688 0.44739172

fc2.bias f4 [128]
000000 02 da ba 3e 4d e3 b1 bb 90 75 4d bf 39 27 db be
       0.36494452 -0.0054287077 -0.8025751 -0.42803362
000010 e5 2f af 3e 80 e8 23 bf 3a de 06 be 51 26 71 3d
       0.34216228 -0.6402664 -0.1317071 0.058874432
000020 e3 8a 83 3e 64 23 eb 3e e1 33 c3 bd 92 7a a9 3e
       0.256919 0.45925438 -0.095313795 0.33101326
000030 e1 1f 26 3e 46 a0 c7 3e 28 5f 02 3f 18 a2 7d bd
       0.16223098 0.38989466 0.50926447 -0.061922163
000040 a6 3e 5c 3d 01 0a 52 3e c9 26 04 bf bd b8 01 be
       0.053770684 0.20511629 -0.5162168 -0.12668128
000050 2e aa ff 3e a7 66 58 3e 02 1e d2 3b e7 25 b4 be
       0.49934524 0.21132909 0.0064122686 -0.35185167
000060 da e2 00 bf 24 f3 1e 3d 3c 68 92 3e 61 3e f6 bc
       -0.5034615 0.038806096 0.2859515 -0.030059041
000070 93 9b 25 3f 59 40 21 3e c7 82 1b 3e bf b4 7e 3e
       0.6469051 0.15747203 0.15186606 0.24873637
000080 b6 cc 59 3e 8e ec b6 bd a1 61 13 3f 7f 9c ad be
       0.21269497 -0.08931838 0.57570845 -0.3390846
000090 ee 92 03 bd 50 e0 7a be 06 b8 22 3e 54 63 ce bc
       -0.032122545 -0.24499631 0.15890512 -0.025193848
0000a0 a0 37 fe bd 41 36 a1 3e 87 d4 b6 be 27 cd 58 be
       -0.124129534 0.31486705 -0.3570902 -0.2117201
0000b0 ce ce 94 be 81 17 92 be 1f 44 30 3f 90 6d 88 be
       -0.2906403 -0.28533557 0.68853945 -0.2664609
0000c0 ad c1 4c be 29 b6 2b be 9d 7c 2a be 2e 1e 5b 3c
       -0.19995756 -0.16768707 -0.16649099 0.013373895
0000d0 c0 44 13 be f2 03 12 3d df 59 a5 be cb 7f ad bb
       -0.14381695 0.035648294 -0.3229513 -0.005294775
0000e0 6a 09 a3 be 39 64 9e be f7 f8 ab 3e 6c 1c 91 3d
       -0.3184312 -0.3093584 0.33588383 0.07085499
0000f0 f7 cc 00 be 38 7a 24 be 39 e4 4b 3f d8 b4 5c bd
       -0.12578188 -0.16062248 0.79645115 -0.053883404
000100 36 93 1f 3f d4 e7 d1 3d 71 3e a1 3e dd 56 53 3e
       0.62334 0.10249296 0.31492952 0.20638604
000110 9e 5b 24 bf 37 9e 2d bf 84 da 93 be 20 09 06 bf
       -0.64202297 -0.6781954 -0.28877652 -0.52357674
000120 5d 42 13 3e 39 c8 17 bf 89 8e 9f 3e 61 13 d6 bc
       0.14380784 -0.5928989 0.31163433 -0.026132287
000130 01 5a 64 be 22 fc 05 3f 61 71 0f bf bf 97 1f be
       -0.22299959 0.5233785 -0.5603238 -0.1558523
000140 49 d4 67 3e b8 ac f9 bc 72 40 ad 3d a8 f1 1a bf
       0.22639574 -0.030477867 0.084595576 -0.6052499
000150 a1 08 4b be b4 ba 45 bd ac 02 46 3e cc ad 29 3f
       -0.1982751 -0.048273757 0.19336957 0.6628082
000160 16 48 67 be 53 59 89 3e a3 00 e4 bd a4 fc fe bd
       -0.22586092 0.2682596 -0.11132934 -0.12450531
000170 4d d3 02 bf a3 ea b9 3e 87 a5 4a be 02 53 82 3e
       -0.5110367 0.36311826 -0.19789706 0.25453955
000180 4f 61 f6 be 42 c3 c7 be 9e b5 5f be 37 a9 21 3e
       -0.48121116 -0.39016157 -0.21846625 0.15787207
000190 a6 5a a8 be a7 6a 38 3e 59 f1 2f be f1 5c 04 3e
       -0.3288166 0.18009435 -0.1718191 0.1292608
0001a0 f4 56 01 3e f6 3f 81 be b7 1a 56 bd 01 0b 82 3e
       0.12630826 -0.2524411 -0.05227157 0.2539902
0001b0 a3 ec 55 3b 99 70 de 3c c4 d9 c6 3d 88 c3 8e bd
       0.0032642267 0.0271533 0.09709504 -0.069708884
0001c0 0e 71 23 3e e6 be 6a 3c a7 f6 e6 3e 7e 5a 40 3e
       0.15961096 0.01432774 0.45110056 0.1878452
0001d0 82 8d 92 3d fe 77 2e 3d 6a 97 a4 bd 13 bf af be
       0.07155897 0.042594902 -0.080366924 -0.34325466
0001e0 d5 27 38 3d f8 3c e9 be 3d 58 0a 3f f1 88 9b be
       0.04495986 -0.45554328 0.5404089 -0.30377916
0001f0 19 09 3b be 65 52 0d bf ed fd 14 3e 47 bb d6 3d
       -0.18265189 -0.5520385 0.1454999 0.10484939

fc3.weight f4 [5, 128]
000000 e0 21 ec 3c 66 44 29 bd 5c ee 8f bd a4 f0 8a bd
       0.028824747 -0.041324995 -0.07027885 -0.0678418
000010 ae 39 ac bd d0 09 a5 bc cc a2 9b bd b5 ad 8c 3d
       -0.08409439 -0.02014628 -0.075994104 0.068690695
000020 8b 3a 97 bd 41 42 8a 3d 7c 45 9d 3c 2a 41 82 bd
       -0.07384213 0.06750918 0.019198172 -0.06360085
000030 45 59 9a 3d c0 7b f0 3c 20 b2 e8 bb 59 5e 8f 3d
       0.07536558 0.029355884 -0.0071013123 0.07000417
000040 1c 2a 98 bd 0f 5c 82 3d 10 1d fd bb 00 b0 26 3b
       -0.07429907 0.06365215 -0.007724412 0.0025434494
000050 d2 54 04 3d d1 4a 14 bd 80 60 99 ba 07 7e 82 3d
       0.032307453 -0.036204163 -0.0011701733 0.06371694
000060 3c 41 10 3d a6 fd 2e 3d 0f a1 9a 3d 08 b9 69 bd
       0.035218462 0.042722367 0.07550251 -0.057061225
000070 0c 61 84 bc 73 d5 9d 3d 72 b4 00 bd 90 26 ce 3c
       -0.016159557 0.07706728 -0.031422086 0.025164872
000080 d6 7d 0f 3d d0 0f a4 bd 80 00 99 3a 81 42 a7 3d
       0.035032116 -0.080108285 0.0011673123 0.081669815
000090 a8 65 74 bc 9d 2e b1 bd fa de a4 bd 78 43 5c 3c
       -0.014916815 -0.08651469 -0.08050342 0.01344382
0000a0 8c cf e5 bc 66 34 71 bd 5b 0a 93 3d 7d 8d 4c bd
       -0.028053068 -0.05888786 0.071797095 -0.04993962
0000b0 d1 88 82 bd 86 e5 75 3d 3f 75 89 3d 90 07 f8 3c
       -0.06373752 0.060033344 0.06711816 0.030277044
0000c0 25 cc b4 3d 60 c5 12 3b 31 cf 87 3d fc b5 56 bd
       0.08828 0.0022395477 0.066313155 -0.052419648
0000d0 ab 6c 93 bd 88 f3 21 3c e8 be 70 bd 00 58 23 bb
       -0.07198461 0.0098847225 -0.058775812 -0.0024924278
0000e0 50 69 11 bc 80 db 5e 3c 7c a0 b1 bc 50 b7 ce bb
       -0.008875206 0.013602138 -0.02168297 -0.0063084736
0000f0 91 5b a4 bd eb a0 18 bd c6 44 26 3d 05 5c 9d 3d
       -0.080252774 -0.03726284 0.04059293 0.07683567
000100 23 f1 9e 3d ac fb 88 3c 18 42 8c bc 95 93 8a 3d
       0.07760837 0.016721569 -0.01712136 0.0676643
000110 50 77 82 3b c0 33 d6 ba 20 ad 52 3b 36 51 60 bd
       0.0039815083 -0.0016342327 0.0032146648 -0.05476495
000120 68 6f d4 bc 86 3e a3 bd 40 b5 07 bc ec bd ae bd
       -0.025932029 -0.0797091 -0.008282959 -0.085323185
000130 e8 ab 5c 3c 00 30 1f b9 d6 24 00 3d 02 e2 61 bd
       0.01346872 -0.00015181303 0.03128513 -0.05514718
000140 80 47 1a ba c0 cd c9 bc ce 28 58 bd b1 29 8d 3d
       -0.0005885288 -0.024634242 -0.05277329 0.06892718
000150 f1 8b b2 bd 0d 20 80 3d 04 41 b3 bc 0b 9f 4a bd
       -0.08718098 0.06256113 -0.021881588 -0.04946808
000160 8f c4 af bd e6 b7 ab bd 04 c1 f9 bc a2 95 69 3d
       -0.085824125 -0.08384685 -0.030487545 0.057027467
000170 e8 9a 8f 3c 08 39 84 bd 13 b0 98 3d 73 4e 94 3d
       0.01752992 -0.0645619 0.074554585 0.072415255
000180 8e 75 16 3d 53 34 b1 3d 3e 25 71 3d 78 8d 4d 3c
       0.036733203 0.08652558 0.058873408 0.012545936
000190 da 38 7a 3d d4 49 4e bd 60 9a 3b bc 5c b3 3c bd
       0.061089374 -0.050363377 -0.01145038 -0.046069488
0001a0 28 e3 7e bc 9c 43 8f bd 9a 1d 76 3d 3b 06 0f bd
       -0.015557088 -0.06995317 0.060086824 -0.03491805
0001b0 f0 0d df 3c 97 03 a6 3d f4 80 f4 3c 40 30 99 3b
       0.027228326 0.081061535 0.029846646 0.0046749413
0001c0 79 ca b3 3d 74 1b b3 bd 4f a8 a7 3d 23 f0 9c bd
       0.08778853 -0.08745471 0.08186399 -0.0766299
0001d0 ad 6e b3 3d 40 46 e6 3b e1 31 5e bd d4 4e f7 bc
       0.08761344 0.0070274174 -0.054246787 -0.030188955
0001e0 3b e6 39 bd 1e 17 59 3d 2b 82 9b 3d 86 ed 5a 3d
       -0.04538558 0.053000562 0.07593187 0.053449176
0001f0 8f 5d 84 3d 9f 86 ae 3d 96 89 9f bd 66 36 18 3d
       0.064631574 0.08521771 -0.07789914 0.037161253
000200 a0 14 ed 3b 9a 36 5a 3d fc 55 cc 3c 40 85 21 3b
       0.0072351247 0.05327473 0.024943344 0.0024646074
000210 92 e9 70 3d f9 6b 12 bd ef ea 89 bd 74 be 81 bd
       0.0588165 -0.035747502 -0.06734263 -0.06335154
000220 99 e9 81 3d 80 03 f4 3a 76 26 93 bd 38 61 fa 3c
       0.06343383 0.0018616766 -0.0718507 0.030563936
000230 00 2f 3c bb 7f c3 56 bd 05 9c 9e 3d 9a 42 52 3d
       -0.0028714538 -0.052432533 0.07744602 0.051333047
000240 c1 46 99 3d e0 d5 6b bc 31 d1 5f bd 0f 21 99 bd
       0.07484198 -0.0143942535 -0.05464286 -0.074770086
000250 88 40 29 3c 3b ba 7d bd 52 f8 57 3d 17 1a a4 bd
       0.010330327 -0.06194518 0.05272705 -0.08012789
000260 5f d6 80 bd 10 54 52 3c 90 30 b1 3c 70 bf 3e bc
       -0.06290888 0.012837425 0.021629602 -0.011642322
000270 d8 c2 96 bc 6b 88 37 bd 2c 6f d1 bc 08 d6 3b 3c
       -0.018403456 -0.044807833 -0.025565706 0.011464603
000280 d1 7b a2 bd b0 08 7b bc 10 e0 64 bc c0 05 fe 3a
       -0.07933772 -0.0153218955 -0.013969436 0.0019380376
000290 01 8a 86 3d 80 c0 97 bd a0 24 fa 3c d2 37 06 3d
       0.06569291 -0.07409763 0.030535042 0.03276808
0002a0 88 fe c8 3c a0 7f cf bc 12 47 52 3d 4f 19 80 bd
       0.024535432 -0.025329411 0.05133731 -0.06254827
0002b0 d2 df 11 bd 40 81 1b bb a0 ff 54 bc 21 0a b3 bd
       -0.035613842 -0.0023728162 -0.013000399 -0.08742166
0002c0 de 40 42 3d 8a e6 55 3d fc b8 a0 bd 00 40 32 39
       0.047425143 0.052221812 -0.07847783 0.00016999245
0002d0 7b 5c 98 bd 90 9e 83 bc 40 20 2c 3c cf 72 9d 3d
       -0.07439514 -0.01606682 0.010505736 0.076879136
0002e0 be a0 7e 3d 26 a4 3a 3d 90 b4 3e 3c c0 08 a7 bd
       0.062165014 0.0455667 0.011639729 -0.08155966
0002f0 36 95 e9 bc 9b 5f a1 3d 50 86 ee 3b b4 2c a3 bc
       -0.028513532 0.078795634 0.007279195 -0.019918777
000300 2e cb f9 bc fa ca 2e 3d c2 c0 63 3d 00 b9 fc bb
       -0.030492391 0.042674042 0.05560375 -0.0077124834
000310 34 12 d4 3c 11 4e 85 3d 0e 64 72 3d 82 c9 3b 3d
       0.025887586 0.065090306 0.05917745 0.04584647
000320 7a 38 77 3d 20 c1 03 3d 6c 71 c6 3c 44 22 b2 bd
       0.060356595 0.0321666 0.024224006 -0.08697942
000330 24 36 8e bc 48 0b d8 bc e8 58 a2 3c 04 b6 cf bc
       -0.0173598 -0.026372567 0.019817784 -0.025355347
000340 99 23 a5 bd cb 78 97 3d 1d e9 1c bd 1f e6 ab bd
       -0.0806343 0.07396086 -0.03830825 -0.083935015
000350 ca 8a 16 bd 28 b5 97 3c 60 1d f6 bc 42 cf b4 bd
       -0.036753453 0.018519 -0.030043304 -0.08828594
000360 44 ec f0 3c 5e 90 0b 3d cb 82 a8 3d 6c ea b2 bd
       0.029409535 0.034073226 0.08228072 -0.08736119
000370 dc 30 89 bc b6 f6 09 bd b4 df fa bc c0 59 fa 3a
       -0.01674693 -0.033682548 -0.030624248 0.0019100234
000380 e9 c5 a8 3d 00 68 17 bc 5f f9 9a 3d f8 82 48 3c
       0.08240873 -0.009241104 0.07567095 0.012238257
000390 b4 93 3c bd 08 57 0b bc 76 53 3a 3d 66 11 56 3d
       -0.0460393 -0.008504637 0.04548975 0.052262686
0003a0 58 3d f0 bc 38 25 31 bc e3 5b 97 bd ad 8c 66 bd
       -0.029326126 -0.010812096 -0.07390573 -0.056286503
0003b0 84 56 bf bc 86 be 57 3d c0 cb b2 3b 5e 4b 3f 3d
       -0.023356684 0.05267193 0.005456418 0.046702735
0003c0 44 10 97 bd c4 28 94 3c 0f 4a 92 bd 64 c2 d3 bc
       -0.07376149 0.018085845 -0.07143032 -0.025849529
0003d0 5f c4 93 3d 20 b7 71 3b 78 88 87 bd 5d 44 b2 bd
       0.07215189 0.0036882833 -0.06617826 -0.087044455
0003e0 30 df da bc c6 f7 0d bd 2f 0d a8 bd 92 1d 46 3d
       -0.026717752 -0.034660123 -0.082056396 0.048368044
0003f0 00 28 e8 3a 60 4e 5e bc 17 d1 8b 3d 84 7a ab bd
       0.0017712116 -0.013568491 0.0682699 -0.083729774

fc3.bias f4 [5]
000000 f0 64 87 3c a3 93 80 bd 00 6f 5c bd 22 c9 47 bd
       0.016527623 -0.062781595 -0.053816795 -0.0487758
000010 a4 8a 75 bd
       -0.05994667

fc4.weight f4 [4, 128]
000000 a7 b8 f4 3f 9d 25 b1 bf c4 95 07 40 cb 12 9d be
       1.9118851 -1.3839604 2.118516 -0.306784
000010 a4 29 f1 3f 86 d3 32 3f f9 99 49 3d d0 29 7c 3f
       1.8840833 0.6985401 0.049219105 0.985013
000020 22 f1 0e 40 3f 86 77 bf cd ce 18 bf cd 88 bb 3f
       2.2334676 -0.9668922 -0.5969055 1.4651123
000030 96 47 d1 3f 45 34 95 bf 9d 96 57 bf fb 86 95 bf
       1.6349971 -1.1656576 -0.8421419 -1.1681818
000040 af 4f 64 3f 29 db 89 bf ae 52 30 3e ef 4d d3 be
       0.8918409 -1.0770007 0.1721904 -0.41270396
000050 37 a2 8a 3f b9 a0 9a bf 16 f3 88 3f 4b 8f 15 3f
       1.0830754 -1.2080299 1.0699184 0.5842177
000060 a8 a0 be 3e 32 34 ae bf 6f f6 81 40 af 84 8d 3f
       0.37231946 -1.3609679 4.061332 1.1056117
000070 33 5c 5a bf 31 44 30 3d 0d d7 d5 3f 7c 54 3f 3f
       -0.85296935 0.043033782 1.6706253 0.7473829
000080 6f d1 a4 bf c9 ec 89 3f c2 ce 1e 40 89 b3 39 3d
       -1.2876414 1.0775386 2.4813695 0.045337234
000090 b6 23 9e bf 85 1b 02 c0 c2 e1 c1 be 23 e8 81 bf
       -1.2354648 -2.0329297 -0.37867552 -1.0148968
0000a0 8c 8e 60 3e bf 2f f1 be 32 17 b1 3f b7 5a 34 bf
       0.21929377 -0.4710674 1.3835204 -0.7045092
0000b0 30 20 8d bf e5 91 a2 3e 64 15 b8 3f 80 10 85 bf
       -1.1025448 0.31751934 1.4381528 -1.039566
0000c0 a6 31 a0 bf 9e e5 f6 3f 77 85 22 bf d4 50 5f 3f
       -1.2515152 1.9288824 -0.634849 0.8723271
0000d0 0a 6b 92 3d 10 5e 2c 3f d2 c2 26 c0 9f fa 86 3f
       0.07149322 0.6733103 -2.605641 1.0545233
0000e0 9f 1b bb bf 39 d5 e7 3f 45 eb 69 bf 4f a5 ad 3f
       -1.4617804 1.8111945 -0.9137462 1.3566073
0000f0 ba 19 99 bf a0 0d a7 bf 5e 6b f4 be d4 4f ab bf
       -1.1960976 -1.3051033 -0.47738165 -1.3383737
000100 d1 90 9d 3e fa b9 60 bf a0 04 6d bf 8d fd e4 be
       0.3077455 -0.8778378 -0.9258518 -0.44724694
000110 0a 4a aa 3d 97 f4 b1 3e 5a 24 2f be 6a 57 f5 be
       0.08314903 0.3475692 -0.17103711 -0.47918254
000120 d6 8f 61 bf 46 cf 71 3f 8c b1 bd 3e ab 9d a2 bf
       -0.881101 0.944569 0.3704952 -1.2704366
000130 32 af 00 3f 82 04 6d 3f b4 75 bd bf 71 5d 9a bf
       0.50267327 0.92585003 -1.4801545 -1.2059766
000140 5e 14 91 bf 1e ca 9f 3c ce 5b 36 bf b4 bb 88 3f
       -1.133434 0.019505557 -0.7123383 1.0682282
000150 fa e2 46 bf d4 0f 3a 3f 07 3b 92 3f 3f 25 ff 3e
       -0.7769009 0.726804 1.1424264 0.49833104
000160 68 bc e6 bf a8 d8 f1 be 5e 7c 2d bf 9e 9c 74 bf
       -1.8026247 -0.47235608 -0.67767894 -0.9555148
000170 4a 73 7d be 6d 4a 11 40 a4 25 86 3f c4 e0 97 be
       -0.2475101 2.2701676 1.0480237 -0.2966367
000180 37 68 b1 3f 80 72 52 3f 03 64 7e bf 9b f9 c3 be
       1.3859929 0.82205963 -0.99371356 -0.3827637
000190 e4 f6 74 bf 8f 08 45 bf 78 ab 9c 3e f3 63 8e 3f
       -0.95689225 -0.76966184 0.3059957 1.1124252
0001a0 b5 c0 51 3f 30 b6 cb bf 53 ec 56 bf 6c b4 a8 be
       0.8193467 -1.5914974 -0.8395435 -0.3295015
0001b0 aa aa 46 bf 9e 21 f1 be 4b 79 18 bf 54 54 89 bd
       -0.7760416 -0.4709596 -0.5956008 -0.067055374
0001c0 83 03 96 bf 0f 0b 88 be 67 77 7f 3f 52 97 1a 3d
       -1.1719822 -0.26570937 0.9979157 0.037741967
0001d0 97 e7 07 bf c1 ed eb bf 68 d3 4d be 49 5a ec 3f
       -0.53087753 -1.8431932 -0.20100176 1.8465053
0001e0 76 b0 e1 bf 4b 86 2a bf b4 58 75 bf 73 a9 45 bf
       -1.7631977 -0.66611165 -0.95838475 -0.77211684
0001f0 f0 51 94 3f 42 d9 a2 be d4 2d 52 be 9c 6d d6 3f
       1.1587505 -0.3180638 -0.20525295 1.67522
000200 cf aa e8 3f af 23 3d be af 74 c2 3f a3 b5 8a 3d
       1.8177127 -0.18470643 1.5191859 0.06772926
000210 ed 3a 9d 3f 1e 45 82 3f e1 c5 92 3d 64 af 0b 3f
       1.2283608 1.0177343 0.07166649 0.545645
000220 d0 96 e5 3f 62 69 4b bf ba f5 3e bf cf 32 b9 3f
       1.7936649 -0.79457676 -0.745937 1.446863
000230 36 df c1 3f 6d 1d 92 bf be ce 58 bf 7b 76 9a bf
       1.5146244 -1.141523 -0.84690464 -1.2067407
000240 84 ba 81 3f 4a 4a c5 bf e6 2e 30 be 0b 2c db be
       1.0135045 -1.5413296 -0.1720539 -0.4280704
000250 2b cb 56 3f be 18 91 bf 2e 9a a6 3f 0a fe 74 3f
       0.8390376 -1.1335676 1.3015802 0.9570013
000260 dc 1f 45 bf 7a 96 92 bf 9c 92 52 40 f1 97 9c 3f
       -0.7700174 -1.1452172 3.2901983 1.2233869
000270 d6 e5 e2 be 61 6e c5 bd 6b 22 02 40 6c 55 41 3f
       -0.44315976 -0.09640194 2.0333507 0.7552097
000280 7f d6 ab bf 4d 70 a9 3f ed e3 26 40 74 f8 9c 3f
       -1.3424834 1.3237396 2.6076615 1.2263322
000290 9a e3 66 bf c9 86 13 bf a4 cd be bf d0 9a 98 bf
       -0.9019104 -0.5762754 -1.4906507 -1.1922245
0002a0 bc 69 69 bd 31 0a 49 bf 1c b0 af 3f 3d c4 e5 bf
       -0.0569856 -0.78531176 1.3725619 -1.7950512
0002b0 d3 de 61 bf ff 7d 52 3b 99 ff fc 3f e4 f8 43 bf
       -0.8823063 0.0032118557 1.9765502 -0.7655165
0002c0 3c b9 c8 be d5 8e 10 40 bb 97 8d be 1b 1f 88 3e
       -0.39203823 2.2587178 -0.27654824 0.26586232
0002d0 e4 10 de 3c d7 63 6c 3e 75 40 8f 3e e2 b2 e1 3f
       0.027107663 0.23084961 0.27978864 1.7632716
0002e0 65 ce 01 bf 77 90 01 be a5 4f 2c bf 50 06 38 be
       -0.5070556 -0.12652765 -0.6730903 -0.17971158
0002f0 00 23 ab bf 8f 14 e7 be 28 de 7b be e6 1b ed bf
       -1.3370056 -0.45132872 -0.24596465 -1.8524139
000300 cb 14 37 bf ae 98 ee be 95 36 a7 bf ee a8 1f bf
       -0.715161 -0.4660086 -1.3063532 -0.6236714
000310 4e ee 21 bf 0f 9c d1 be d1 32 98 be 1e 6f 08 bf
       -0.6325425 -0.40939376 -0.2972627 -0.5329455
000320 62 80 3e bf 4a af 09 40 7c d2 82 3e ce 3e 5d bf
       -0.74414647 2.1513238 0.25551212 -0.8642396
000330 38 71 27 bf e3 60 5d 3f b5 77 07 c0 f6 59 58 bf
       -0.65407133 0.8647596 -2.1166813 -0.8451227
000340 e8 da a4 bf bf 36 0d 3e 48 1c 3e bf a2 41 b8 3f
       -1.2879305 0.13790415 -0.74261904 1.439503
000350 1f 0c cf be 38 04 49 3f 43 a5 b1 3f 3e 1d 67 3f
       -0.40438935 0.7852206 1.3878559 0.90278995
000360 be 3b 04 3f 16 30 8f bf c2 cf 3e bf fb 17 63 bf
       0.5165366 -1.118655 -0.74535763 -0.88708466
000370 71 98 99 bf 30 71 09 40 df 1c c0 3f d9 50 45 bf
       -1.1999646 2.1475334 1.5008811 -0.7707649
000380 63 ad 11 3f c6 de 14 bf 17 f9 78 bf ca 4b 5e be
       0.5690519 -0.58152425 -0.9725508 -0.21708599
000390 1c 6f 18 bf 7a 0d 7d bf aa 39 57 bf 0f aa 5b 3f
       -0.5954454 -0.9884869 -0.84072363 0.85806364
0003a0 86 5c 90 3f df 13 ca bf 96 89 61 bf 0c 81 ba be
       1.1278236 -1.5787314 -0.88100564 -0.3642658
0003b0 71 69 58 bf 80 4c 14 bf d8 00 cf 3d 87 4c 81 bc
       -0.8453589 -0.5792923 0.10107583 -0.015783561
0003c0 ff 30 0a bf 2f 07 90 3f 30 73 cc 3f c8 ef 21 bf
       -0.5398101 1.1252192 1.5972652 -0.632565
0003d0 9a 1e e9 be 0b ea 4c bf 8f 56 45 be 18 8e de 3f
       -0.4553116 -0.8004462 -0.192713 1.7387114
0003e0 21 d2 62 bf 7c 1d d3 be 0e a3 d0 bf 9e 49 bc be
       -0.8860188 -0.41233432 -1.629976 -0.36774915
0003f0 e8 76 57 3e 2d b3 a0 bf ce 56 0b bf 6a bc d9 3f
       0.21041453 -1.255468 -0.5442933 1.7010624

fc4.bias f4 [4]
000000 ac 40 0d 3e 1d 07 8d 3e 18 67 16 3f df c4 54 be
       0.13794202 0.2754449 0.5875106 -0.20778225
