checkpoint.pth (torch_old, 41557 bytes, 8 tensors)

fc1.weight f4 [64, 8]
0.017875709 -0.64936674 -0.12204515 -0.42800125 -0.04303366 0.11865989 0.1806257 0.55624115
-0.2734663 -1.1934375 -0.13879593 -0.19453026 -0.22833104 -0.5849763 -0.2580552 0.37471494
0.17796159 0.32103485 -0.22243592 -0.58728176 0.21747644 0.7035611 0.2493938 0.17886318
-0.20681033 0.2671371 0.38319173 -0.5348891 -0.37929147 -0.16961692 0.01697578 0.46353152
-0.11240281 -1.1125251 -0.006080782 -0.46577907 -0.110374995 0.34799606 0.23141304 0.304767
0.039147127 -0.8832095 0.21565068 -0.46252605 -0.19129847 -0.22402006 0.3691828 0.27823883
-0.1480634 -0.03890051 0.015337673 0.10815007 0.4006367 0.40981296 0.34659815 -0.23425896
0.1572913 -1.0027951 -0.004948748 -0.33840233 0.09343326 0.1250325 0.10611202 0.32124642
0.59334 -0.03768884 0.3069141 -0.06547842 0.25181627 0.5466011 -0.05506824 -0.23041925
0.23600574 0.1629854 0.8705433 0.5649999 -0.59593236 -0.33162004 -0.071475886 0.011844723
-0.38363576 0.58590025 0.12866655 -0.51113504 0.11264526 -0.011476589 -0.14854288 -0.5846013
0.16589694 -0.9171382 0.12326518 0.05587878 0.30747795 0.07058668 -0.34992424 -0.24352849
0.34111962 0.18207955 -0.1389857 -0.20407695 0.40625238 0.65136975 0.34931228 -0.1545975
-0.43340027 -0.7344675 -0.1760645 -0.48831034 0.08871322 -0.17673258 0.012031136 0.48947546
-0.023741655 0.035660364 0.24395412 -0.7756852 -0.07107215 0.005595479 0.24856716 0.19952394
0.18154907 0.18966967 0.20499046 0.470526 -0.7958617 -0.4004645 -0.33617213 -0.55668473
-0.21563634 -1.2302743 -0.012229504 -0.17460161 -0.11082354 -0.004479309 0.40131462 0.22189523
0.092759766 0.14492056 -0.03671024 -0.09752578 0.48579577 0.68255174 0.5216888 -0.23791401
-0.6337221 -0.2354367 0.116866075 0.009222385 -0.25998083 -0.6606714 -0.2211075 0.06370933
0.15123053 -0.18476284 0.28586894 -0.6327287 0.27915278 -0.5707407 0.0016885768 -0.12902547
-0.20739368 -0.86811584 -0.22442721 -0.6059376 0.08338902 -0.07085558 0.085601926 0.47469416
0.09905861 -0.9205405 0.6212429 -0.2984478 0.2929248 0.22876409 -0.09098813 0.26982856
-0.20698455 -1.0176086 0.22793676 -0.50535107 0.11358444 -0.23504265 0.42805818 0.27921122
0.21799368 -0.66631347 0.031598106 -0.20957735 -0.17426127 0.30603474 0.4899637 0.23856862
-0.17983468 -0.11117375 -0.15553954 -0.5278499 -0.3025993 0.06086309 -0.061225317 0.27289477
0.044656284 -0.4740641 -0.11859514 -0.41430736 -0.06478008 0.295291 0.15430413 0.5165469
-0.1639966 -0.9170331 0.03784965 -0.3147356 0.06529505 -0.2265281 0.06348751 0.20208076
-0.23122217 -1.1789685 0.42298934 -0.3712387 0.04338204 0.48587078 0.23725049 0.049332682
-0.24621786 0.13644928 -0.47241482 -0.33916852 0.16240472 -0.09562614 -0.27006224 0.53945035
0.09743847 0.2657304 0.23177755 -0.5048161 0.23139186 -0.49970943 -0.21639295 0.1490734
-0.13840427 0.4583945 -0.2892696 -0.09287306 0.17865741 -0.6134435 0.42341092 -0.25641719
-0.016862761 0.26487818 -0.38400972 0.37510908 0.49517536 0.2487284 -0.3076397 -0.19236848
00000000: 1470 923c e63c 26bf cff2 f9bd fb22 dbbe
00000010: 1044 30bd f503 f33d f2f5 383e d265 0e3f
00000020: c603 8cbe 8fc2 98bf 8520 0ebe f132 47be
00000030: 9dcf 69be 02c1 15bf d01f 84be a3da bf3e
00000040: 903b 363e ae5e a43e 3ec6 63be 1958 16bf
00000050: 25b2 5e3e 951c 343f 1761 7f3e e927 373e
00000060: 16c6 53be 32c6 883e b531 c43e 7eee 08bf
00000070: 7e32 c2be 0fb0 2dbe ca10 8b3c 0154 ed3e
00000080: 7233 e6bd 3967 8ebf 4c41 c7bb 987a eebe
00000090: 490c e2bd 8a2c b23e 8af7 6c3e 6c0a 9c3e
000000a0: bd58 203d 051a 62bf 88d3 5c3e 37d0 ecbe
000000b0: bfe3 43be 8465 65be 8705 bd3e 5275 8e3e
000000c0: ef9d 17be 2456 1fbd dd4a 7b3c c97d dd3d
000000d0: 4120 cd3e 01d3 d13e 5075 b13e 95e1 6fbe
000000e0: f810 213e 975b 80bf 1b29 a2bb 1243 adbe
000000f0: f059 bf3d 8508 003e 4251 d93d 697a a43e
00000100: 21e5 173f 9d5f 1abd d823 9d3e 8d19 86bd
00000110: 10ee 803e 0dee 0b3f 3c8f 61bd 06f3 6bbe
00000120: 7dab 713e a5e5 263e eddb 5e3f d5a3 103f
00000130: 068f 18bf 1aca a9be f361 92bd 5e10 423c
00000140: e86b c4be 8ffd 153f 2ac1 033e bfd9 02bf
00000150: 8fb2 e63d 4e08 3cbc a01b 18be 6ea8 15bf
00000160: e3e0 293e 92c9 6abf 7472 fc3d 26e1 643d
00000170: c06d 9d3e c08f 903d 4529 b3be 885f 79be
00000180: 3ba7 ae3e 1073 3a3e 4452 0ebe 8cf9 50be
00000190: 5000 d03e 2bc0 263f 0fd9 b23e cf4e 1ebe
000001a0: a4e6 ddbe 1006 3cbf 414a 34be d003 fabe
000001b0: 47af b53d 63f9 34be 3e1e 453c 879c fa3e
000001c0: dc7d c2bc 9a10 123d 1ccf 793e 4e93 46bf
000001d0: 468e 91bd 485a b73b 6488 7e3e 0150 4c3e
000001e0: 00e8 393e c438 423e 05e9 513e c9e8 f03e
000001f0: 98bd 4bbf af09 cdbe c11e acbe e482 0ebf
00000200: c6cf 5cbe a179 9dbf 425e 48bc c4ca 32be
00000210: 74f7 e2bd 2bc7 92bb 1c79 cd3e 8138 633e
00000220: d5f8 bd3d 0e66 143e 7a5d 16bd 99bb c7bd
00000230: 39ba f83e b6bb 2e3f 668d 053f bb9f 73be
00000240: 9d3b 22bf 5116 71be 7b57 ef3d 7c19 173c
00000250: 351c 85be c321 29bf 016a 62be 0a7a 823d
00000260: 2ddc 1a3e 7832 3dbe 6a5d 923e 82fa 21bf
00000270: 1ded 8e3e 101c 12bf 3c53 dd3a 411f 04be
00000280: 025f 54be d73c 5ebf 3fd0 65be ba1e 1bbf
00000290: ddc7 aa3d bb1c 91bd 1050 af3d 1d0b f33e
000002a0: 3edf ca3d 8ba8 6bbf c609 1f3f 26ce 98be
000002b0: 3dfa 953e 2241 6a3e fc57 babd f826 8a3e
000002c0: c2f3 53be 0041 82bf 4168 693e b05e 01bf
000002d0: f59e e83d 05af 70be 712a db3e c6f4 8e3e
000002e0: bc39 5f3e 8593 2abf 046d 013d 729b 56be
000002f0: 8c71 32be 96b0 9c3e 86dc fa3e 554b 743e
00000300: 9526 38be 10af e3bd c245 1fbe 2c21 07bf
00000310: 4cee 9abe 934b 793d 66c7 7abd ddb8 8b3e
00000320: 82e9 363d 88b8 f2be 02e2 f2bd 1820 d4be
00000330: 6bab 84bd 6230 973e e701 1e3e 6b3c 043f
00000340: baee 27be aec2 6abf 3c08 1b3d 0625 a1be
00000350: 69b9 853d fbf6 67be bd05 823d 42ee 4e3e
00000360: 81c5 6cbe 71e8 96bf 0f92 d83e 0013 bebe
00000370: 5eb1 313d 0ec4 f83e cbf1 723e 1111 4a3d
00000380: 8920 7cbe 5cb9 0b3e 5be0 f1be 7fa7 adbe
00000390: 6c4d 263e a3d7 c3bd 9945 8abe 6b19 0a3f
000003a0: d28d c73d d10d 883e 1857 6d3e a13b 01bf
000003b0: fdf1 6c3e ead9 ffbe 1d96 5dbe b3a6 183e
000003c0: d9b9 0dbe afb2 ea3e 251b 94be 3b34 bebd
000003d0: f8f1 363e a20a 1dbf 51c9 d83e 1d49 83be
000003e0: c623 8abc 1d9e 873e ec9c c4be 4c0e c03e
000003f0: a087 fd3e a8b2 7e3e f382 9dbe 3efc 44be

fc1.bias f4 [64]
-0.44053698 -0.30370447 -0.00926894 0.031253617 -0.5673787 -0.28420457 0.06845619 -0.2708151
-0.15680693 0.000720815 0.39227098 -0.4031098 -0.2952862 -0.36421832 0.2563705 0.10195409
-0.16111504 -0.21900491 0.30428225 0.46242747 -0.44500852 -0.46633756 -0.52298313 -0.38120428
-0.12890647 -0.43762904 -0.39897856 -0.4255275 -0.06701403 0.16654104 0.027352573 -0.048303425
-0.33308503 0.31471094 -0.32251388 -0.022019591 0.0020597328 0.26194602 -0.33543846 -0.3720501
0.14405516 -0.3897263 0.2145019 0.49749964 -0.09560089 -0.061789792 0.9571767 0.49184987
0.32289177 -0.10431171 0.12941405 0.3254876 -0.049395945 0.23070973 -0.3249159 -0.22702657
0.28791142 0.3786464 0.22993535 0.3672127 -0.33578408 -0.29308683 -0.21414542 0.19424354
00000000: 108e e1be 277f 9bbe c1dc 17bc cb03 003d
00000010: bb3f 11bf 4383 91be c232 8c3d 47a8 8abe
00000020: ff91 20be 13f5 3c3a bed7 c83e 6864 cebe
00000030: c12f 97be d37a babe ff42 833e 4ecd d03d
00000040: 57fb 24be d342 60be e2ca 9b3e 4bc3 ec3e
00000050: 28d8 e3be ccc3 eebe 39e2 05bf 352d c3be
00000060: 0f00 04be ea10 e0be eb46 ccbe bede d9be
00000070: a73e 89bd bc89 2a3e 8112 e03c d0d9 45bd
00000080: 1f8a aabe cb21 a13e 8a20 a5be 6e62 b4bc
00000090: 95fc 063b ca1d 863e 97be abbe 5a7d bebe
000000a0: 3283 133e 358a c7be 63a6 5b3e 46b8 fe3e
000000b0: 66ca c3bd 4b17 7dbd 8809 753f bfd3 fb3e
000000c0: 1252 a53e 61a1 d5bd 1e85 043e 50a6 a63e
000000d0: 6753 4abd 2c3f 6c3e 605b a6be a779 68be
000000e0: 2069 933e f1dd c13e 2c74 6b3e 4e03 bc3e
000000f0: e4eb abbe 7a0f 96be f048 5bbe c7e7 463e

fc2.weight f4 [128, 69]
0.05301015 -0.42296273 0.1221132 -0.2633895 0.054095466 -0.28079674 -0.1427082 0.34880432
-0.13058546 -0.42167857 0.03360055 0.18429285 0.17414118 0.18270725 -0.063252725 0.29929098
-0.24446158 0.12243355 -0.13486412 0.15925966 0.0774578 0.42197707 0.23182243 0.06779158
-0.16470787 0.030135684 -0.12742105 0.20668478 0.09254996 -0.07287234 0.256317 0.21664774
0.0023307793 0.0873134 0.17914592 -0.030950643 0.43199754 -0.06544625 0.04270266 -0.023597725
0.1664359 0.30641833 -0.13895512 -0.115461804 -0.45639023 0.12205621 0.18258461 -0.19771895
-0.00596785 0.06849015 0.70754415 0.13876608 -0.51086205 0.0767502 0.039048526 -0.113353655
0.2749004 0.10094913 -0.17975745 -0.14268132 0.0068343775 -0.11537448 -0.2382917 0.2678942
-0.071282074 0.01727134 0.03842613 0.008523792 -0.07805214 0.097998045 0.17866287 0.08001575
-0.058756627 0.0008814534 0.22240642 -0.0698494 -0.11638522 -0.115264215 -0.18477792 -0.10187167
-0.19449557 0.16886105 -0.12377416 0.0004692687 0.07680295 -0.00944039 0.12695302 0.13927487
0.16735132 0.02803698 -0.02493526 0.17447796 -0.027689813 0.007819364 -0.09806416 0.07098016
0.0626926 0.14886831 0.20980155 0.3528944 -0.0021648502 -0.04586581 0.038685907 0.07850309
0.05851701 -0.14563972 -0.008690707 -0.0064660385 0.088834606 -0.0094989985 -0.27536914 -0.14573564
-0.09268549 0.0012981122 0.06491078 0.08302869 -0.07908132 0.13288833 -0.10584483 0.40638602
0.061687574 0.1963936 0.08211882 0.15062559 0.032153595 -0.1947743 -0.07772978 0.07602059
-0.13863435 -0.09436737 0.1967347 0.06446157 -0.3024606 0.07712352 -0.015293077 -0.057174586
-0.104831964 -0.110456236 0.11510897 0.20785622 0.25332338 -0.00493843 0.12163742 0.18607157
0.05509893 -0.20656528 0.10727743 -0.7054116 -0.0026603667 -0.08511417 0.03691708 -0.23081502
0.13370705 -0.4579733 -0.006097904 0.02941122 0.07789664 0.21086255 -0.2253556 0.2541073
0.09423993 -0.08512821 -0.109058216 -0.03671945 0.038847502 0.19194582 0.19627757 0.19063875
0.38349807 -1.4500777 0.10118764 -0.085988306 0.047490343 -0.04802886 -1.0803136 -0.08301741
0.090582535 0.088582546 -0.07390896 -0.23314849 -0.12890573 0.029733581 0.01321544 -0.39013675
0.14733349 0.08734631 -0.0013338106 0.108825415 0.04784206 0.057115365 0.20407432 0.19019823
0.08900233 0.16262561 0.07739504 -0.13381302 0.07010872 0.03535645 -0.08463126 0.14399748
0.20854548 -0.16106696 0.120186076 -0.11553316 -0.10726018 0.073940545 0.012581885 -0.14032926
-0.26250768 0.010141555 0.0993429 -0.3173794 -0.01962912 0.12412114 -0.07288304 -0.00992143
0.396457 0.33998317 -0.048928406 -0.3210254 -0.14615992 0.15326333 -0.07317134 0.0673751
-0.32703567 -0.10608632 0.21712993 -0.17026457 -0.3182333 -0.16802797 0.14125545 0.12625894
-0.19996952 -0.22834381 -0.18143848 0.10091009 0.15044144 -0.04371531 -0.16197483 0.008029289
0.06936371 -0.061492484 0.04840791 0.028099364 0.29526362 -0.03679815 0.11944118 0.032542605
0.05118499 0.2753537 0.44373485 0.004757602 -0.06891241 0.36281052 0.47391167 -0.18505386
00000000: 2c21 593d 928e d8be 7c16 fa3d fdda 86be
00000010: 3593 5d3d 97c4 8fbe 1922 12be 7b96 b23e
00000020: 32b8 05be 41e6 d7be bba0 093d 44b7 3c3e
00000030: 1152 323e 9c17 3b3e a58a 81bd ab3c 993e
00000040: 2354 7abe 71be fa3d d219 0abe f714 233e
00000050: 32a2 9e3d 610d d83e dc62 6d3e 50d6 8a3d
00000060: 2ea9 28be 1cdf f63c aa7a 02be 2da5 533e
00000070: d58a bd3d 183e 95bd fb3b 833e e8d8 5d3e
00000080: fdbf 183b 5ed1 b23d 0772 373e 348c fdbc
00000090: c82e dd3e af08 86bd fce8 2e3d 0450 c1bc
000000a0: 2c6e 2a3e dde2 9c3e 404a 0ebe 3d77 ecbd
000000b0: fbab e9be 9bf8 f93d 76f7 3a3e d676 4abe
000000c0: f48d c3bb 9044 8c3d 9d21 353f b218 0e3e
000000d0: dbc7 02bf 352f 9d3d 59f1 1f3d f625 e8bd
000000e0: bfbf 8c3e 6bbe ce3d 5612 38be 0d1b 12be
000000f0: eaf2 df3b 7549 ecbd bd02 74be 6e29 893e
00000100: 56fc 91bd a07c 8d3c b864 1d3d 60a7 0b3c
00000110: cdd9 9fbd 33b3 c83d 66f3 363e 4cdf a33d
00000120: caaa 70bd 5611 673a 82be 633e 340d 8fbd
00000130: 605b eebd a50f ecbd 6c36 3dbe 18a2 d0bd
00000140: d929 47be e9e9 2c3e 4f7d fdbd 2e08 f639
00000150: dd4a 9d3d deab 1abc f9ff 013e 129e 0e3e
00000160: 255e 2b3e cfad e53c 0845 ccbc 5aaa 323e
00000170: bfd5 e2bc ca1c 003c ddd5 c8bd 0c5e 913d
00000180: fa64 803d ef70 183e 38d6 563e 93ae b43e
00000190: 29e0 0dbb cadd 3bbd 1d75 1e3d 3ac6 a03d
000001a0: 88af 6f3d 9422 15be 7863 0ebc 10e1 d3bb
000001b0: ebee b53d b0a1 1bbc 2ffd 8cbe b93b 15be
000001c0: e4d1 bdbd 6b25 aa3a f1ef 843d f20a aa3d
000001d0: 63f5 a1bd e113 083e 2dc5 d8bd d411 d03e
000001e0: 1cac 7c3d 671b 493e e92d a83d 983d 1a3e
000001f0: 7db3 033d ea72 47be ca30 9fbd afb0 9b3d
00000200: 2af6 0dbe ae43 c1bd d274 493e 6d04 843d
00000210: 1edc 9abe f0f2 9d3d d08f 7abc e62f 6abd
00000220: 24b2 d6bd e136 e2bd 40be eb3d 43d8 543e
00000230: 9ab3 813e 8ed2 a1bb 0a1d f93d 8c89 3e3e
00000240: 6aaf 613d d985 53be 45b4 db3d db95 34bf
00000250: 8c59 2ebb 5750 aebd 5d36 173d c65a 6cbe
00000260: 80ea 083e 7a7b eabe edd0 c7bb cdef f03c
00000270: 4688 9f3d 5aec 573e 9ec3 66be 5a1a 823e
00000280: dd00 c13d b357 aebd ea59 dfbd 2267 16bd
00000290: 8f1e 1f3d 728d 443e fdfc 483e ce36 433e
000002a0: dc59 c43e 259c b9bf 773b cf3d a31a b0bd
000002b0: 3c85 423d e9b9 44bd b747 8abf 0805 aabd
000002c0: 5683 b93d c46a b53d 955d 97bd 7abe 6ebe
000002d0: ddff 03be d793 f33c 9385 583c 01c0 c7be
000002e0: 97de 163e 9fe2 b23d 42d3 aeba dcdf de3d
000002f0: 09f6 433d cdf1 693d dcf8 503e 53c3 423e
00000300: db46 b63d 5487 263e 4a81 9e3d 4806 09be
00000310: 2995 8f3d edd1 103d 2753 adbd 1374 133e
00000320: f28c 553e bdee 24be 1e24 f63d a69c ecbd
00000330: 3aab dbbd 246e 973d 4024 4e3c 79b2 0fbe
00000340: 6867 86be c428 263c 4a74 cb3d 8d7f a2be
00000350: 40cd a0bc 3933 fe3d b443 95bd 7e8d 22bc
00000360: 69fc ca3e 4612 ae3e 2769 48bd 715d a4be
00000370: f2aa 15be 10f1 1c3e dbda 95bd f5fb 893d
00000380: 3871 a7be c943 d9bd 4f57 5e3e d659 2ebe
00000390: 7aef a2be 860f 2cbe 45a5 103e 064a 013e
000003a0: cfc4 4cbe f6d2 69be 02cb 39be f3a9 ce3d
000003b0: 520d 1a3e d30e 33bd bbdc 25be 478d 033c
000003c0: 900e 8e3d 8bdf 7bbd 5f47 463d a330 e63c
000003d0: cb2c 973e a8b9 16bd 949d f43d 654b 053d
000003e0: 5aa7 513d 29fb 8c3e 3731 e33e a8e5 9b3b
000003f0: f321 8dbd 4dc2 b93e 8da4 f23e c27e 3dbe

fc2.bias f4 [128]
0.13223255 0.061447073 -0.0071944604 0.36994562 -0.28214332 0.04661497 -0.45230046 0.10869364
0.026138995 -0.009613205 -0.3591307 -0.26673105 0.0041936226 -0.043530636 -0.09836127 -0.10828443
0.28508937 0.27935416 -0.12694427 -0.24839436 -0.121371984 -0.3635925 0.22279106 -0.21630219
-0.19445045 0.20100161 -0.34590665 -0.14801618 -0.16220821 -0.19987564 0.013247367 -0.17781924
-0.142126 0.24606147 -0.0691855 -0.16758874 -0.19991843 -0.29334468 -0.11102849 -0.3503806
0.2897058 -0.3024289 -0.09756557 0.024731154 -0.4321628 -0.15472345 0.1611189 -0.12819272
-0.15527865 0.2834779 0.19711576 0.18492135 -0.10517383 -0.020673575 -0.13143681 0.32770753
-0.22318418 -0.27780378 -0.28316525 -0.069018565 -0.25574052 -0.25731227 0.15855159 -0.09722734
0.028991029 0.044012174 -0.20491615 -0.051407535 -0.28542253 -0.021379514 -0.108968966 -0.012261348
-0.39507017 -0.23818506 -0.22016011 -0.11208587 -0.2740691 0.048239354 0.21548924 -0.13130616
0.3115621 -0.03033139 -0.16909641 -0.069926076 0.056569256 -0.116033465 -0.13853045 -0.15591712
-0.12303837 -0.29763442 -0.060718887 0.028336262 -0.04503046 -0.048124094 0.03499789 -0.14076683
-0.06663948 0.1165053 -0.22983286 0.27290538 -0.09081869 -0.06451701 -0.11076115 0.30819318
-0.32206848 -0.23257306 -0.22890694 -0.041927025 -0.04271464 -0.03989781 -0.3582415 -0.12645712
-0.38978723 -0.22284594 -0.17307878 -0.07226306 -0.14510296 -0.23211038 -0.0019759682 0.36851704
-0.018673306 0.09047288 0.12694347 0.35681528 -0.12627327 -0.1655519 -0.0883598 -0.29671603
00000000: f867 073e edaf 7b3d 82bf ebbb 8369 bd3e
00000010: 1775 90be 57ef 3e3d ed93 e7be c59a de3d
00000020: 7221 d63c b480 1dbc fbdf b7be f990 88be
00000030: a86a 893b 2e4d 32bd a271 c9bd 3ac4 ddbd
00000040: 3cf7 913e 8207 8f3e aefd 01be 175b 7ebe
00000050: e091 f8bd cc28 babe 5723 643e 527e 5dbe
00000060: 051e 47be 5ed3 4d3e ad1a b1be 8e91 17be
00000070: e919 26be 33ac 4cbe 7c0b 593c 3f16 36be
00000080: 7a89 11be 8af7 7b3e 21b1 8dbd 629c 2bbe
00000090: 6bb7 4cbe 4631 96be e862 e3bd 1665 b3be
000000a0: 5254 943e f6d7 9abe 75d0 c7bd fd98 ca3c
000000b0: 7144 ddbe d36f 1ebe 5afc 243e f444 03be
000000c0: 5e01 1fbe 0424 913e b7d8 493e 065c 3d3e
000000d0: 6165 d7bd a15b a9bc 5f97 06be 48c9 a73e
000000e0: 658a 64be 4c3c 8ebe 09fb 90be 9b59 8dbd
000000f0: 6cf0 82be 6fbe 83be 595b 223e 211f c7bd
00000100: 987e ed3c 1c46 343d 8ad5 51be b590 52bd
00000110: e722 92be 1724 afbc 1f2b dfbd d2e3 48bc
00000120: a346 cabe c9e6 73be a771 61be 478d e5bd
00000130: c952 8cbe a196 453d 36a9 5c3e 1f75 06be
00000140: 1185 9f3e 8979 f8bc 9c27 2dbe 6735 8fbd
00000150: 2ab5 673d f4a2 edbd edda 0dbe bda8 1fbe
00000160: 8afb fbbd 8a63 98be 5eb4 78bd 7321 e83c
00000170: dc71 38bd c51d 45bd f359 0f3d 2e25 10be
00000180: 487a 88bd 559a ee3d 4e59 6bbe 41ba 8b3e
00000190: 26ff b9bd 7e21 84bd bed6 e2bd 7fcb 9d3e
000001a0: 29e6 a4be a227 6ebe 9566 6abe acbb 2bbd
000001b0: 8cf5 2ebd e36b 23bd 6e6b b7be fa7d 01be
000001c0: 3192 c7be ba31 64be 903b 31be a8fe 93bd
000001d0: df95 14be 58ae 6dbe 3f7f 01bb 44ae bc3e
000001e0: c3f8 98bc d849 b93d 78fd 013e 7eb0 b63e
000001f0: c84d 01be 7086 29be fcf5 b4bd 2aeb 97be

fc3.weight f4 [5, 8]
-0.042251997 5.0950637 -0.049751032 1.5991793 -0.18661906 0.19637987 -3.9776864 -3.3232625
0.063087724 -4.982347 0.0317531 -1.7053347 0.18144676 -0.1862061 3.6967034 3.8643134
-6.869834 0.29336843 -2.4772267 -0.13597581 -1.7219683 1.2651132 -0.6161428 -0.6936173
6.760325 -0.23921098 2.5090365 0.07698859 1.7614206 -1.2983913 0.667428 0.7559901
-0.6325474 -0.9637297 -0.13634795 -5.506442 -0.21296129 0.13275439 -1.7833307 -1.4120392
00000000: 6e10 2dbd c30a a340 bdc7 4bbd e8b1 cc3f
00000010: 1119 3fbe ce17 493e 6a92 7ec0 55b0 54c0
00000020: 2334 813d 636f 9fc0 8a0f 023d 6848 dabf
00000030: 2ecd 393e d0ac 3ebe ca96 6c40 e950 7740
00000040: aed5 dbc0 6334 963e e28a 1ec0 3e3d 0bbe
00000050: 7569 dcbf 3bef a13f 89bb 1dbf e790 31bf
00000060: 9554 d840 b9f3 74be 0e94 2040 32ac 9d3d
00000070: 3b76 e13f b031 a6bf 90dc 2a3f 9188 413f
00000080: a0ee 21bf fdb6 76bf cc9e 0bbe c634 b0c0
00000090: 8612 5abe c4f0 073e 2e44 e4bf b3bd b4bf

fc3.bias f4 [5]
-1.2266486 1.0949647 -0.3429883 0.2690444 -0.16589217
00000000: d202 9dbf ce27 8c3f 2a9c afbe 30c0 893e
00000010: a3df 29be

fc4.weight f4 [4, 128]
0.052324846 0.046561155 0.19224623 0.24250059 -0.4153903 0.16005492 -0.45830914 -0.25520417
-0.21095547 -0.29344058 -0.3919039 -0.24423647 1.4842281 -0.30866635 -0.17363535 -0.338579
0.30156234 0.3002435 0.32199603 0.058871202 0.02815089 -0.40011555 0.6177091 -0.18206933
-0.17717025 0.00029176002 -0.43241474 -0.29693517 -0.39536017 -0.25109828 -0.32309085 -0.21044406
-0.10671638 0.7142244 -0.31275296 -0.30753487 -0.26696855 -0.41804394 0.14095515 -0.43509752
0.52452666 -0.40927613 -0.18495624 -0.06315126 -0.50859123 -0.27909538 0.15483612 -0.24335684
-0.24694274 0.43231133 0.3327694 0.319261 0.078076616 0.041220058 0.03624914 0.5651893
-0.25441644 -0.44151908 -0.42539704 -0.14608742 -0.2828125 -0.2412394 -0.32519937 -0.1837888
0.081061535 0.011364589 -0.16918083 0.076869674 -0.49375644 0.253719 -0.06558267 0.44551808
-0.29535735 -0.20613344 -0.35494223 -0.2865835 -0.041754056 0.60925883 0.5210818 -0.039043527
0.41630444 -0.07789914 -0.24091588 -0.07379329 -0.11547451 -0.1795136 -0.14531165 0.047007956
-0.27506667 -0.44015443 -0.28482604 0.33459398 -0.26200297 -0.23960291 -0.111566454 -0.18545412
-0.027039988 -0.17597558 -0.21292599 0.5868148 -0.20188038 -0.2553183 -0.074770086 0.11525803
-0.3971679 -0.0756421 -0.38644668 -0.31554806 0.012837425 -0.00047953444 -0.2871999 -0.33068925
-0.37090418 -0.3299677 -0.17441007 -0.25175226 -0.18656927 -0.2035282 0.29392967 0.48098868
-0.25696087 0.25841346 -0.09786075 0.6947739 -0.3234188 0.2019849 -0.3707101 -0.35233015
0.18813941 -0.23212588 -0.2847779 0.74619037 0.005397452 -0.024000669 -0.18471587 -0.26722717
-0.25138065 -0.1822169 -0.09133157 -0.08840892 2.0086377 -0.23070246 -0.28016233 -0.20992178
0.74804485 0.064731486 -0.15360157 -0.25529665 0.036422994 -0.1669878 0.86208874 -0.0858595
-0.029886272 0.2275903 0.009036525 -0.027408304 -0.26797968 -0.13218874 -0.2773947 -0.055736408
-0.325697 0.4178833 -0.16381091 -0.40925375 0.01834544 -0.16312206 -0.401651 -0.18651004
0.14929596 -0.29669657 -0.40527728 0.032257106 -0.127696 -0.013275779 -0.14320526 -0.22048998
-0.14194414 0.5510598 -0.021381097 0.7733098 -0.009241104 0.06719434 -0.25874275 0.46122998
-0.2213012 -0.14318536 -0.08502833 -0.20192212 -0.17895345 -0.45766097 -0.42757937 -0.3748424
0.03374743 -0.0060246 -0.08235839 -0.08422619 -0.18517 -0.32233772 -0.021512898 0.5524803
-0.056264278 -0.22629373 -0.22321819 -0.19238308 -0.33245596 0.16368154 0.37749165 -0.22397983
0.07682651 0.0682699 -0.48485026 0.13748428 0.04046421 -0.027725743 -0.22989486 -0.33757895
-0.25630656 -0.051922664 -0.27908555 -0.31684986 0.02167967 -0.2211118 -0.30567494 -0.25185344
0.0032394666 -0.39600995 -0.020244438 0.7819797 -0.23456466 -0.05373957 -0.022238351 0.00017996866
-0.0072022467 -0.46430925 0.027876424 -0.2264985 -0.039514806 -0.28777206 -0.04347723 -0.28087544
-0.088717304 0.03868345 -0.29582694 -0.035231248 -0.22643429 -0.13976088 -0.17492953 0.5267754
-0.20892696 -0.020585403 -0.18133019 0.51524436 -0.12860273 -0.31489205 -0.21618727 -0.12771603
00000000: 9452 563d e9b6 3e3d 32dc 443e 1352 783e
00000010: 0aae d4be 70e5 233e 7fa7 eabe 1faa 82be
00000020: b604 58be d83d 96be a1a7 c8be 2019 7abe
00000030: 30fb bd3f 8409 9ebe 77cd 31be 3a5a adbe
00000040: 6166 9a3e 84b9 993e aadc a43e ee22 713d
00000050: b29c e63c f2db ccbe 2f22 1e3f 6270 3abe
00000060: 1e6c 35be 5ef7 9839 7765 ddbe e307 98be
00000070: a66c cabe f48f 80be 2a6c a5be a67e 57be
00000080: 1e8e dabd 69d7 363f 2821 a0be 3675 9dbe
00000090: 1ab0 88be db09 d6be 8c56 103e 1ac5 debe
000000a0: 6147 063f a48c d1be 2b65 3dbe 7355 81bd
000000b0: 0933 02bf 97e5 8ebe 5c8d 1e3e 8932 79be
000000c0: 8fde 7cbe e957 dd3e c060 aa3e 2e76 a33e
000000d0: a2e6 9f3d 5dd6 283d fa79 143d 3fb0 103f
000000e0: df42 82be ca0e e2be a4cd d9be f197 15be
000000f0: cdcc 90be 7607 77be 8880 a6be 2233 3cbe
00000100: 9703 a63d 8b32 3a3c bd3d 2dbe d96d 9d3d
00000110: a5cd fcbe 75e7 813e 3550 86bd f21a e43e
00000120: 1439 97be a514 53be fdba b5be 13bb 92be
00000130: 4d06 2bbd 63f8 1b3f 9e65 053f 1bec 1fbd
00000140: db25 d53e 9689 9fbd a7b2 76be f020 97bd
00000150: e67d ecbd 6ad2 37be 94cc 14be 6a8b 403d
00000160: 8ad5 8cbe ec5b e1be b8d4 91be e74f ab3e
00000170: 4125 86be 775a 75be f47c e4bd afe7 3dbe
00000180: f782 ddbc f132 34be 4509 5abe 7f39 163f
00000190: bbb9 4ebe 15b9 82be 0f21 99bd 670c ec3d
000001a0: 9759 cbbe 3fea 9abd 57dc c5be 848f a1be
000001b0: 1054 523c 066a fbb9 de0b 93be 1a50 a9be
000001c0: 27e7 bdbe 87f1 a8be 8e98 32be ace5 80be
000001d0: 040c 3fbe b269 50be f37d 963e 2644 f63e
000001e0: 6090 83be c54e 843e 386b c8bd b4dc 313f
000001f0: 2697 a5be 21d5 4e3e b7cd bdbe 9e64 b4be
00000200: 9ea7 403e 68b2 6dbe 69ce 91be 5506 3f3f
00000210: 1cdd b03b 0d9d c4bc 2826 3dbe 00d2 88be
00000220: f7b4 80be 1197 3abe 0c0c bbbd bc0f b5bd
00000230: 858d 0040 443d 6cbe 7071 8fbe bcf5 56be
00000240: de7f 3f3f f191 843d bb49 1dbe 3eb6 82be
00000250: 4730 153d dafe 2abe d9b1 5c3f 1bd7 afbd
00000260: 0ed4 f4bc 6e0d 693e ef0d 143c 6187 e0bc
00000270: a234 89be 7c5c 07be ae06 8ebe dc4b 64bd
00000280: c2c1 a6be cdf4 d53e 0cbe 27be b589 d1be
00000290: 2d49 963c 7809 27be 33a5 cdbe 7dfc 3ebe
000002a0: 0ae1 183e 9de8 97be 8180 cfbe 0720 043d
000002b0: bdc2 02be a782 59bc 66a4 12be 20c8 61be
000002c0: ce59 11be 4112 0d3f 6927 afbc a2f7 453f
000002d0: 0068 17bc 309d 893d ee79 84be 5626 ec3e
000002e0: c89c 62be 2f9f 12be 5523 aebd acc4 4ebe
000002f0: 933f 37be 8a52 eabe afeb dabe 58eb bfbe
00000300: bf3a 0a3d 026a c5bb 84ab a8bd c87e acbd
00000310: 349d 3dbe 7309 a5be d13b b0bc 596f 0d3f
00000320: 5f75 66bd 8bb9 67be 4f93 64be 1200 45be
00000330: ab37 aabe 229c 273e 9646 c13e f85a 65be
00000340: 3857 9d3d 17d1 8b3d 4b3e f8be aec8 0c3e
00000350: cdbd 253d 1921 e3bc 8f69 6bbe 26d7 acbe
00000360: 9d3a 83be dcac 54bd 4de4 8ebe 253a a2be
00000370: 9099 b13c 226b 62be 6d81 9cbe eff2 80be
00000380: 3b4d 543b d1c1 cabe aad7 a5bc d22f 483f
00000390: b831 70be 061e 5cbd 342d b6bc f8b5 3c39
000003a0: d300 ecbb f1b9 edbe 195d e43c 39ef 67be
000003b0: 47da 21bd dc56 93be 2e15 32bd e8ce 8fbe
000003c0: 6bb1 b5bd 8a72 1e3d a176 97be a44e 10bd
000003d0: 64de 67be 7a1d 0fbe ba20 33be c1da 063f
000003e0: f3f0 55be b8a2 a8bc 9fae 39be 0ee7 033f
000003f0: 6fb0 03be 8839 a1be 3260 5dbe fec7 02be

fc4.bias f4 [4]
0.09422992 0.08748063 0.20261814 0.070658624
00000000: 9efb c03d 0b29 b33d 217b 4f3e 78b5 903d
