checkpoint0.pth (torch_old, 6916 bytes, 6 tensors)

fc1.weight f4 [32, 8]
0	0x3e2dfbbd	0.16990562
1	0xbec5a0cc	-0.3859924
2	0xbe9afe90	-0.3027234
3	0xbf795e83	-0.9740984
4	0x3f2ee0e4	0.68311906
5	0x3c5def08	0.013545759
6	0x3e07a0d5	0.13244946
7	0x3ecca27d	0.3996772
8	0xbde59a7a	-0.11211105
9	0x3e37f824	0.17965752
10	0xbe78d456	-0.2429975
11	0xbe979492	-0.29605538
12	0x3e35a76c	0.17739648
13	0xbfc417d5	-1.5319773
14	0xbd797e81	-0.06091166
15	0x3b0351a6	0.002003768
16	0x3edec93c	0.43512905
17	0x3d8f721c	0.070041865
18	0xbdf006ac	-0.117200226
19	0xbf17fd41	-0.5937081
20	0x3f4b83b1	0.7949782
21	0x3ef098cb	0.46991572
22	0x3df7d5c2	0.12101318
23	0x3f2d1881	0.67615515
24	0x3f0982c6	0.5371517
25	0xbf1a8ef6	-0.6037439
26	0x3fb13cf3	1.3846725
27	0xbf443843	-0.7664835
28	0xbfb1f983	-1.390427
29	0xbee85e07	-0.45384237
30	0xbd8290ab	-0.063752495
31	0x3ed32408	0.41238427
32	0xbe3c1c22	-0.18370107
33	0xbdddd316	-0.10831277
34	0xbe1e8380	-0.15479851
35	0xbf34cd78	-0.7062602
36	0x3f201334	0.625293
37	0xbd4981d5	-0.049196083
38	0x3eab484c	0.33453596
39	0x3e1a590b	0.1507303
40	0x3f0db615	0.5535596
41	0xbd03e9ff	-0.032205578
42	0xbce1b5c7	-0.027552499
43	0x3dcc72ff	0.09982871
44	0xbe31f8ba	-0.17380038
45	0xbf4341e9	-0.76272446
46	0x3f1057b0	0.563838
47	0xbd9d8ebd	-0.07693241
48	0x3fa1bfcc	1.2636657
49	0xbf1a31ce	-0.60232246
50	0x3f85a83c	1.0441966
51	0xbd4b8aff	-0.049693104
52	0x3e7c416b	0.2463433
53	0xbd1b3269	-0.03788987
54	0x3e79ccf5	0.24394591
55	0x3d872beb	0.066001736
56	0xbedbe51a	-0.42948228
57	0xbfad9095	-1.3559748
58	0xbf7f6bf5	-0.99774104
59	0xbf0b081b	-0.5430924
60	0x3fab9b63	1.3406795
61	0x3e2e1c64	0.17003018
62	0x3e6e49f8	0.23270404
63	0x3d99855e	0.07496141
64	0xbe9d5652	-0.3072992
65	0xbd894ebc	-0.067044705
66	0x3f364e7c	0.7121351
67	0xbdb6afd5	-0.08920256
68	0x3d995337	0.07486575
69	0x3f5b32bb	0.85624284
70	0xbe499025	-0.19683893
71	0xbfedbe30	-1.8573666
72	0x3e5267b2	0.20547369
73	0x3f0ef416	0.55841196
74	0x3f4541a8	0.7705331
75	0x3fc21b33	1.516455
76	0x3ef0467b	0.46928772
77	0xbf0c2ee2	-0.5475904
78	0xbf6973c0	-0.91192245
79	0xbeac2c4f	-0.33627555
80	0xbf185fa3	-0.5952093
81	0x3f9096a2	1.129597
82	0x3e88baf5	0.26705137
83	0xbfe2cba9	-1.7718402
84	0xbf34ba1f	-0.705965
85	0x3f0ca737	0.5494265
86	0x3ebde2c7	0.3708708
87	0x3d7d8be1	0.061900977
88	0x3eda0fbb	0.42590126
89	0xbe1b5a09	-0.15171064
90	0x3f45768b	0.7713401
91	0xbf009a21	-0.5023518
92	0x3f6f784f	0.9354295
93	0x3fa70ce0	1.3050804
94	0xbf29b062	-0.66284764
95	0xbf1504ed	-0.5821064
96	0x3e865340	0.2623539
97	0xbdaf87d5	-0.0857083
98	0xbd8523fa	-0.065010026
99	0xbeb4834a	-0.35256416
100	0x40857c18	4.171398
101	0xbdbea2a9	-0.09308369
102	0x3e3c3490	0.18379426
103	0x3e893c8b	0.26804003
104	0xbfc41433	-1.5318664
105	0xbfce0c1f	-1.6097449
106	0xbe0d769b	-0.13814776
107	0xbf4d366c	-0.80161166
108	0x3fc2c020	1.5214882
109	0x3e456076	0.19275078
110	0x3de4c2f2	0.11169995
111	0x3dd8efbb	0.105926
112	0x3eac8cb8	0.3370111
113	0xbded32ce	-0.11581956
114	0x3f3c56af	0.7356977
115	0xbe1b3d83	-0.15160184
116	0xbfb99226	-1.4497726
117	0xbeb6c742	-0.35698897
118	0xbd9a54be	-0.075356945
119	0x3eee2705	0.46514145
120	0x3eb3c613	0.35112056
121	0xbde5550f	-0.11197864
122	0xbe0130b8	-0.12616241
123	0xbeb99dc7	-0.36253187
124	0x3f8c1073	1.094252
125	0xbf463918	-0.7743087
126	0xbe78ccce	-0.24296877
127	0xbe0deb13	-0.13859205
128	0xbddabce6	-0.10680561
129	0xbeea4d52	-0.45762116
130	0x3e94162a	0.2892316
131	0xbf28cca4	-0.65937257
132	0xbe394f52	-0.18096665
133	0xbf1e8d7e	-0.6193465
134	0x3f074ad6	0.52848566
135	0xbc98b84e	-0.01864257
136	0xbe9206dc	-0.28520858
137	0xbd63bb38	-0.055598468
138	0x3d761344	0.060076967
139	0x3e0e4401	0.13893129
140	0x3f2667af	0.6500196
141	0x3f41016e	0.75392807
142	0x3f28e55a	0.6597496
143	0xbec558c0	-0.38544273
144	0xbe389acf	-0.18027805
145	0xbee51d44	-0.4474889
146	0x3f0535b5	0.52035075
147	0x3e1c967c	0.1529178
148	0xbf6e8a36	-0.93179643
149	0xbf72726b	-0.9470584
150	0x3e316db5	0.17327006
151	0xbf447122	-0.76735127
152	0xbec54f75	-0.38537183
153	0xbf69671b	-0.9117295
154	0x3f82edf8	1.0228872
155	0xbfaec726	-1.3654525
156	0xbf3a6deb	-0.7282397
157	0xbe36926f	-0.17829297
158	0x3e722c62	0.23649743
159	0x3d991d32	0.07476272
160	0xbf00a750	-0.502553
161	0xc067138b	-3.6105678
162	0xbcfa0e61	-0.030524435
163	0xbeb0d12b	-0.34534582
164	0x3edd1ab7	0.43184444
165	0x3e0d8ef2	0.1382406
166	0x3e2160fd	0.15759654
167	0xbd016d72	-0.031598516
168	0xbf8ee0fb	-1.1162409
169	0xc00aa558	-2.1663418
170	0x3eb367a4	0.3504001
171	0xbf59b700	-0.8504486
172	0x3fbe7075	1.4878069
173	0x3e781eb8	0.24230468
174	0x3c56c42d	0.013108295
175	0x3eaae22e	0.33375686
176	0x3edf6976	0.43635148
177	0xbcf8be4d	-0.03036418
178	0x3e4b01f6	0.19824967
179	0xbe8683d5	-0.26272455
180	0xbf3e4c17	-0.74334854
181	0xbf11af39	-0.56907994
182	0x3f1b4e83	0.60666674
183	0xbe517f36	-0.20458683
184	0x3ef6ee40	0.48228645
185	0xbe6aef02	-0.22942737
186	0x3d8ebda7	0.06969767
187	0xbf2b1c04	-0.66839623
188	0xbde3ce85	-0.11123375
189	0xbcd1275c	-0.025531463
190	0x3f2ede9e	0.68308437
191	0x3e78bb3c	0.24290174
192	0xbdbcff02	-0.092283264
193	0x3f00a984	0.5025866
194	0xc039657f	-2.8968198
195	0xbf8f234a	-1.1182644
196	0x3f469d9c	0.7758424
197	0x3d76604b	0.060150426
198	0xbf07380e	-0.5281991
199	0xbe8204c5	-0.25394264
200	0x3f43286c	0.76233554
201	0xbf03b2e3	-0.51444834
202	0x3ea75ad1	0.32686475
203	0xbf71f169	-0.9450899
204	0xbd409c92	-0.047024317
205	0x3f05eaba	0.5231129
206	0x3c5cb470	0.013470754
207	0x3f13acb3	0.57685393
208	0x3df00009	0.11718757
209	0xbe6320f7	-0.22180544
210	0x3da90ab8	0.082539976
211	0xbf3a0277	-0.7266001
212	0xbcb3755b	-0.021906545
213	0xbef000bc	-0.4687556
214	0x3ec61c88	0.38693643
215	0x3cfd36b8	0.030909881
216	0x3f29503e	0.66138065
217	0xbf94539b	-1.1588014
218	0x3f0d37bd	0.55163175
219	0xbf82a099	-1.020526
220	0x3f0e6a5b	0.55631036
221	0x3d74ebbb	0.059795123
222	0x3db4c612	0.088268414
223	0x3e4d4a30	0.20047832
224	0xbf0257b1	-0.50915056
225	0xbf51b621	-0.8191853
226	0x3f43be03	0.7646181
227	0xbe5fbdfe	-0.2184982
228	0xbd96550e	-0.07340442
229	0xbdda56ed	-0.10661111
230	0x3e18bad8	0.14915025
231	0x3e653239	0.2238244
232	0xbe275cab	-0.16343944
233	0xbee5026f	-0.4472842
234	0x3fa2242e	1.2667291
235	0xc02bcea8	-2.6844883
236	0xbf3972d0	-0.72440815
237	0xbf6f3bba	-0.9345051
238	0x3f3f924b	0.748326
239	0x3dea3c2e	0.114372596
240	0xbe0060fe	-0.12537
241	0xbe3f2b80	-0.18668938
242	0xbd045aa5	-0.032313008
243	0xbf40094d	-0.7501419
244	0xbf1860b5	-0.59522563
245	0xbe57bec1	-0.2106886
246	0x3f1206f2	0.5704185
247	0xbf930467	-1.1485718
248	0x3e38edbc	0.18059438
249	0x3e451ad9	0.19248523
250	0xbf408d50	-0.75215626
251	0x3f77795b	0.9666955
252	0x3ffa722c	1.9566092
253	0x3db318f2	0.08744992
254	0x3e18ad0c	0.14909762
255	0xbdd3e971	-0.1034726

fc1.bias f4 [32]
0	0xbe98c2cd	-0.2983612
1	0x3ea744d6	0.32669705
2	0xbec4bdcc	-0.38426054
3	0xbec8599e	-0.39130872
4	0xbe532d7b	-0.20622818
5	0xbe935689	-0.2877696
6	0xbe9e5701	-0.30925754
7	0xbe950830	-0.2910781
8	0x3ef94cb9	0.48691347
9	0x3f1a6b2b	0.60319775
10	0x3f53e383	0.8276903
11	0xbeb87228	-0.36024594
12	0x3b103f2b	0.0022010307
13	0xbed7005e	-0.41992468
14	0xbed4616c	-0.41480577
15	0x3eaa88d4	0.33307517
16	0xbde0c11b	-0.10974332
17	0x3db9f4ed	0.09079919
18	0xbf11bf21	-0.56932265
19	0xbe86114b	-0.26185068
20	0x3f3831fa	0.7195126
21	0xbef9db37	-0.4880006
22	0xbeba46b9	-0.36382082
23	0xbe60b80e	-0.21945211
24	0x3f484b86	0.7824024
25	0xbeb62d78	-0.35581565
26	0xbe0947e0	-0.13406324
27	0xbeaa52b9	-0.33266237
28	0xbe5c23c0	-0.21498013
29	0x3f03bcb2	0.514598
30	0xbe0f3c32	-0.13987806
31	0x3f284b9d	0.65740377

fc2.weight f4 [32, 32]
0	0x3d7e87f0	0.06214136
1	0x3f70b7ed	0.9403065
2	0xbe3544d9	-0.17702045
3	0x3f9a39ce	1.204889
4	0x3efb7d8e	0.49119228
5	0x3d1674f6	0.036732636
6	0x3f83cda3	1.029713
7	0x3e90a51b	0.28250965
8	0x3db94d13	0.09047904
9	0x3ebd94cb	0.37027583
10	0x3e13f182	0.14447597
11	0xbcaaffbe	-0.0208739
12	0xbee39d6e	-0.44456047
13	0x3f86bf2b	1.052709
14	0x3e8bb65f	0.27287576
15	0x3f041e42	0.5160867
16	0x3ebc083c	0.36725032
17	0xbe2074d8	-0.15669572
18	0x3fa8e818	1.3195829
19	0x3f70ee3c	0.94113517
20	0x3ddc55eb	0.10758575
21	0x3f629a7f	0.8851699
22	0xbe0cc88b	-0.13748376
23	0x3de0f682	0.10984518
24	0x3ec58bf0	0.38583326
25	0x3e1f8ce4	0.1558109
26	0x3f0b9a28	0.545321
27	0x3f62809b	0.88477486
28	0x3f409e21	0.75241286
29	0x3e48a43a	0.19593897
30	0x3f6c8c47	0.92401546
31	0xbfb4873b	-1.4103769
32	0x3eef8f82	0.46789175
33	0x3f30f109	0.6911779
34	0x3e423a9b	0.18967669
35	0x3f93fdfb	1.1561884
36	0x3ec2fcda	0.38083535
37	0x3f1294dc	0.5725839
38	0x3f7caca3	0.9870092
39	0x3f5c5e60	0.86081505
40	0x3f5cf0e2	0.8630506
41	0x3cd5221d	0.026017243
42	0xbebde905	-0.37091842
43	0xbe564c09	-0.20927443
44	0xbedba08d	-0.42895928
45	0x3fc38133	1.5273803
46	0x3f49cdd9	0.78829724
47	0x3f59ac99	0.8502899
48	0x3f043523	0.5164358
49	0x3f51ffc1	0.82030874
50	0x3f52cd66	0.82344663
51	0x3f92b530	1.1461544
52	0xbf3ec832	-0.74524224
53	0x3fae43f6	1.361449
54	0x3f4b759d	0.7947634
55	0x3e99e063	0.30054006
56	0x3e855f9e	0.26049513
57	0x3eb93cf2	0.3617931
58	0x3ef79558	0.48356128
59	0x3f1264e2	0.57185185
60	0x3e9087f0	0.28228712
61	0xbd006ee1	-0.031355742
62	0x3ebbb812	0.36663872
63	0x3f3c4b95	0.7355283
64	0xbd7ceff5	-0.06175228
65	0xbf927f0f	-1.1445025
66	0xbd026437	-0.031833854
67	0xbd66225b	-0.056185108
68	0xbe1b45df	-0.15163372
69	0x3f0891db	0.5334756
70	0xbf128304	-0.57231164
71	0xbee0d621	-0.43913367
72	0xbff4e71c	-1.9133029
73	0x3f589454	0.8460133
74	0x3f484ecb	0.7824523
75	0xbf8bc5c5	-1.091973
76	0x3f8ac604	1.084168
77	0xbfa42d40	-1.2826309
78	0x3eaf3f16	0.34227818
79	0xbfcf04f5	-1.6173388
80	0x3c72e117	0.014824173
81	0xbf7d781f	-0.99011415
82	0xbf8566e7	-1.0422028
83	0xbf56acc8	-0.83857393
84	0x3ebddd2d	0.37082806
85	0xbf9c4f8b	-1.2211775
86	0xbd7e742b	-0.062122505
87	0x3c5fdef8	0.013664
88	0xbec63f43	-0.3872014
89	0x3d9b2a28	0.075764
90	0x3e3c6c63	0.18400721
91	0xbe40bddb	-0.18822424
92	0xbdca668c	-0.098828405
93	0x3f569a7c	0.83829474
94	0xbf62d9a1	-0.88613325
95	0x3f31c707	0.69444317
96	0x3efd066e	0.49418968
97	0x3f800af6	1.0003345
98	0x3ed81859	0.42206076
99	0x3f96e38c	1.1788192
100	0x3e791eec	0.24328202
101	0x3ecb4743	0.39702806
102	0x3f74664b	0.95468587
103	0x3f28992b	0.65858716
104	0x3f2d2f65	0.67650443
105	0xbd1cd247	-0.038286474
106	0xbea2da08	-0.3180697
107	0x3e35a0cd	0.17737122
108	0xbeb8d246	-0.36097926
109	0x3fb7c4e2	1.4356959
110	0x3f42a811	0.760377
111	0x3f6e8c46	0.9318279
112	0x3ef356e2	0.47527224
113	0x3f2835f7	0.65707344
114	0x3f2c20d6	0.67237604
115	0x3f9b958e	1.2155015
116	0xbeec3cb7	-0.46140072
117	0x3f9d9e8f	1.2314013
118	0x3f351c45	0.7074626
119	0x3ec64917	0.38727638
120	0x3eb258cc	0.34833372
121	0x3ebdac63	0.37045583
122	0x3e8feb1a	0.28109056
123	0x3f09d7b0	0.5384474
124	0x3f3de300	0.741745
125	0xbd8397a7	-0.0642541
126	0x3ec976a0	0.39348316
127	0x3e9adb39	0.3024538
128	0xbfe1dfff	-1.7646483
129	0xbebcccab	-0.368749
130	0xc0277a69	-2.6168463
131	0xbf6fae5c	-0.93625426
132	0xbf092cdd	-0.5358408
133	0xbe1d0e3a	-0.15337458
134	0xbcca3649	-0.024684088
135	0xbf58a891	-0.8463221
136	0xbfe2ec83	-1.7728428
137	0x3eb7bf3f	0.35888097
138	0x3f843e84	1.0331578
139	0x3fdb1606	1.7116096
140	0x40413950	3.019123
141	0xbf5abd0e	-0.85444725
142	0xbfac8f6f	-1.3481272
143	0xbe690d24	-0.22758919
144	0x3eac9c12	0.33712822
145	0xbfcb7796	-1.589587
146	0xbf1933d9	-0.5984474
147	0xbe73f9f1	-0.23825814
148	0x3fbca689	1.4738322
149	0xbfaa44ac	-1.3302207
150	0xbdd99c79	-0.10625548
151	0xbf915987	-1.1355447
152	0xbe7e2bd0	-0.248214
153	0xc015d83c	-2.341323
154	0xbe6778ff	-0.2260475
155	0xbde7aaa9	-0.11311848
156	0x3d3e51a3	0.046464574
157	0x3fa372e7	1.276944
158	0x3cebb878	0.028774485
159	0xbf19c72a	-0.60069525
160	0x3ed5f8b5	0.4179131
161	0x3ebd0d20	0.36924076
162	0x3ef7fdd4	0.48435843
163	0x3ec4bf7c	0.3842734
164	0x3eb8208e	0.35962337
165	0x3e8e5f38	0.2780702
166	0xbdcc7f6f	-0.099852435
167	0x3f6ef854	0.9334767
168	0x3f6c8212	0.9238597
169	0xbe79349e	-0.24336478
170	0xbe207b06	-0.1567193
171	0xbe003882	-0.12521556
172	0xbeff6796	-0.49883717
173	0x3f7efb77	0.99602455
174	0x3ebb3607	0.36564657
175	0x3f0824d8	0.5318122
176	0x3e7ce562	0.24696878
177	0x3f4512cc	0.76981807
178	0x3f0791eb	0.5295703
179	0x3ed77eab	0.42088827
180	0xbf694f7a	-0.91136897
181	0x3f645178	0.8918681
182	0x3eb821fb	0.35963425
183	0x3e6d92e1	0.23200561
184	0x3ec784ee	0.38968605
185	0xbc58aa22	-0.013224157
186	0x3eb13ab4	0.346151
187	0xbe289b32	-0.16465452
188	0x3e9d8f1d	0.3077325
189	0xbd942d71	-0.0723523
190	0xbd3dd8e5	-0.046349425
191	0x3f4910d5	0.7854131
192	0x3e11ca2b	0.14237277
193	0x3f493934	0.7860291
194	0x3e11e102	0.1424599
195	0x3f585bcc	0.8451507
196	0x3ea83815	0.32855287
197	0x3eb83ad6	0.35982388
198	0x3f821970	1.0164013
199	0x3f5b9328	0.8577142
200	0x3f64aa5c	0.8932245
201	0xbb628a7d	-0.0034567409
202	0xbe972826	-0.29522818
203	0x3ef49ab9	0.47774294
204	0xbe29485e	-0.16531512
205	0x3fad88a8	1.3557329
206	0x3f33f8ec	0.703017
207	0x3f4eedf6	0.8083185
208	0x3e3d735a	0.18501034
209	0x3f198c83	0.5998003
210	0x3f9862df	1.1905173
211	0x3f9b267e	1.2121122
212	0xbef92d59	-0.4866741
213	0x3fc5ee4a	1.5463345
214	0x3f0005c6	0.5000881
215	0x3e90e0ea	0.28296596
216	0x3f100823	0.56262416
217	0x3d5e60f1	0.05429167
218	0x3f039ce2	0.5141126
219	0x3f26cfc4	0.65160775
220	0x3f17268a	0.5904318
221	0xbe0d1648	-0.13778031
222	0x3f13d07c	0.57739997
223	0x3dcba748	0.09944016
224	0x3ef97031	0.48718408
225	0x3f10835a	0.56450427
226	0x3f00623f	0.5014991
227	0x3f198fff	0.59985346
228	0x3df8f67c	0.12156388
229	0x3e82e1e5	0.2556297
230	0x3e8f52f2	0.2799297
231	0x3f16f308	0.58964586
232	0x3eb32637	0.34990093
233	0xbef6d03d	-0.48205748
234	0x3e0acb92	0.13554218
235	0xbf311643	-0.69174594
236	0xbef45eb9	-0.47728518
237	0x3f68a721	0.9088002
238	0x3f5e25d2	0.8677646
239	0x3f209759	0.6273094
240	0x3e54c22b	0.20777194
241	0x3ea341d9	0.31886175
242	0x3f0ee2b3	0.55814666
243	0x3f58d46d	0.84699136
244	0xbf9c8674	-1.2228532
245	0x3f4ca19f	0.79934114
246	0x3e8e73a1	0.27822593
247	0x3e27b627	0.1637808
248	0x3edb3b88	0.42818856
249	0x3e24bcba	0.16087618
250	0x3e5805d9	0.2109598
251	0x3e51461c	0.20436901
252	0x3ea6c193	0.3256956
253	0x3dc007cf	0.09376489
254	0xbd02f0e3	-0.03196801
255	0x3f2a860b	0.66610783

fc2.bias f4 [32]
0	0xbe36c428	-0.17848265
1	0xbea526f0	-0.3225627
2	0x3f9d8b8d	1.2308213
3	0xbe4795dd	-0.19490762
4	0x3f1bfd01	0.6093293
5	0xbe71fd69	-0.23631825
6	0xbeaf15af	-0.3419623
7	0x3bf7deb2	0.007564389
8	0xbf0a2a03	-0.53970355
9	0xbedba9c6	-0.42902964
10	0xbe13dd44	-0.14439875
11	0x3fa55f25	1.2919661
12	0xbec44c18	-0.38339305
13	0xbe405312	-0.18781689
14	0x3d3b88c4	0.045784727
15	0xbf4e7188	-0.80641985
16	0xbdd363a2	-0.10321738
17	0x3d48ee5e	0.04905545
18	0xbecfb445	-0.40567222
19	0xbe845be9	-0.25851372
20	0xbd2eb5bf	-0.042653795
21	0xbea986d4	-0.33110678
22	0xbefc3e90	-0.4926648
23	0xbed2ed6b	-0.4119676
24	0xbec27f1b	-0.379876
25	0xbda697a7	-0.08134394
26	0x3deeb072	0.11654748
27	0x3f7b2ed2	0.9811832
28	0xbe4b9712	-0.19881848
29	0xbe08139b	-0.13288729
30	0xbe35ca0b	-0.17752855
31	0x3f3bedbf	0.73409647

fc3.weight f4 [4, 32]
0	0xbf870d91	-1.0551015
1	0xbf17b8c7	-0.5926632
2	0x3fe373a2	1.7769663
3	0xbf1f12cc	-0.62138057
4	0x40402e1c	3.0028143
5	0xbe92ed4a	-0.28696662
6	0xbf4f626c	-0.81009555
7	0xbe5687a0	-0.20950174
8	0x3f50b442	0.8152505
9	0xbf080944	-0.5313914
10	0xbf81dad4	-1.0144906
11	0x4032e476	2.7951941
12	0xbf58fbc5	-0.8475917
13	0xbf409643	-0.7522928
14	0x40197bac	2.3981733
15	0xbf1e4af3	-0.61833113
16	0xbf098bf6	-0.5372919
17	0xbe72fea5	-0.23729952
18	0xbf5d9411	-0.86554056
19	0xbf2e6b18	-0.6813216
20	0xbf109458	-0.56476355
21	0xbf0e6cf7	-0.5563502
22	0xbf0fed53	-0.56221503
23	0xbf1488c3	-0.5802118
24	0xbf466b19	-0.7750717
25	0x3e10e297	0.14148937
26	0xbf263d3a	-0.64937174
27	0x4050d9e1	3.2632983
28	0xbf93716f	-1.1518992
29	0xbf257783	-0.64635485
30	0xbf3e92b1	-0.74442583
31	0x4063032c	3.5470686
32	0xbd4d69b7	-0.050149646
33	0xbf107014	-0.5642102
34	0x400e0bcf	2.2194707
35	0xbf07a1d1	-0.5298129
36	0x406bc683	3.6839912
37	0xbf88a7e7	-1.067624
38	0xbf21ae3a	-0.63156474
39	0xbf0e1c4f	-0.55511945
40	0xbf933ad9	-1.1502334
41	0xbe974db5	-0.29551473
42	0xbf572a90	-0.8404932
43	0x40051606	2.0794692
44	0xbf5f756f	-0.87288564
45	0xbed9f808	-0.42572045
46	0x405347a1	3.301247
47	0xbea3ac44	-0.31967366
48	0xbee456eb	-0.44597563
49	0xbe2d7949	-0.16940798
50	0xbe6ad1d8	-0.22931612
51	0xbf7a197d	-0.9769514
52	0xbf40905d	-0.7522028
53	0xbf5e3788	-0.86803484
54	0xbeaa56c6	-0.33269328
55	0xbf1bb203	-0.608185
56	0xbf12aa65	-0.5729125
57	0xbdfa639e	-0.12226032
58	0xbf98f23e	-1.1948926
59	0x407153c6	3.7707381
60	0xbf30ea7d	-0.691078
61	0xbf1dd526	-0.61653364
62	0xbed29986	-0.41132754
63	0x404f555a	3.2395844
64	0x3ed87d90	0.42283297
65	0xbf046790	-0.51720524
66	0x3ef9fb00	0.4882431
67	0xbea31057	-0.31848404
68	0x40690312	3.6408124
69	0xbf4ba14d	-0.79543
70	0xbdbac4a9	-0.09119541
71	0xbf650dff	-0.8947448
72	0xbf7141c2	-0.94240963
73	0xbfa06561	-1.2530938
74	0xbf55dd36	-0.83540666
75	0x40318ae5	2.7741024
76	0xbed3bea9	-0.413564
77	0xbf4672d5	-0.7751897
78	0x3f4f0749	0.8087049
79	0xbf69016f	-0.9101781
80	0xbf676d43	-0.90401095
81	0xbf61177f	-0.8792648
82	0xbd9b2811	-0.075760014
83	0xbf025d72	-0.50923836
84	0xbf16f2cd	-0.58964235
85	0xbf1abfff	-0.6044921
86	0xbf8369aa	-1.0266621
87	0xbedb12ad	-0.42787686
88	0xbe218c27	-0.1577612
89	0xbd929da0	-0.07158971
90	0xbd930e6a	-0.07180484
91	0x3fbf9d8a	1.4969952
92	0xbf1a1863	-0.6019346
93	0xbf2d6f1e	-0.67747676
94	0xbf571349	-0.840138
95	0x4067b1c7	3.6202257
96	0xbf903175	-1.1265093
97	0xbf269011	-0.6506358
98	0x400edf2e	2.2323718
99	0xbf4fdba3	-0.81194514
100	0x402df4d8	2.718069
101	0xbf1141c8	-0.56741
102	0xbf344488	-0.7041707
103	0xbf4e0283	-0.8047258
104	0x3f99a8bb	1.2004617
105	0xbf4ca56e	-0.79939926
106	0xbe9efdd1	-0.31053022
107	0x4018bae8	2.3864079
108	0xbea57aad	-0.32320157
109	0xbf4417f6	-0.7659906
110	0x401a210b	2.4082668
111	0xbf341b6a	-0.7035433
112	0xbf35e247	-0.71048397
113	0xbf600eb1	-0.8752242
114	0xbf4a4f95	-0.7902768
115	0xbf21b95a	-0.6317345
116	0xbf02063e	-0.50790775
117	0xbf26d830	-0.65173626
118	0xbee2b5a2	-0.442792
119	0xbf52a656	-0.8228506
120	0xbf2e7cba	-0.6815907
121	0xbe0c878f	-0.13723586
122	0x3db48792	0.088149205
123	0x4077cfc1	3.8720553
124	0xbe996e02	-0.29966742
125	0xbf30f540	-0.6912422
126	0xbf239da2	-0.63912404
127	0x407256b0	3.786541

fc3.bias f4 [4]
0	0x3e9df310	0.30849504
1	0x3eff9915	0.4992148
2	0xbe025cc8	-0.12730706
3	0xbd03dea6	-0.032194756
