checkpoint.pth (torch_old, 45238 bytes, 8 tensors)

fc1.weight f4 [64, 8]
0	0x3df519ac	0.11967787
1	0xbe968296	-0.29396504
2	0xbde83de3	-0.11339929
3	0xbec0dd5a	-0.37668878
4	0x3da15b1f	0.07878708
5	0x3edd7cfb	0.43259415
6	0x3dd23c6e	0.10265432
7	0x3f171e7d	0.59030896
8	0x3e10c4cf	0.14137577
9	0x3dff964a	0.12479837
10	0xbd2d70cf	-0.04234391
11	0xbd8a2ce1	-0.06746841
12	0xbe5b9c7d	-0.21446414
13	0xbf74397a	-0.954002
14	0xbe5b8f2d	-0.21441336
15	0x3eca669f	0.3953142
16	0x3d9caf57	0.07650631
17	0x3d051b11	0.032496516
18	0xbe714c21	-0.23564197
19	0x3d3a1647	0.0454314
20	0x3eb34791	0.35015538
21	0x3ee2e20c	0.44313085
22	0x3d6990bc	0.057022795
23	0x3f1b0c60	0.6056576
24	0xbc98606b	-0.018600663
25	0x3bd602b9	0.0065310863
26	0x3fe59d27	1.7938584
27	0xbfa2dc36	-1.2723453
28	0x3dd6b3c5	0.10483507
29	0xbe1bbf22	-0.1520963
30	0x3dfc7390	0.12326729
31	0x3e9e1bb6	0.30880517
32	0x3e22c080	0.15893745
33	0xbf0c9f9e	-0.54931056
34	0xbe6438b9	-0.22287263
35	0xbf315716	-0.6927351
36	0xbe5a83f0	-0.21339393
37	0x3f351787	0.70739025
38	0x3db1b232	0.08676566
39	0xbd212493	-0.03934152
40	0x3f20ffce	0.62890327
41	0xbf7f2045	-0.99658614
42	0x3eae9aba	0.34102422
43	0xbf4cb89b	-0.79969186
44	0xbc1b9bff	-0.009497642
45	0xbe96235c	-0.29323852
46	0x3ef18679	0.47172907
47	0x3e33c21d	0.17554517
48	0xbf2e963d	-0.68197995
49	0xbfeecbee	-1.8655984
50	0x3e8035b9	0.25040987
51	0x3e86131c	0.26186454
52	0xbeaded96	-0.33970326
53	0x3e311bfe	0.17295834
54	0x3e8857bb	0.26629433
55	0xbf067000	-0.5251465
56	0x3ea3016f	0.3183703
57	0xbeb2a6fa	-0.34893018
58	0xbdfc3436	-0.12314646
59	0xbf614050	-0.8798876
60	0x3dcbec39	0.09957165
61	0x3e487b1d	0.19578214
62	0xbe447841	-0.19186498
63	0x3e292fdf	0.16522168
64	0x3f26ca7d	0.6515272
65	0x3d9540f0	0.072877765
66	0x3e88cff3	0.26721153
67	0x3d1ce40e	0.038303427
68	0x3e979cae	0.29611725
69	0x3f5da789	0.86583763
70	0xbe82b36e	-0.2552752
71	0xbedbc8a7	-0.42926523
72	0x3e8329bf	0.25617787
73	0x3e876e1d	0.26451197
74	0x4026e674	2.6078157
75	0x3f1e9761	0.61949736
76	0xbec9b7a3	-0.39397916
77	0xbeeacf45	-0.4586126
78	0x3d1675b6	0.03673335
79	0x3de3e80b	0.11128243
80	0xbf67839d	-0.904352
81	0x3f25a2c3	0.6470148
82	0x3eb68994	0.3565184
83	0xbf28cc98	-0.65937185
84	0x3bb137f0	0.0054082796
85	0x3e63b024	0.22235161
86	0xbe37c1a1	-0.17944957
87	0xbf4c08e0	-0.7970104
88	0xbea33fb6	-0.31884545
89	0xbf5b7bb2	-0.8573562
90	0xbd23721b	-0.03990374
91	0x3e95f9a5	0.29292026
92	0x3e201510	0.15633035
93	0x3e55ab29	0.20866074
94	0xbeb32945	-0.34992424
95	0xbec8a523	-0.3918849
96	0xbe14519b	-0.14484255
97	0x3e3c3a75	0.18381675
98	0xbcfcb090	-0.03084591
99	0x3e229698	0.1587776
100	0x3e958d89	0.29209545
101	0x3f2e2ec9	0.6804014
102	0x3e34461b	0.17604868
103	0xbef9bbd9	-0.4877613
104	0xbf666291	-0.8999415
105	0xbf180406	-0.5938114
106	0xbf17927c	-0.5920789
107	0x3d15edd2	0.036603756
108	0x3e6189b3	0.22025184
109	0x3d45a3ac	0.048251793
110	0xbd8b924e	-0.06815015
111	0x3eded8b2	0.435247
112	0xbe0791d2	-0.1323922
113	0x3ee06bf0	0.4383235
114	0x3f10407a	0.56348383
115	0xbf9ae75f	-1.2101859
116	0xbe17f18f	-0.14838241
117	0xbbdae4df	-0.0066801156
118	0x3e9372a3	0.28798398
119	0xbe72cf44	-0.23711878
120	0x3f1d4813	0.614381
121	0x3edd6b3c	0.43245876
122	0x3e1e20be	0.15442178
123	0x3ecb73cb	0.3973678
124	0xbe85fc65	-0.26169124
125	0xbf2e2d88	-0.68038225
126	0xbf05d5a7	-0.5227913
127	0xbfa18f38	-1.2621832
128	0x3d124179	0.03570697
129	0xbf44d317	-0.768846
130	0xbe8fbd4b	-0.28074107
131	0x3d22ac55	0.03971513
132	0x3e499f5c	0.19689697
133	0x3dacceff	0.08437919
134	0x3f0e74a6	0.5564674
135	0x3ebc09d8	0.3672626
136	0xbd4757d8	-0.04866776
137	0xbdbf258f	-0.093333356
138	0x3da0b66c	0.07847294
139	0xbc3f1716	-0.011663219
140	0x3d8108f0	0.06300533
141	0x3f63584a	0.88806593
142	0x3ef8e393	0.48611125
143	0xbe8a67d5	-0.27032343
144	0xbe494432	-0.1965492
145	0xbe088ac1	-0.1333418
146	0xbe05ba39	-0.1305932
147	0x3e9bdba7	0.3044102
148	0x3d1a7475	0.03770872
149	0xbf59a4d5	-0.8501714
150	0xbef2fe99	-0.47459868
151	0x3e74461e	0.23854873
152	0x3e9355d3	0.28776416
153	0x3e7c3222	0.24628499
154	0x3eef9f39	0.46801165
155	0xbff8cb3a	-1.943702
156	0x3f263fd8	0.6494117
157	0xbf6ebf61	-0.9326077
158	0xbd69786b	-0.056999605
159	0xbec047cc	-0.37554777
160	0xbf2e812a	-0.6816584
161	0xbeac9e25	-0.33714405
162	0xbf28357a	-0.657066
163	0xbed1161e	-0.40837187
164	0x3a5d43c9	0.0008440582
165	0xbee46559	-0.44608572
166	0xbf2330d3	-0.63746375
167	0xbe7f2660	-0.24916983
168	0xbe27aa49	-0.16373552
169	0xbf98fd8b	-1.1952375
170	0x3ef23562	0.47306353
171	0xbea49339	-0.32143572
172	0x3f05bc9b	0.52240914
173	0x3e585d9d	0.2112946
174	0xbe84395e	-0.25825018
175	0x3d95ffbf	0.0732417
176	0x3e7344e8	0.23756754
177	0xbf46b412	-0.77618515
178	0x3e80bb83	0.2514306
179	0xbf51ac3b	-0.8190343
180	0x3e9e2499	0.30887297
181	0xbe2028d2	-0.15640572
182	0x3f03c6e0	0.51475334
183	0x3e87b4c7	0.2650511
184	0x3f53247c	0.82477546
185	0xbf1cebb7	-0.6129717
186	0x3eb003f7	0.34378025
187	0xbedf8e80	-0.43663406
188	0xbe1aa10b	-0.15100496
189	0x3e7a88d3	0.24466257
190	0x3f17588c	0.59119487
191	0x3e35ddcb	0.17760389
192	0xbdaea0a1	-0.08526731
193	0xbf9fa9a9	-1.2473651
194	0xbebcef41	-0.36901286
195	0xbf0a62e7	-0.54057163
196	0xbf082df0	-0.53195095
197	0xbb9742a8	-0.0046161003
198	0xbe8f97e0	-0.2804556
199	0x3e67ebe4	0.22648579
200	0x3e5654f4	0.20930845
201	0x3e00fa62	0.12595513
202	0xbe94e0a9	-0.29077652
203	0xbef10700	-0.47075653
204	0x3e31a4a5	0.17347963
205	0x3ee11d86	0.43967837
206	0x3e057d1c	0.13036007
207	0x3f2e85f6	0.6817316
208	0xbe96a444	-0.294222
209	0xbfbd0532	-1.476721
210	0xbef5297d	-0.47883216
211	0xbf080446	-0.5313152
212	0x3ecd49eb	0.40095457
213	0x3e47faeb	0.19529311
214	0x3ea77eb4	0.32713854
215	0x3d5d3a05	0.05401041
216	0x3e0626d7	0.13100754
217	0xbf831285	-1.0240027
218	0x3deaf42d	0.11472354
219	0xbef6798e	-0.48139614
220	0x3de56af5	0.11202041
221	0x3f2cb51d	0.67463857
222	0x3d8ad0cb	0.06778105
223	0x3d3a97af	0.045554813
224	0x3d941463	0.07230451
225	0x3d93d641	0.072186
226	0xbf7c86a4	-0.98642945
227	0xbf370387	-0.7148976
228	0x3f21e300	0.63237
229	0xbf192836	-0.5982698
230	0x3e427e95	0.189936
231	0x3e5338e0	0.20627165
232	0xbd34c9c5	-0.044137735
233	0x3e22f2b5	0.15912898
234	0x3f2b3cff	0.6688995
235	0x3c0154f7	0.007893792
236	0x401eccb0	2.4812431
237	0xbdb26e1f	-0.0871241
238	0xbe8e2022	-0.2775889
239	0x3d35626f	0.044283327
240	0xbe85128d	-0.25990716
241	0x3ec42d6d	0.38315907
242	0xbf246db8	-0.6422992
243	0x3e0a42fb	0.13502114
244	0x3ebfedc4	0.37486088
245	0xbf395771	-0.7239905
246	0x3efc0b5d	0.4922742
247	0xbe497dad	-0.19676848
248	0xbec94513	-0.39310512
249	0x3e0cb959	0.1374258
250	0xbef8725d	-0.48524752
251	0x3eb35f82	0.35033804
252	0x3f69a7e9	0.91271836
253	0x3ea1841b	0.315461
254	0xbf3366be	-0.7007865
255	0xbf763895	-0.9618009

fc1.bias f4 [64]
0	0xbed6cccc	-0.41953123
1	0xbe2b424b	-0.16724508
2	0xbe4a939e	-0.19782874
3	0xbc5c5e1f	-0.013450175
4	0xbf141067	-0.5783753
5	0xbe88be55	-0.26707712
6	0x3e9f3a62	0.3109923
7	0xbe8cae16	-0.27476567
8	0x3c3e862a	0.011628667
9	0x3e8c79b4	0.27436602
10	0x3eafef5a	0.34362298
11	0xbecd345d	-0.40079013
12	0xbeb5ec54	-0.35531867
13	0xbeaa5d3c	-0.33274257
14	0x3eeac54c	0.4585365
15	0x3d4f8ddf	0.05067241
16	0xbe061333	-0.13093261
17	0x3db2f092	0.087372914
18	0x3ea06a2a	0.31330997
19	0x3f168a24	0.58804536
20	0xbeec5deb	-0.46165404
21	0xbf1499a5	-0.5804694
22	0xbeb1845a	-0.3467129
23	0xbe4818d3	-0.1954072
24	0xbdd1353d	-0.102152325
25	0xbeb2d27d	-0.34926215
26	0xbed71594	-0.4200865
27	0xbf16e3e8	-0.5894151
28	0xbe4c8461	-0.19972374
29	0xbd62faa3	-0.055414807
30	0x3e0d8500	0.13820267
31	0x3eb23c39	0.3481157
32	0x3c564bfd	0.01307964
33	0x3f19b8d6	0.6004766
34	0xbf0b4dce	-0.54415596
35	0xbe834028	-0.25634885
36	0x3e9e6e8b	0.30943713
37	0x3e84429c	0.2583207
38	0xbeabbe97	-0.33543846
39	0xbe365b84	-0.17808348
40	0x3ee01782	0.43767935
41	0xbeca5a8b	-0.39522204
42	0x3e117ea2	0.14208463
43	0x3e57590b	0.21030061
44	0x3e6b43ab	0.22975032
45	0x3e4959d7	0.19663177
46	0x3f0bdeb7	0.5463671
47	0x3f2db989	0.6786123
48	0x3e8a2667	0.26982424
49	0xbeed9029	-0.46399048
50	0x3e9158e3	0.28388128
51	0x3ece8a67	0.40339968
52	0xba98fe5e	-0.0011672487
53	0x3d823919	0.06358547
54	0xbed0fff9	-0.40820292
55	0xbe1ab50b	-0.15108125
56	0x3ebd37f2	0.36956745
57	0x3e7ae933	0.24503021
58	0x3e18464f	0.1487057
59	0x3d478ef8	0.04872033
60	0xbed35e22	-0.41282755
61	0xbeea2d81	-0.45737842
62	0xbc801234	-0.01563368
63	0x3e58365f	0.21114491

fc2.weight f4 [128, 69]
0	0x3e58d07f	0.21173285
1	0x3e2c82b2	0.16846731
2	0x3df062f3	0.11737623
3	0x3e47450a	0.1945993
4	0x3f1c4c09	0.6105352
5	0x3e0353d3	0.12824945
6	0xbe583621	-0.21114399
7	0x3ea4c965	0.32184902
8	0x3e866bc5	0.26254097
9	0xbf2128af	-0.62952703
10	0xbe01d35a	-0.1267828
11	0x3e93f032	0.28894192
12	0x3e9d4eda	0.3072422
13	0x3db8136d	0.0898808
14	0xbdc26627	-0.0949214
15	0xbe9e9258	-0.30971026
16	0xbbf3dd4b	-0.0074421517
17	0x3e95137b	0.29116425
18	0x3e2cc32f	0.16871332
19	0x3de21600	0.110393524
20	0xbe827fa4	-0.25488007
21	0x3eee0f37	0.46495983
22	0x3f0b0cab	0.54316205
23	0x3ed4b309	0.41542843
24	0x3e183815	0.14865144
25	0x3e9e0578	0.30863547
26	0x3e9abe17	0.30223152
27	0x3f14cc97	0.5812468
28	0xbe35b4a8	-0.17744696
29	0xbc04a965	-0.008097027
30	0x3d833181	0.064059265
31	0xbc8dcd6d	-0.017309869
32	0xbd76bca3	-0.06023849
33	0xbf314831	-0.6925078
34	0xbe326f70	-0.17425323
35	0x3d62b467	0.055347826
36	0xbe1b5628	-0.15169585
37	0xbdcaf4dd	-0.09909985
38	0x3d2ee8fc	0.04270266
39	0x3d3feeab	0.04685847
40	0xbea21161	-0.31653884
41	0x3e90b841	0.28265575
42	0xbe1558da	-0.14584675
43	0xbe93106b	-0.28723463
44	0x3e6131e3	0.21991687
45	0x3e88cce6	0.26718825
46	0xbf29948b	-0.66242284
47	0xbf0ae173	-0.5425026
48	0xbf482314	-0.78178525
49	0xbee75252	-0.45179993
50	0xbfadf3c1	-1.3590013
51	0xbf03e48d	-0.51520616
52	0xbc4b7919	-0.012419009
53	0x3e312343	0.17298608
54	0x3eb83eb9	0.35985354
55	0x3eeafe5e	0.45897192
56	0xbe869d6f	-0.26291987
57	0xbccaa063	-0.024734681
58	0x3d7cff62	0.06176699
59	0x3d533078	0.051559895
60	0x3e471d06	0.19444665
61	0x3dfbf213	0.12302031
62	0xbd44f42e	-0.04808443
63	0x3dc7e2e3	0.09760072
64	0x3cf0fc33	0.029417133
65	0xbeb707a3	-0.35748014
66	0xbdb4df72	-0.08831681
67	0xbe0193a4	-0.12653977
68	0xbe6eaacc	-0.23307341
69	0x3ee69b70	0.45040464
70	0x3df31d69	0.11870844
71	0x3e9a6110	0.30152178
72	0xbf475e55	-0.77878314
73	0x3f0b88b8	0.5450549
74	0x3e163e60	0.14672232
75	0xbe1010fa	-0.14068976
76	0x3eaeb7be	0.3412456
77	0x3ebfee6b	0.37486586
78	0xbf3267fc	-0.6968992
79	0xbe40ca26	-0.18827114
80	0x3e9f2c76	0.31088609
81	0x3ed7a617	0.42118904
82	0x3ef412f0	0.47670698
83	0x3dbe5b52	0.09294762
84	0xbeff101d	-0.4981698
85	0x3dd029c1	0.10164214
86	0x3efdfc13	0.4960638
87	0x3d74bab9	0.059748385
88	0x3dc2dd4d	0.09514866
89	0x3eef3cb4	0.46726
90	0x3ee2a00d	0.44262734
91	0x3efb22fa	0.49050122
92	0x3cd0e52c	0.025499903
93	0x3f094f60	0.5363674
94	0x3e8c3c14	0.27389586
95	0x3f65f42a	0.8982569
96	0x3ec424e3	0.38309392
97	0xbd73e9ad	-0.059549022
98	0xbf8305e7	-1.0236176
99	0x3e2d32f6	0.16913971
100	0x3f02258e	0.50838554
101	0x3eaddbb4	0.33956683
102	0xbe068005	-0.13134773
103	0x3dc47b74	0.09593859
104	0xbcdc2a32	-0.026875589
105	0x3efc4ef8	0.49278998
106	0xbf69636a	-0.9116732
107	0xbbd3e110	-0.0064660385
108	0xbec65e5b	-0.38743863
109	0x3e9728f5	0.29523435
110	0x3e1df763	0.15426402
111	0xbe734be1	-0.23759414
112	0xbd4ab9ae	-0.049493484
113	0x3f011d0e	0.5043496
114	0x3efe87c6	0.49712962
115	0xbe662ba1	-0.2247758
116	0x3ea634e1	0.32462218
117	0xbe8ca0c0	-0.27466393
118	0xbd8cfd8f	-0.068843
119	0xbf383287	-0.719521
120	0x3da26896	0.079301044
121	0xbeab9705	-0.33513656
122	0xbd24118f	-0.040055808
123	0x3e50e0e4	0.20398289
124	0x3d712b0a	0.058878936
125	0xbd5f4552	-0.05450947
126	0xbeaa8903	-0.33307657
127	0xbcbe1f91	-0.023208411
128	0xbf1b3cde	-0.6063975
129	0x3e6bdf05	0.23034294
130	0x3ea0355a	0.31290704
131	0xbe264883	-0.16238599
132	0xbd02bc24	-0.031917706
133	0x3e917185	0.2840692
134	0x3d2a88d5	0.0416344
135	0x3dcd05b8	0.100108564
136	0x3e574438	0.21022117
137	0xbea21dad	-0.31663266
138	0x3f11b891	0.5692225
139	0xbc5bdfb1	-0.013420031
140	0x3df0a553	0.11750283
141	0x3dea22f2	0.114324465
142	0x3ed57bf8	0.41696143
143	0x3ea4cce1	0.3218756
144	0xbc9077bf	-0.017635224
145	0x3e5bd1fa	0.21466818
146	0x3e2250d1	0.15851142
147	0xbee68fc0	-0.45031548
148	0xbc493fe1	-0.012283296
149	0x3e87944c	0.2648033
150	0x3e9dd7bb	0.30828652
151	0x3f0cae66	0.5495361
152	0x3dcff231	0.10153616
153	0xbf38a5e1	-0.7212811
154	0x3ddde2e0	0.108342886
155	0x3ea1d298	0.31605983
156	0xbe2c0569	-0.16798939
157	0xbe911ea8	-0.283437
158	0x3f20b624	0.62777925
159	0x3e929cf0	0.2863536
160	0x3ee067c9	0.43829182
161	0xbc92930f	-0.017892389
162	0x3f077c14	0.52923703
163	0x3e8570df	0.26062676
164	0x3f4aa5ec	0.79159427
165	0x3e410167	0.18848191
166	0xbdad4e36	-0.08462183
167	0xbf61f90e	-0.8827065
168	0xbe0ee47d	-0.13954349
169	0x3e9b37a1	0.3031588
170	0x3ebcb09e	0.36853498
171	0xbed20624	-0.4102031
172	0x3eef98ec	0.46796358
173	0xbd8e5c56	-0.069512054
174	0x3db81c08	0.089897215
175	0xbdc528ee	-0.09626947
176	0x3db98356	0.090582535
177	0xbe883d31	-0.26609185
178	0x3cc07354	0.023492493
179	0x3e60f98d	0.21970196
180	0xbec737fc	-0.389099
181	0x3e600031	0.21875073
182	0x3e9a54aa	0.3014272
183	0x3dcc6872	0.09980859
184	0xbef32742	-0.4749089
185	0x3d916753	0.07099786
186	0xbebb2c86	-0.36557406
187	0x3e955186	0.2916376
188	0xbf4aca7a	-0.79215205
189	0xbe3f14ad	-0.18660231
190	0xbf3ff50a	-0.74983275
191	0x3e86c691	0.2632337
192	0xbc6f6cb3	-0.014613318
193	0xbabd0c0d	-0.0014423147
194	0xbe54b45a	-0.20771924
195	0xbeb54921	-0.35407355
196	0x3d504764	0.050849333
197	0x3d8c86f4	0.06861678
198	0x3e40628e	0.18787596
199	0x3e964a9a	0.2935379
200	0x3d03bea9	0.03216425
201	0xbdf85e3c	-0.12127349
202	0xbed0a9fa	-0.40754682
203	0xbe8b3c74	-0.2719456
204	0x3d72eecd	0.05930977
205	0x3d842902	0.06453134
206	0x3e08b5a9	0.13350548
207	0x3e5d62eb	0.21619765
208	0x3e187649	0.14888872
209	0x3d2ced79	0.04221866
210	0xbe5ccf97	-0.21563564
211	0x3ef652ee	0.48110145
212	0x3e1f39d8	0.1554941
213	0x3d66dad8	0.05636105
214	0x3eae35e3	0.34025487
215	0x3da19bee	0.07891069
216	0x3e0097f4	0.12557966
217	0xbdd1f9d1	-0.10252727
218	0x3e1f3062	0.155458
219	0x3e4567d5	0.1927789
220	0x3e6705b5	0.22560771
221	0x3d8c4d3f	0.06850671
222	0x3c48bc7b	0.0122519685
223	0x3e4dfdf7	0.20116411
224	0x3ec40d8b	0.38291582
225	0x3daedc87	0.08538156
226	0x3ec06599	0.37577513
227	0x3d124f48	0.03572014
228	0xbe05439d	-0.13014074
229	0x3ecbc343	0.3979741
230	0x3f0563bf	0.52105325
231	0xbec4b9dd	-0.38423052
232	0x3e9100a7	0.2832081
233	0x3f016d17	0.5055708
234	0x3ec8947d	0.39175788
235	0xbf15afca	-0.5847136
236	0xbf4f8228	-0.8105798
237	0xbcc742a7	-0.024323775
238	0x3dbd65c1	0.09247924
239	0x3ec2a3bf	0.38015553
240	0xbe992bf8	-0.29916358
241	0x3ebf09fa	0.373123
242	0xbec83c50	-0.39108515
243	0x3e58a5e4	0.21157032
244	0xbe478c89	-0.19487204
245	0xbd16b9a8	-0.03679815
246	0x3dfae321	0.12250353
247	0x3e070e7c	0.13189119
248	0x3e19ca1d	0.15018506
249	0xbce815d6	-0.028330725
250	0xbe6b7df9	-0.22997274
251	0xbe424260	-0.18970633
252	0x3ecf6713	0.40508327
253	0xbeccc4d0	-0.39993906
254	0x3e687a1e	0.22702834
255	0xbe9ace64	-0.3023559

fc2.bias f4 [128]
0	0xbe9f2fc7	-0.3109114
1	0x3e21dc27	0.15806638
2	0xbe923687	-0.28557226
3	0x3e40b063	0.18817286
4	0xbe89876b	-0.26861128
5	0xbedeba01	-0.43501285
6	0x3dbd0cd5	0.09230963
7	0xbd5b3670	-0.053518713
8	0x3e81e086	0.2536661
9	0xbda0dfed	-0.078552105
10	0xbd82bc36	-0.06383555
11	0x3d5be0ce	0.053681187
12	0x3baefcee	0.00534021
13	0x3daf42f7	0.085576944
14	0x3e9de740	0.30840492
15	0xbe0a7623	-0.13521628
16	0x3c36fddc	0.011168923
17	0x3d862b19	0.06551189
18	0x3c6f0dbd	0.014590678
19	0xbea20c22	-0.31649882
20	0xbde44ec3	-0.11147835
21	0xbe7a95c9	-0.24471201
22	0x3e1c4ca2	0.15263608
23	0x3dad402d	0.08459506
24	0xbd8525c6	-0.06501345
25	0xbd38b6a7	-0.045096066
26	0xbe46b6aa	-0.19405618
27	0x3cf31ca5	0.029676745
28	0x3eb3b9c7	0.35102674
29	0x3de4aba9	0.11165554
30	0x3e19375a	0.14962521
31	0x3e54dbb1	0.2078693
32	0x3e20568b	0.15658014
33	0x3c3e297e	0.011606572
34	0x3e446d53	0.19182329
35	0x3e023a90	0.12717652
36	0xbd398a4d	-0.04529791
37	0xbe5ac3b4	-0.21363717
38	0x3d4bd82d	0.04976671
39	0x3dd41bd9	0.10356874
40	0x3e332f87	0.17498599
41	0x3dd9278a	0.106032446
42	0xbdaab1a1	-0.08334661
43	0x3e0f3e45	0.13988598
44	0x3ce010b8	0.027351722
45	0x3e00c8a3	0.12576537
46	0x3e2c84cc	0.16847533
47	0xbeb10f31	-0.34581903
48	0xbdda9140	-0.106722355
49	0xbec38fda	-0.38195688
50	0x3e9cbadb	0.3061131
51	0x3ebd0733	0.36919555
52	0xbe00de4c	-0.125848
53	0xbe845b8a	-0.2585109
54	0x3d34e1db	0.044160705
55	0x3c9c022d	0.019044006
56	0xbed324c4	-0.41238987
57	0x3d204291	0.039125983
58	0xbe205465	-0.15657194
59	0x3ecca735	0.3997132
60	0xbf0a9408	-0.5413213
61	0xbd84f5bc	-0.064921826
62	0x3da23274	0.079197794
63	0xbe3e931e	-0.18610808
64	0x3d4c6e11	0.049909655
65	0x3e0b510e	0.13605139
66	0x3eac5edc	0.33666122
67	0xbed0a79d	-0.4075288
68	0xbdc63714	-0.09678474
69	0x3ec2af7b	0.38024506
70	0x3e8cd249	0.27504185
71	0xbd4b4280	-0.049623966
72	0x3e0b9fe8	0.13635218
73	0xbd9bb793	-0.076033734
74	0xbe3756c0	-0.17904186
75	0x3e49805f	0.19677876
76	0xbde8b361	-0.11362339
77	0xbddec8b9	-0.108781286
78	0xbecec400	-0.4038391
79	0x3d47ba29	0.04876152
80	0xbe45bed5	-0.19311078
81	0xbd033434	-0.032032207
82	0xbc98d987	-0.018658413
83	0x3e07af6f	0.13250516
84	0x3e423d01	0.18968584
85	0x3e293bd3	0.16526727
86	0x3d682357	0.056674328
87	0x3a515972	0.00079860457
88	0x3e946f36	0.28991097
89	0x3dc30d64	0.095240384
90	0x3e23b923	0.15988593
91	0x3c05dc5b	0.008170213
92	0xbba77bae	-0.0051111793
93	0xbeccbb76	-0.3998677
94	0x3ceabb39	0.028653728
95	0x3dcf6145	0.101259746
96	0xbe9ff6db	-0.31243023
97	0x3eafcadd	0.3433446
98	0x3e784ddd	0.24248452
99	0x3e70d412	0.23518398
100	0xbd42b492	-0.047535487
101	0x3db09a22	0.086231485
102	0xbe0b906b	-0.1362931
103	0x3e12c87f	0.14334296
104	0xbe5e75d8	-0.21724641
105	0xbd8a2025	-0.06744412
106	0xbdcf3ec9	-0.10119397
107	0xbdc2edf4	-0.09518042
108	0x3e0b76c4	0.13619524
109	0x3dbdcbdf	0.09267401
110	0xbdc2c466	-0.09510116
111	0xbda6a2df	-0.08136534
112	0x3c37eef9	0.011226409
113	0x3c05b829	0.008161583
114	0x3c29b52b	0.010358135
115	0x3eaee0fd	0.34156027
116	0x3d1582d1	0.03650171
117	0x3e89106c	0.2677034
118	0x3e1ec376	0.1550425
119	0x3e18dc21	0.14927723
120	0x3e4e048e	0.20118925
121	0xbe942f9d	-0.28942576
122	0x3e64aeb6	0.22332272
123	0xbe57b130	-0.21063685
124	0x3e5a08c0	0.212924
125	0x3f073134	0.52809453
126	0x3e4e6bf3	0.20158367
127	0xbe84d2f9	-0.2594221

fc3.weight f4 [5, 192]
0	0x3f9bb8a8	1.2165728
1	0x3fe3a9f8	1.7786245
2	0x3f7c7b7c	0.9862592
3	0x3fc57a8b	1.5428022
4	0xbed62b33	-0.41829833
5	0xbedbe7b5	-0.42950216
6	0xc11e3ab0	-9.889328
7	0x3e1b752d	0.15181418
8	0xbfc6700d	-1.5502945
9	0x3f1db48a	0.61603606
10	0x3fe1df7c	1.7646327
11	0xbe1da43a	-0.15394679
12	0x3ffbf687	1.9684609
13	0xbfce6b9a	-1.6126587
14	0x3f00602b	0.5014674
15	0x3fcefa71	1.6170179
16	0xc0146630	-2.318737
17	0x3e81a434	0.2532059
18	0xc080365c	-4.0066357
19	0xbe63d2fe	-0.22248456
20	0x3e3a979a	0.18221894
21	0xbf8c6bf0	-1.097044
22	0xbf3ac375	-0.72954494
23	0xbfd031d0	-1.6265202
24	0xbf979c95	-1.184466
25	0x408c6477	4.387264
26	0xbfb63123	-1.4233745
27	0xbf30eb3d	-0.69108945
28	0x4051d6e8	3.2787418
29	0x409005a0	4.5006866
30	0x404e5c12	3.2243695
31	0xbf3d3050	-0.73901844
32	0x3f328c5a	0.6974541
33	0xc122eaac	-10.182293
34	0xbfde9119	-1.738803
35	0x3e00bc8f	0.1257193
36	0xbf230891	-0.63684946
37	0xc0bde126	-5.933734
38	0xbd869dda	-0.065730765
39	0x3fd73b3d	1.6814953
40	0xc0fe9c64	-7.9565907
41	0x3fa4ba86	1.2869422
42	0x3e5e5c67	0.21714936
43	0xbf847f21	-1.0351297
44	0x40a7f7e8	5.249012
45	0xbfd45e16	-1.6591213
46	0xbf4723ec	-0.7778919
47	0x3f0852fe	0.53251636
48	0x4015c72e	2.340282
49	0x40772f4e	3.8622622
50	0xc0cddf5a	-6.4335146
51	0x3e83f1ad	0.2577032
52	0x3fca38a6	1.5798538
53	0xc0847e0e	-4.1403875
54	0xc019860c	-2.3988066
55	0xbf2e36c1	-0.680523
56	0xc0757f62	-3.8358998
57	0x3fd4f41a	1.6636994
58	0x3f1daa78	0.6158824
59	0xbf2fa2a5	-0.6860755
60	0x40682f87	3.6279008
61	0xc00f99bf	-2.243759
62	0xbfff9e7c	-1.997024
63	0xc0e5a72a	-7.176656
64	0xbef65106	-0.4810869
65	0xbf867e81	-1.0507356
66	0x3fe01b09	1.750825
67	0xbfa31d72	-1.2743361
68	0xbece9985	-0.403515
69	0xbf378bef	-0.71697897
70	0xbf5f84a0	-0.87311745
71	0xbd537c4a	-0.051632203
72	0xbf46baf0	-0.77628994
73	0xbeb35afb	-0.3503035
74	0xbc0c9031	-0.0085793
75	0x3e25e564	0.16200787
76	0x3e81d0c6	0.25354594
77	0xbe265873	-0.16244678
78	0x3fa0a263	1.2549556
79	0x3f55f0dc	0.8357065
80	0xbf4469e8	-0.767241
81	0xbf367eda	-0.7128731
82	0x3f219796	0.63121927
83	0xbf0827b7	-0.531856
84	0xbd8361b2	-0.06415118
85	0xbf121f51	-0.57079035
86	0xbf2ea82d	-0.68225366
87	0xbf972dad	-1.1810814
88	0x3f53f165	0.82790214
89	0x3efd8032	0.49511868
90	0x3f4ee557	0.80818695
91	0xbf8dfd1a	-1.1092865
92	0x3f3512be	0.70731723
93	0x3f42c5ab	0.7608287
94	0xc0106996	-2.2564445
95	0xbdd0cc7e	-0.10195254
96	0xbf746e35	-0.9548066
97	0x3fba3945	1.4548727
98	0x3e8a5fa1	0.27026084
99	0xbf1382f6	-0.57621706
100	0x3fc33d9a	1.5253174
101	0xbf4d49ed	-0.80190927
102	0x3f657707	0.89634746
103	0x3fbe9010	1.4887714
104	0x3f0b3533	0.5437805
105	0x3e27ec09	0.16398634
106	0x3d107e50	0.03527671
107	0xbf3c9695	-0.7366727
108	0xbed97ab5	-0.4247643
109	0xbf9db87b	-1.2321924
110	0xbfe79aae	-1.809408
111	0xbe8da616	-0.27665776
112	0x3e2a55f4	0.16634351
113	0xbe8a5047	-0.27014372
114	0xbf6814cb	-0.9065673
115	0xbf57573b	-0.8411748
116	0x3d099750	0.03359157
117	0xbda8233a	-0.08209844
118	0xbe0eccc1	-0.13945295
119	0x3fa0b941	1.2556535
120	0x3f80b7fd	1.0056149
121	0x3c00b42b	0.007855455
122	0x3f276cc7	0.65400356
123	0xbee8518f	-0.45374724
124	0xbed6eefd	-0.4197921
125	0xbeaf9866	-0.34295958
126	0xbd86a511	-0.06574453
127	0x3f451150	0.7697954
128	0x3fbb2284	1.4619908
129	0x3d877e79	0.066159196
130	0xc01fb432	-2.4953732
131	0xbf48e56b	-0.78475064
132	0x3e1e3946	0.15451536
133	0xbf2f15e7	-0.68392795
134	0xbe15d262	-0.14631036
135	0x3f35ca8e	0.710122
136	0x3f285789	0.6575857
137	0x3c06fd71	0.008239136
138	0xbec9a577	-0.39384052
139	0xbfec8cf1	-1.8480512
140	0xbc4ccf7d	-0.012500641
141	0x3e35b298	0.1774391
142	0x3e0a39e8	0.13498652
143	0x3f23e974	0.64028096
144	0x3f6323cb	0.8872649
145	0xbcbe76df	-0.023250042
146	0x3e8eb0ab	0.27869162
147	0x3f4b9fe9	0.7954088
148	0x3f600e11	0.87521464
149	0xbfa58c05	-1.2933356
150	0xbfcf9e9d	-1.622028
151	0xbf8d9824	-1.1062055
152	0x3d682b2b	0.056681793
153	0xbf768a1a	-0.96304476
154	0xbfb970da	-1.4487565
155	0x3fd830d5	1.6889902
156	0xbf51b7de	-0.81921184
157	0xbf0f9ee9	-0.5610185
158	0x3efee735	0.49785772
159	0x3e1bf247	0.1522914
160	0xbebc0a24	-0.36726487
161	0xbea85c58	-0.32882953
162	0x3f859b32	1.0437987
163	0xbe32b730	-0.17452693
164	0x3e9d222b	0.3069013
165	0xbf071f9c	-0.5278261
166	0x3d01574b	0.03157739
167	0xbe3f99d5	-0.18711026
168	0x3efd23c4	0.4944135
169	0x3fe59536	1.793616
170	0x3eda598f	0.42646453
171	0xbe8c2d3f	-0.2737827
172	0x3f15a36c	0.58452487
173	0xbe2abf39	-0.16674508
174	0xc0129bb3	-2.2907531
175	0xbda25971	-0.07927216
176	0x3f0b1162	0.543234
177	0xbf24eea4	-0.64426637
178	0x3f775ca0	0.9662571
179	0x3e81eee8	0.25377584
180	0xbf618eb1	-0.88108355
181	0x3d75cff0	0.060012758
182	0xbf051795	-0.5198911
183	0xc06adc50	-3.6696968
184	0xbdf98f79	-0.12185568
185	0x3ff4a16c	1.9111762
186	0x3f79134b	0.97295064
187	0xbf3d78c6	-0.7401241
188	0xbf30be60	-0.6904049
189	0xbfcf0d21	-1.6175882
190	0xbffb728c	-1.9644332
191	0x3eb37a90	0.35054445
192	0xbf3cee1d	-0.7380083
193	0xbe7f08e3	-0.24905734
194	0xbe25b386	-0.16181764
195	0xbf97dfed	-1.1865212
196	0x3f0824ff	0.5318145
197	0x3f3554e4	0.7083266
198	0x411d459c	9.829494
199	0x3e92ef59	0.28698233
200	0x4000e59a	2.0140138
201	0x3dcf3ae8	0.10118657
202	0xbfdd1859	-1.7273055
203	0x3dbb0222	0.09131266
204	0xbf8daca8	-1.1068316
205	0x3ff3f6ad	1.9059654
206	0xbeee29fe	-0.46516412
207	0xbfb6a0af	-1.4267787
208	0x3ffd7cc9	1.9803706
209	0x3f473e91	0.77829844
210	0x401b79a1	2.4292986
211	0x3e1f29fd	0.15543361
212	0x3ec67c32	0.38766629
213	0x3fd9db08	1.7019968
214	0x3f663ffb	0.89941376
215	0x400098c2	2.0093236
216	0x3f72c664	0.9483397
217	0xc022646e	-2.5373797
218	0x3fc7083a	1.5549386
219	0x3f5b7c77	0.85736793
220	0xc01aeec4	-2.420823
221	0xc021e964	-2.52987
222	0xc032cd3a	-2.793776
223	0x3f05fae9	0.52335984
224	0xbf1b803c	-0.60742545
225	0x41405e84	12.023075
226	0x3ff33def	1.9003276
227	0x3d543513	0.051808428
228	0x3e9de3b1	0.30837777
229	0x40b34e17	5.6032825
230	0x3d182274	0.037142232
231	0x3d4f495d	0.050607074
232	0x40ee4c7c	7.4468365
233	0xbf2bee4c	-0.6716049
234	0xbe36fca5	-0.17869814
235	0x3eb2a684	0.34892666
236	0xc08fa675	-4.4890695
237	0x3fc87cd7	1.5663098
238	0x3f23fcf2	0.6405784
239	0xbebed67b	-0.3727301
240	0xbfc9b4fa	-1.5758355
241	0xc0197e7f	-2.3983457
242	0x40b3c0c3	5.6172805
243	0xbd5d2492	-0.053989954
244	0xc02e360d	-2.722049
245	0x40952624	4.660906
246	0x4013b702	2.308045
247	0x3f489da5	0.78365546
248	0x40a6e1cd	5.2150636
249	0xbfa1b563	-1.263348
250	0xbe27ca98	-0.16385877
251	0x3f4ae5ac	0.792567
252	0xc021b221	-2.5264971
253	0x40154bb4	2.3327456
254	0x4031cac6	2.7780013
255	0x40b6e7a1	5.715775

fc3.bias f4 [5]
0	0xc07a68c7	-3.912645
1	0x404b11e0	3.172966
2	0x3e26a928	0.16275465
3	0xbf0411c5	-0.51589614
4	0xc068175b	-3.6264255

fc4.weight f4 [4, 128]
0	0xbf2fa792	-0.68615067
1	0xbf196e69	-0.599341
2	0x3cd1c002	0.025604252
3	0xbe634417	-0.22193943
4	0xbea0ce5a	-0.31407434
5	0xbf0526f0	-0.5201254
6	0x3e7e1e9b	0.24816363
7	0xbbd44712	-0.006478199
8	0x3ea3b648	0.31975007
9	0xbe22ba6a	-0.15891424
10	0xbd494a37	-0.049143042
11	0xbe8c23fa	-0.27371198
12	0xbd422602	-0.04739953
13	0x3f22b7e5	0.6356185
14	0x3fcf41f9	1.6192008
15	0xbf295202	-0.6614076
16	0xbe801b7d	-0.25020972
17	0xbe816e9e	-0.25279707
18	0xbe9114b3	-0.28336105
19	0x3edd824c	0.4326347
20	0x3c386e99	0.011256837
21	0x3f38e1ed	0.72219735
22	0xbf754478	-0.958076
23	0xbe9516d0	-0.29118967
24	0xbeb60a43	-0.35554704
25	0xbec6024e	-0.38673633
26	0xbedc28bc	-0.42999828
27	0xbfb3953d	-1.4029919
28	0x3f7686ad	0.9629925
29	0x3f4d481b	0.8018815
30	0x3f3dadd5	0.7409337
31	0x3f0d9cf0	0.5531759
32	0x3d3aa9a3	0.045571934
33	0xbf2562ab	-0.6460368
34	0xbf631ac3	-0.8871271
35	0xbe758e04	-0.23979956
36	0xbf12d956	-0.5736288
37	0xbf452871	-0.77014834
38	0x3ee08592	0.43851906
39	0x3e4ec839	0.20193566
40	0x3f4b8af3	0.79508895
41	0xbf3bb1eb	-0.73318356
42	0x3b60c168	0.0034294967
43	0xbe4599e3	-0.19296984
44	0xbf367391	-0.7127009
45	0xbf485e22	-0.78268635
46	0xbea8b2e0	-0.3294897
47	0xbf17c186	-0.5927967
48	0xbf1546bc	-0.5831106
49	0xbf586abd	-0.8453787
50	0x3f2990cb	0.6623656
51	0x3f47a516	0.77986276
52	0x3d079e71	0.033110086
53	0x3e92ef7e	0.28698343
54	0x3e9e8677	0.30961964
55	0x3f12f6c5	0.5740779
56	0xbf226970	-0.63442135
57	0x3d9b1db4	0.07574025
58	0x3eb8539a	0.36001283
59	0x3efc3447	0.49258634
60	0xbf1dec9e	-0.61689174
61	0xbeac0a47	-0.3360159
62	0xbc06e49f	-0.008233218
63	0xbf05cdd4	-0.52267194
64	0x3fad1735	1.3522707
65	0xbe7a6f87	-0.24456607
66	0x3f6dc49a	0.92878115
67	0xbef3e29f	-0.47633836
68	0xbed7b573	-0.42130622
69	0x3eda0815	0.4258429
70	0x3fa43905	1.2829901
71	0xbedff3bf	-0.4374065
72	0xbe3f5d24	-0.18687874
73	0xbd8e8e70	-0.069607615
74	0xbf4d0fc7	-0.801022
75	0xbe6b9529	-0.23006119
76	0x3d6cda25	0.057825226
77	0xbe8be4ce	-0.27323002
78	0xbf20cb04	-0.6280978
79	0x3f8aa13d	1.0830456
80	0xbf4f7d14	-0.8105023
81	0xbd837998	-0.064196765
82	0xbe8d067e	-0.27544016
83	0x3f841147	1.0317773
84	0xbf49f154	-0.7888386
85	0xbea9db50	-0.33175135
86	0x3cd5f27b	0.0261166
87	0xbeddda85	-0.4333078
88	0x3e8940b6	0.26807183
89	0xbeaa4e48	-0.3326285
90	0xbea3bfe9	-0.31982353
91	0xbf054977	-0.52065223
92	0xbe98ffa1	-0.2988253
93	0xbf1408d1	-0.5782595
94	0xbe71db36	-0.23618779
95	0xbf147208	-0.579865
96	0xbf20e6fc	-0.62852454
97	0x3f4e95fc	0.8069761
98	0x3f805bb6	1.0027988
99	0xbf55207a	-0.8325268
100	0xbef7077d	-0.482479
101	0xbe849c74	-0.25900614
102	0xbd98c6c7	-0.07459789
103	0xbe8b5e5d	-0.2722043
104	0x3f2455bb	0.64193314
105	0xbf4394de	-0.7639903
106	0xbe4e4b1d	-0.20145841
107	0xbe0f1bc8	-0.13975441
108	0x3ff57903	1.9177555
109	0x3f19c75a	0.6006981
110	0x3fbd461c	1.4787021
111	0x3cd3b362	0.025842372
112	0xbe558459	-0.20851268
113	0xbf062739	-0.524036
114	0xbee0eb74	-0.43929636
115	0x3ebea8a5	0.3723804
116	0xbe81fce7	-0.25388262
117	0x3ef5d3da	0.48013192
118	0xbff24d10	-1.8929768
119	0x3ef84942	0.4849339
120	0xbf812047	-1.0087975
121	0x4035cc01	2.8405764
122	0xbe971aa0	-0.295125
123	0xbea2ac3a	-0.31772023
124	0xbe6fc732	-0.2341583
125	0x3fa96cc8	1.3236322
126	0xbe9f717a	-0.31141263
127	0x3f1a3236	0.60232866
128	0xbe83ffa2	-0.2578097
129	0xbe7d8838	-0.24758995
130	0xbdd891a0	-0.10574651
131	0xbe3656a0	-0.17806482
132	0x3e49c727	0.19704877
133	0xbecf1f88	-0.40453744
134	0x3eb2bff9	0.3491209
135	0xbc9afa20	-0.018918097
136	0x3d4fd3f6	0.05073925
137	0xbf0f0bce	-0.5587739
138	0xbf74939c	-0.95537734
139	0xbe9071b7	-0.28211758
140	0x3e9691ee	0.2940821
141	0x3eba3a54	0.36372626
142	0x3f89b721	1.0759012
143	0xbf14f555	-0.58186847
144	0xbea24251	-0.3169122
145	0xbeaf3412	-0.34219414
146	0xbed70bc7	-0.42001173
147	0xbf045e26	-0.5170616
148	0xbcc0fb52	-0.023557339
149	0x3e7829de	0.24234721
150	0xbf321950	-0.69569874
151	0xbe84f784	-0.2597009
152	0xbf2f2d07	-0.6842808
153	0xbe452424	-0.19252068
154	0xbf160df6	-0.5861505
155	0xbf9af939	-1.2107307
156	0x3f48921a	0.78347933
157	0x3fc9f0be	1.5776594
158	0x3f9a7d79	1.2069541
159	0x3e599117	0.21246754
160	0x3cee5442	0.029092912
161	0xbf09f2b7	-0.5388598
162	0xbf01ecb6	-0.5075182
163	0xbe3ccf16	-0.18438372
164	0xbf397b61	-0.72453886
165	0xbe8560ce	-0.2605042
166	0x3e847796	0.25872487
167	0x3e2385d1	0.15969016
168	0x3fbef6f4	1.4919114
169	0xbf13ad49	-0.5768629
170	0xbd9357d1	-0.07194484
171	0xbe713c7c	-0.23558229
172	0xbf378909	-0.71693474
173	0xbeba702f	-0.36413714
174	0xbecdf65b	-0.40227017
175	0x3e7f9d07	0.24962245
176	0xbf0e8f30	-0.55687237
177	0xbf09ea34	-0.5387299
178	0x3f5b0f01	0.8556977
179	0x3f61cb21	0.88200575
180	0xbd06245a	-0.03274951
181	0x3d1a27c0	0.037635565
182	0x3e4c5889	0.19955648
183	0x3f8395bd	1.0280071
184	0xbf1184f3	-0.5684349
185	0x3d8d2cdf	0.06893324
186	0x3d9aed24	0.07564762
187	0x3ea9266d	0.3303713
188	0xbe489799	-0.1958908
189	0xbeea79ac	-0.45795953
190	0xbd4f57f2	-0.05062098
191	0xbf5c9227	-0.8616051
192	0x3e63de29	0.22252716
193	0xbeaa69bf	-0.33283803
194	0x3fac5840	1.3464432
195	0xbf1cdee5	-0.6127761
196	0xbf184a6d	-0.59488565
197	0x3ec929e8	0.39289784
198	0x3f9debc2	1.2337573
199	0xbef23244	-0.47303975
200	0xbf6c1f7b	-0.92235535
201	0xbe865457	-0.2623622
202	0xbe813e7d	-0.25242987
203	0xbef41ceb	-0.47678313
204	0x3d55e31e	0.05221855
205	0xbeb9c0a6	-0.36279792
206	0xbf12586b	-0.57166165
207	0x3ec1cf5f	0.37853524
208	0xbed9c95c	-0.42536438
209	0x3d0134b0	0.031544387
210	0xbe88d48b	-0.26724657
211	0x3eaea94e	0.34113544
212	0xbf53d0fc	-0.8274076
213	0xbebbaa4c	-0.36653364
214	0x3e72fa7f	0.23728369
215	0xbd334d10	-0.043774664
216	0x3ee3f351	0.44521573
217	0xbecee0c7	-0.40405867
218	0xbebb50b8	-0.3658502
219	0xbebe2525	-0.37137714
220	0xbeae0c4f	-0.33993766
221	0xbec6216a	-0.38697368
222	0xbf268dfb	-0.65060395
223	0xbf2ccbdb	-0.6749856
224	0x3ccf28d0	0.025288016
225	0x3f2b33b8	0.6687579
226	0x3eef9253	0.46791324
227	0xbeea9744	-0.45818532
228	0xbf0608ce	-0.52357185
229	0xbe832a25	-0.2561809
230	0xbc1a5a77	-0.009420983
231	0xbeb2b112	-0.3490072
232	0x3db26601	0.08710862
233	0xbf31d56e	-0.6946629
234	0xbed303ad	-0.41213742
235	0xbfb95f1a	-1.4482148
236	0x3fee4aad	1.8616539
237	0x3ebe1344	0.37124074
238	0x3f9d3e24	1.2284589
239	0xbd25e6c9	-0.040503297
240	0xbe4e0b19	-0.20121421
241	0x3d2ce6f0	0.042212427
242	0xbcaad8d1	-0.02085534
243	0x3ed6c32c	0.4194578
244	0xbe941cd5	-0.28928247
245	0x3f6379e3	0.8885786
246	0xbfacad34	-1.3490357
247	0x3e843c94	0.25827467
248	0xbee450b8	-0.44592834
249	0x40069ab4	2.1031923
250	0xbf53c329	-0.82719666
251	0xbeb5c126	-0.35498923
252	0xbea3592c	-0.3190397
253	0x3fcc5695	1.5963923
254	0xbe7bbc79	-0.24583615
255	0xbf23de0e	-0.64010704

fc4.bias f4 [4]
0	0x3d87d8ee	0.06633173
1	0x3e18a62d	0.14907141
2	0x3ead63fa	0.3386534
3	0xbd95096e	-0.07277189
