checkpoint2.pth (torch_old, 23734 bytes, 8 tensors)

fc1.weight f4 [64, 8]
0	0xbdec84ff	-0.115488045
1	0x3da4e21d	0.0805094
2	0xbfabffb9	-1.3437415
3	0xbf1f8ead	-0.6232708
4	0x3e9c09ab	0.30476126
5	0x3da5b7f9	0.080917306
6	0x3f112b75	0.56706935
7	0xbe9f5c2b	-0.31125006
8	0x3da4e1ce	0.08050881
9	0x3d3971fc	0.04527472
10	0xbeb917cd	-0.3615097
11	0xbf531691	-0.8245631
12	0xbee49ca3	-0.44650754
13	0xbf0097fa	-0.502319
14	0xbc8f8966	-0.017521571
15	0x3ea25ae6	0.31709975
16	0x3eea7c13	0.45797786
17	0x3c4bee96	0.01244702
18	0x3e0873af	0.1332538
19	0xbdbc884d	-0.09205685
20	0xbdff6a39	-0.12471432
21	0x3d800bb5	0.06252233
22	0x3ed05a22	0.40693766
23	0x3f5a749e	0.85334194
24	0x3edcbde7	0.43113634
25	0xbe437afe	-0.19089887
26	0x3f767bb0	0.9628248
27	0xbd4185b8	-0.047246665
28	0xbf89dbbc	-1.0770183
29	0xbd951000	-0.072784424
30	0xbdc122b2	-0.09430446
31	0x3f10b6c7	0.56528896
32	0xbc5196fa	-0.012792343
33	0xbfcb9fa6	-1.5908096
34	0x3decc795	0.11561505
35	0xbec5f6ba	-0.386648
36	0xbcbba134	-0.022904016
37	0x3e7ce73d	0.24697585
38	0x3ddbc40b	0.107307516
39	0xbe267688	-0.16256154
40	0x3f32b6c1	0.6981011
41	0xbde2a4ae	-0.110665664
42	0x3f4174d7	0.7556891
43	0xbfd96255	-1.6983134
44	0x3e07288e	0.13199064
45	0xbd64990f	-0.05581003
46	0x3eb427d7	0.35186645
47	0x3dbc4c02	0.09194185
48	0x3df65caf	0.12029397
49	0x3d878511	0.06617177
50	0x3deac076	0.1146249
51	0xbe9e3280	-0.30897903
52	0xbf942638	-1.1574163
53	0x3d08ba68	0.033380896
54	0x3f160167	0.5859589
55	0xbf1f5eec	-0.62254214
56	0x3f4a91ef	0.79128927
57	0xbfd8eb9e	-1.6946905
58	0x3dab7ccc	0.083734125
59	0xbf743f27	-0.9540886
60	0xbf3c9b38	-0.73674345
61	0x3b953905	0.0045539164
62	0xbd2f83e0	-0.042850375
63	0xbc3760da	-0.011192525
64	0x3f5e0904	0.86732507
65	0xbfc170e4	-1.5112576
66	0x3f3775c4	0.7166407
67	0xbf3c87c1	-0.73644644
68	0x3e61623f	0.22010134
69	0x3e10c4b9	0.14137544
70	0x3d5f6bb0	0.05454606
71	0x3cf52527	0.029924942
72	0x3d645984	0.05574943
73	0x3f05717f	0.52126306
74	0x3d11e209	0.035615955
75	0x3ff995b2	1.9498808
76	0xbf9dd9eb	-1.2332128
77	0xbf3878e2	-0.7205945
78	0xbea20a0c	-0.3164829
79	0xbe27a4bf	-0.1637144
80	0xbdec200e	-0.115295514
81	0x3bbf3433	0.00583508
82	0x3f8bc425	1.0919234
83	0xbfcbb72b	-1.5915273
84	0x3e9d56b5	0.30730215
85	0x3e1eea22	0.15519002
86	0x3e376ad0	0.1791184
87	0xbe96024e	-0.29298633
88	0x3ea30f7b	0.31847748
89	0xc00b1ed8	-2.1737576
90	0xbf4d5474	-0.8020699
91	0xbecd9b22	-0.4015742
92	0x3f236162	0.6382047
93	0x3f1f838c	0.623101
94	0xbf4bb88d	-0.7957848
95	0xbf07dc32	-0.53070366
96	0x3f8ac409	1.0841075
97	0x3ed310dd	0.41223803
98	0xbfbb2160	-1.461956
99	0xbe0bace8	-0.13640177
100	0x3ea13b50	0.31490564
101	0x3e90f0b2	0.28308636
102	0xbf2efdc9	-0.68355995
103	0xbe21be63	-0.15795283
104	0xbfbf2db8	-1.4935827
105	0xbfa6cbdd	-1.3030964
106	0x3e0a7f27	0.13525067
107	0xbf117cab	-0.56830853
108	0xbecd6f7a	-0.40124112
109	0xbe09cf91	-0.13458087
110	0x3ed87241	0.4227467
111	0x3ea7db6a	0.32784587
112	0xbe312912	-0.17300823
113	0x3e171092	0.14752415
114	0x3edb15a8	0.4278996
115	0xbee82387	-0.45339605
116	0x3ea5632d	0.32302228
117	0x3e219a66	0.15781555
118	0x3e5c10db	0.21490805
119	0x3de36f86	0.11105256
120	0xbd9b00d6	-0.07568519
121	0x3eb8502f	0.35998675
122	0xbef938ae	-0.48676056
123	0x3e332852	0.1749585
124	0xbe6747a0	-0.22585917
125	0xbf72e5da	-0.94881976
126	0xbf350055	-0.7070363
127	0xbf5ce778	-0.86290693
128	0xbeb3f7c6	-0.35149974
129	0xc00c456b	-2.191737
130	0xbeea2100	-0.45728302
131	0xbf34614e	-0.70460975
132	0xbed15b59	-0.40890005
133	0xbe8dc7bf	-0.27691457
134	0x3f0241a8	0.50881433
135	0xbe3b26aa	-0.18276468
136	0xbdb8e941	-0.09028865
137	0xbdba7c98	-0.091057956
138	0xbe8004d9	-0.25003698
139	0xbe298a82	-0.16556743
140	0xbf7b6ad7	-0.982099
141	0x3f17bbe0	0.5927105
142	0x3f2d7f0e	0.67771995
143	0xbed09ee7	-0.40746233
144	0xbddf5bb3	-0.10906162
145	0x3d813af2	0.06310071
146	0xbe4c01f8	-0.19922626
147	0xbcf9cc01	-0.030492784
148	0xbfb0251e	-1.3761327
149	0xbf7a8a17	-0.9786696
150	0xbfbae676	-1.4601581
151	0x3e60f669	0.21968998
152	0xbd476d80	-0.04868841
153	0x3f2483da	0.6426369
154	0x3e8d15a8	0.27555585
155	0xbfbcfa0c	-1.4763808
156	0x3f2493ab	0.64287823
157	0xbf2caf1a	-0.67454684
158	0x3e653e7d	0.22387119
159	0xbedc5911	-0.43036702
160	0xbf0dae21	-0.55343825
161	0xc00781e8	-2.1173038
162	0xbe4844b3	-0.19557457
163	0xbf269d7f	-0.6508407
164	0xbea7939f	-0.32729813
165	0xbd93f40c	-0.072242826
166	0x3e0851f3	0.13312511
167	0x3e417df1	0.18895699
168	0xbe87aa32	-0.26497036
169	0xbfa40621	-1.281437
170	0x3fbb79e0	1.4646568
171	0xbf43ef7f	-0.7653732
172	0xbf0a5932	-0.5404235
173	0x3f1038b5	0.5633653
174	0xbd8991f2	-0.0671729
175	0x3e8d231a	0.27565843
176	0xbe9391a1	-0.28822044
177	0xc007deae	-2.1229663
178	0x3e840352	0.25783783
179	0xbfab0d90	-1.3363514
180	0x3f15b430	0.5847807
181	0x3dc23657	0.09483021
182	0x3f094da1	0.5363408
183	0x3c0f296a	0.008737901
184	0x3d2b6f9b	0.041854482
185	0xbf16b9cf	-0.5887727
186	0xbf04c7f7	-0.5186762
187	0x3ec569d7	0.38557312
188	0xbee0371f	-0.43792054
189	0xbf1da160	-0.61574364
190	0x3e9d478c	0.30718648
191	0x3ee69f9b	0.45043644
192	0xbfc48447	-1.5352868
193	0xbfe2ec6a	-1.7728398
194	0x3e678cf3	0.22612362
195	0xbf4bfaa6	-0.79679334
196	0xbe5e3d27	-0.21703015
197	0x3dda2270	0.106511
198	0xbe74af83	-0.23895077
199	0xbf2174a9	-0.63068634
200	0x3e246af1	0.1605642
201	0xbf3b5451	-0.7317553
202	0xbfa2afb1	-1.2709867
203	0xbf530074	-0.82422566
204	0xbea26bcd	-0.3172287
205	0xbe91d67d	-0.28483954
206	0x3ec20a48	0.3789847
207	0x3f173fac	0.5908153
208	0x3e9a5b03	0.3014756
209	0xbfaa2762	-1.3293269
210	0x3f8d5139	1.1040412
211	0xbf2fea43	-0.6871683
212	0xbef060f5	-0.46948972
213	0x3e3a19e0	0.18173933
214	0x3e03f4f6	0.12886414
215	0xbd8e4c6e	-0.069481716
216	0xbe96e773	-0.29473457
217	0xbfe09285	-1.7544714
218	0x3ec32488	0.3811381
219	0xbdec15a5	-0.11527566
220	0x3d8db7bd	0.06919811
221	0x3ece5671	0.40300325
222	0xbe03daa7	-0.12876378
223	0xbe29bb63	-0.16575389
224	0xbeff03d2	-0.49807602
225	0x3f3166f4	0.6929772
226	0xc03c1bf8	-2.939207
227	0x3ecf0f91	0.40441564
228	0x3e503e68	0.20336306
229	0xbdd3843d	-0.10327957
230	0x3edfba56	0.4369685
231	0xbd89a7a0	-0.06721425
232	0xbe84c281	-0.25929645
233	0x3f9d4a59	1.2288314
234	0x3f542405	0.8286746
235	0xbfb91bf5	-1.4461657
236	0x3f45c2fb	0.7725064
237	0xbecfc63c	-0.40580928
238	0xbc3ec9b6	-0.011644771
239	0xbe8d3629	-0.27580383
240	0x3d5a1c32	0.053249545
241	0x3f44b273	0.7683479
242	0x3ea39db5	0.31956258
243	0x3f0ca6ad	0.5494183
244	0x3f81f4d0	1.0152836
245	0xbf56fee5	-0.8398269
246	0x3efba163	0.49146566
247	0xbd9fc3ca	-0.07801016
248	0xbf94d6c8	-1.1628046
249	0xbfea762a	-1.8317311
250	0x3f8481f8	1.0352163
251	0xbe1e2147	-0.15442382
252	0x3e16cf04	0.14727408
253	0x3d071276	0.03297659
254	0xbf61fc97	-0.88276047
255	0xbc0ff526	-0.008786475

fc1.bias f4 [64]
0	0xbf0f90d5	-0.5608037
1	0x3e43f3a2	0.19135907
2	0x3baddb5c	0.0053056907
3	0xbee783aa	-0.4521764
4	0xbf7aa449	-0.9790693
5	0xbe67eca5	-0.22648866
6	0x3c69cd2c	0.014270108
7	0xbdeace4b	-0.114651285
8	0x3de2ead8	0.11079949
9	0x3ef6f764	0.4823562
10	0x3f444586	0.76668584
11	0xbe8fbc0b	-0.28073153
12	0xbea9ec41	-0.3318806
13	0xbea6be39	-0.32567003
14	0x3f628b01	0.88493353
15	0xbd7f1a49	-0.062280927
16	0xbf00d961	-0.50331694
17	0xbeffed07	-0.49985525
18	0xbd0344d3	-0.032048058
19	0x3f2c6c8d	0.67353135
20	0xbf275b05	-0.6537326
21	0xbee10a68	-0.43953252
22	0xbf0e8938	-0.5567813
23	0xbf316454	-0.69293714
24	0xba319f14	-0.00067757186
25	0xbf260cfe	-0.64863575
26	0xbee32433	-0.44363555
27	0xbf39dc87	-0.72602123
28	0x3e8320c6	0.25610942
29	0x3f18aee2	0.5964185
30	0xbe643def	-0.22289251
31	0xbe017b78	-0.12644756
32	0xbe8b4c0a	-0.2720645
33	0x3f8799f5	1.0593859
34	0xbf0f0c19	-0.55877835
35	0x3d7bdaba	0.06148789
36	0xbf207a5e	-0.6268672
37	0x3f49805a	0.78711474
38	0xbeabbe97	-0.33543846
39	0xbf01da8d	-0.5072411
40	0x3e9ca2ee	0.30593055
41	0xbe7acd59	-0.24492396
42	0x3ed434a3	0.4144641
43	0x3f38a7c3	0.72130984
44	0xbca588f6	-0.02020691
45	0xbe10b4d2	-0.14131477
46	0x3f8d2704	1.1027532
47	0xbe9b96fc	-0.3038863
48	0x3e73f512	0.23823956
49	0xbde470fc	-0.111543626
50	0x3eaae032	0.33374172
51	0x3b482484	0.0030539343
52	0xbe2dd5cb	-0.16976087
53	0x3d496dbe	0.049176924
54	0x3cdbae98	0.026816651
55	0xbe13ba06	-0.14426431
56	0x3f3febe2	0.74969304
57	0x3e5ca539	0.21547402
58	0xbd737878	-0.05944106
59	0x3e3d47be	0.18484399
60	0xbe8c8784	-0.2744714
61	0xbf11dbc1	-0.5697594
62	0xbd9efaab	-0.07762655
63	0xbcd403b6	-0.025880676

fc2.weight f4 [64, 69]
0	0x3f99e24a	1.2022183
1	0x3eba0da3	0.3633853
2	0x3efd3d37	0.49460766
3	0x3ebdb11c	0.37049186
4	0x3e9e38ad	0.30902615
5	0xbf99df17	-1.2021207
6	0xbf561c6f	-0.83637136
7	0xbfaf570f	-1.3698443
8	0xbe178f1c	-0.14800686
9	0x3e4580fa	0.19287482
10	0x3efbcc12	0.4917913
11	0x3f193075	0.59839565
12	0xbf0cf85c	-0.55066466
13	0x3f8337b1	1.0251371
14	0x3ed941da	0.42433053
15	0xbeff821d	-0.49903956
16	0x3f3a3d36	0.7274965
17	0x3f2d682c	0.6773708
18	0x3f2c55c6	0.6731838
19	0x3e7f6373	0.2494028
20	0xbf1c78a3	-0.6112158
21	0xbf017937	-0.50575584
22	0x3de5270b	0.111890875
23	0x3d86fa71	0.06590737
24	0x3fd4a61c	1.6613193
25	0xbe88791c	-0.266549
26	0xbf7f681b	-0.9976823
27	0x3f33ad4a	0.70186293
28	0xbd694865	-0.056953806
29	0x3e956a68	0.29182744
30	0xbdb60ea9	-0.08889515
31	0x3fabec62	1.3431513
32	0xbec742d7	-0.38918182
33	0xbf825800	-1.0183105
34	0x3e98512f	0.29749438
35	0x3d9bd5f5	0.076091684
36	0x3fc5d4d5	1.5455576
37	0xbfb2ec3b	-1.3978342
38	0x3d2ee8fc	0.04270266
39	0xbec0cc96	-0.37656087
40	0xbe2deba2	-0.16984418
41	0xbfd404cc	-1.6563964
42	0x3ea0e80e	0.31427044
43	0x3ec96ce1	0.3934088
44	0x3ee48426	0.4463207
45	0x3db0def9	0.08636279
46	0x3ee61f5d	0.44945803
47	0x3f76f2b8	0.9646411
48	0x3ec26f71	0.37975648
49	0x3fb2db51	1.397318
50	0x3f77f937	0.96864647
51	0xbfcb8250	-1.5899143
52	0x3fc51917	1.5398282
53	0xbde431d8	-0.111423194
54	0x3f67d63d	0.90561277
55	0xbdd05e93	-0.101742886
56	0xbf9ed52a	-1.2408803
57	0xc00a99d7	-2.1656396
58	0xbeb6a925	-0.35675922
59	0xbe9231b5	-0.28553548
60	0xbec54656	-0.38530225
61	0x3f45cc39	0.77264744
62	0xbe330e6b	-0.17485969
63	0x3dfa0d02	0.12209512
64	0xbe77d52f	-0.24202417
65	0x3dbe4eff	0.09292411
66	0x3e4ccabf	0.19999216
67	0x3e36eff4	0.17864972
68	0xbee15ca6	-0.44015998
69	0x3eedfe7b	0.46483216
70	0xbe1f5cb5	-0.15562709
71	0xbe09ea47	-0.13468276
72	0xbd9d7508	-0.076883376
73	0x3f1f2d35	0.62178355
74	0x3ec90300	0.392601
75	0xbe4c0475	-0.19923575
76	0x3f06b283	0.5261614
77	0xbe2f65a7	-0.17128621
78	0xbf488a22	-0.78335774
79	0xbea54e46	-0.3228628
80	0x3f1143ea	0.56744254
81	0x3d599a18	0.05312547
82	0x3d2b3c4e	0.041805558
83	0xbe92c33d	-0.2866458
84	0xbeccee53	-0.40025577
85	0x3e3667d3	0.17813043
86	0x3e1f98ca	0.15585628
87	0xbe45df22	-0.193234
88	0xbdb06872	-0.08613671
89	0x3f25460f	0.64560026
90	0x3eae2b47	0.34017393
91	0x3f14d8db	0.58143395
92	0x3e79414c	0.24341315
93	0x3e81cdbd	0.25352278
94	0x3e99f62b	0.30070624
95	0x3f1ad376	0.60478914
96	0x3ebdd637	0.37077495
97	0xbe6b6813	-0.2298892
98	0xbc23c245	-0.009995048
99	0x3c33d286	0.010975486
100	0x3f25409a	0.645517
101	0x3db2892b	0.08717569
102	0xbf0f7a48	-0.5604596
103	0x3cf7eae6	0.030263375
104	0xbcfcda6a	-0.030865867
105	0xbe3498f3	-0.1763647
106	0xbf2cd096	-0.67505777
107	0xbbd3e110	-0.0064660385
108	0x3e15f0d1	0.14642645
109	0xbe9361e4	-0.28785622
110	0x3e83b80c	0.25726354
111	0xbea5e279	-0.32399347
112	0xbf4d6352	-0.80229676
113	0x3d7fd1fe	0.062456124
114	0x3e0ca332	0.13734129
115	0xbf8fd104	-1.1235662
116	0xbd98c292	-0.07458986
117	0xbe92b3ff	-0.2865295
118	0xbe4c8380	-0.19972038
119	0xbf238831	-0.63879687
120	0xbe91c1a4	-0.2846805
121	0xbdc3f369	-0.09567911
122	0x3d9e89b1	0.07741106
123	0x3ecc38d6	0.39887112
124	0x3e818592	0.2529722
125	0xbe6eb053	-0.2330945
126	0xbedaff8c	-0.42773092
127	0x3e5cf7c4	0.2157889
128	0xbe6499cb	-0.22324292
129	0x3d7bde3f	0.061491247
130	0x3e944b74	0.28963816
131	0x3e8b5f5d	0.27221194
132	0xbe5a20b1	-0.21301533
133	0xbe56156d	-0.20906611
134	0xbe464c3c	-0.19365019
135	0xbf3bb3e9	-0.73321396
136	0x3d32e134	0.0436718
137	0xbda1ccda	-0.079004005
138	0xbf3de79f	-0.7418155
139	0x3ebad651	0.36491635
140	0x3e758142	0.23975089
141	0xbd3a3916	-0.045464598
142	0x3e62ea3b	0.22159664
143	0x3e3731d2	0.17890099
144	0x3e827fe8	0.2548821
145	0xbe8c2a32	-0.27375942
146	0x3df02c00	0.11727142
147	0x3e16aeea	0.14715162
148	0xbe59dd29	-0.21275772
149	0xbf428620	-0.7598591
150	0x3fd4d943	1.6628803
151	0xbf041de6	-0.5160812
152	0x3e672fc5	0.22576816
153	0x3fe4a858	1.7863874
154	0x3dfcf398	0.12351149
155	0x3eae2ade	0.3401708
156	0xbdc434a9	-0.09580357
157	0xbef8f42c	-0.48623788
158	0xbde6d062	-0.112702146
159	0xbe78ec4b	-0.24308889
160	0xbec47e18	-0.38377452
161	0x3f3e5f35	0.74364024
162	0xbf84f54d	-1.038736
163	0xbe546368	-0.20741045
164	0xbf01c3ec	-0.5068958
165	0x3e72f422	0.23725942
166	0x3f1a674f	0.60313886
167	0xbf4ac45f	-0.7920589
168	0x3e7cb7eb	0.24679534
169	0xbea9c24d	-0.33156052
170	0x3f387c70	0.72064877
171	0x3f26eb58	0.65202856
172	0xbefa872f	-0.48931262
173	0xbeb21896	-0.34784383
174	0x3eb79a4e	0.35859913
175	0x3f96c51e	1.1778905
176	0x3db98356	0.090582535
177	0x3f2b315d	0.668722
178	0x3eac2610	0.3362279
179	0xbe87b0ee	-0.26502174
180	0xbf0c6bfa	-0.5485226
181	0xbdeddbe6	-0.11614208
182	0x3e5c3cdb	0.2150759
183	0x3f999c51	1.2000829
184	0x3e0dd3cc	0.13850325
185	0x3e6c8ce0	0.23100615
186	0x3ea43df1	0.32078508
187	0xbdf604ec	-0.120126575
188	0x3e096bd4	0.1342004
189	0xbf059e9a	-0.5219513
190	0x3ca8634e	0.020555165
191	0x3e34ee13	0.17668943
192	0x3e0c9bd0	0.13731313
193	0x3f1f2550	0.6216631
194	0x3f680bb7	0.90642875
195	0x3f7dc50e	0.99128807
196	0x3e04926f	0.12946485
197	0x3ec672bf	0.3875942
198	0x3f199407	0.59991497
199	0x3f870907	1.054963
200	0x3fa4a93c	1.2864146
201	0xbed2a5b2	-0.4114204
202	0xbdd7fd99	-0.10546417
203	0xbf1a8c49	-0.6037031
204	0xbe0e6bd7	-0.13908325
205	0xbf1370db	-0.5759408
206	0x3f3cad3b	0.7370183
207	0x3f08d148	0.5344434
208	0x3ed63033	0.41833648
209	0x3e50ff77	0.20409952
210	0x3ef13157	0.47107956
211	0x3ea6c6f0	0.32573652
212	0x3f01bc83	0.5067827
213	0x3ec4f6b6	0.38469476
214	0x3f201572	0.6253272
215	0x3efa525d	0.48890963
216	0x3e12eb6a	0.14347616
217	0x3e662170	0.22473693
218	0x3f4a4c3a	0.7902256
219	0xbf5ab32e	-0.85429657
220	0x3ebdf7ee	0.37103218
221	0x3bf2b620	0.007406965
222	0xbf04cd53	-0.518758
223	0x3f44eefa	0.7692715
224	0x3eb2a89f	0.34894273
225	0x3ef9caf0	0.48787642
226	0x3e8caa72	0.2747379
227	0x3f096629	0.5367151
228	0x3f1cbbb0	0.6122389
229	0x3fc00773	1.5002273
230	0x3edbdb85	0.42940918
231	0x3f3b49cd	0.73159486
232	0x3f3eb49c	0.7449434
233	0x3fa4754c	1.2848296
234	0x3e0a2b8d	0.13493176
235	0x3ec8532a	0.3912595
236	0x3e2ac632	0.16677168
237	0xbe34df4d	-0.17663307
238	0x3faa43b5	1.3301913
239	0x3f1808f1	0.59388644
240	0xbf0ed630	-0.55795574
241	0x3f1b3353	0.6062519
242	0x3e44e8f6	0.19229493
243	0x3f74c702	0.9561616
244	0xbf4008e5	-0.7501357
245	0xbd16b9a8	-0.03679815
246	0xbcece24b	-0.028916499
247	0xbcc71c35	-0.024305442
248	0x3ebeff36	0.37304085
249	0xbcb20df5	-0.02173517
250	0xbe3b07db	-0.18264715
251	0x3e1b86d3	0.1518815
252	0xbf4231a6	-0.7585701
253	0xbe3c2cfe	-0.18376538
254	0x3e937480	0.2879982
255	0xbe2f5e13	-0.1712573

fc2.bias f4 [64]
0	0x3e9ac327	0.30227014
1	0xbf2d33bc	-0.67657065
2	0x3e887643	0.26652727
3	0xbe0cd909	-0.13754667
4	0xbe159e96	-0.14611277
5	0xbdb9b5c1	-0.0906787
6	0xbcda55df	-0.026652275
7	0x3f3a3ff0	0.7275381
8	0x3eedf618	0.46476817
9	0xbee012aa	-0.4376424
10	0xbeca8a56	-0.39558667
11	0xbedc406a	-0.43017894
12	0xbe1f9fe7	-0.15588342
13	0xbcf5507e	-0.029945608
14	0x3edcfe46	0.43162745
15	0xbf0c7a0b	-0.5487372
16	0x3e82eb1f	0.25570008
17	0xbeca0021	-0.39453223
18	0xbe0d3c4c	-0.13792533
19	0x3dfef33c	0.12448737
20	0x3e1c1656	0.15242895
21	0x3c0950a8	0.008381046
22	0x3ee081cc	0.43849027
23	0xbf5a6f22	-0.85325825
24	0x3eb1deb7	0.3474023
25	0xbdabbb30	-0.083853126
26	0xbe820643	-0.25395402
27	0xbdc9c32c	-0.09851679
28	0x3eb60cb6	0.35556573
29	0x3f0b5321	0.5442372
30	0xbf33f597	-0.70296615
31	0x3dcf336e	0.10117231
32	0xbd54591b	-0.05184279
33	0xbf00c56e	-0.50301254
34	0x3c133210	0.008984104
35	0xbf3fed50	-0.74971485
36	0x3d036342	0.03207708
37	0x3e401f00	0.18761826
38	0x3db28bf4	0.087181
39	0xbf1ba795	-0.60802585
40	0xbe0323ae	-0.1280658
41	0x3e238c35	0.15971453
42	0x3eaefa95	0.34175554
43	0xbdaa6656	-0.083203
44	0xbe7da60c	-0.24770373
45	0xbdd2e9bf	-0.1029849
46	0x3e3e9f8b	0.18615548
47	0x3efd0989	0.49421337
48	0x3e8cb88c	0.27484548
49	0x3f1cd836	0.6126741
50	0xbf1418c3	-0.57850283
51	0x3ec07b4b	0.37594065
52	0x3e03041a	0.12794533
53	0x3ef724e6	0.4827034
54	0x3e8bf480	0.27334976
55	0xbd47ecba	-0.048809744
56	0xbf37ed6d	-0.7184666
57	0xbeaeef72	-0.34167057
58	0xbe2b08fa	-0.16702643
59	0x3efb6456	0.49099988
60	0xbc4a0729	-0.012330809
61	0xbe1a1e5a	-0.1505064
62	0x3d7cc246	0.06170871
63	0x3e0860b2	0.13318136

fc3.weight f4 [5, 64]
0	0x3d53b400	0.051685333
1	0x3dfa8e12	0.12234129
2	0x3de72e8e	0.112881765
3	0x3def3f3a	0.116819814
4	0x3de5412a	0.1119407
5	0x3dd00ba0	0.10158467
6	0x3d060938	0.032723635
7	0xbc2b82d0	-0.0104682
8	0x3b9bc4a0	0.004753664
9	0xbd54c698	-0.051947206
10	0x3d709130	0.05873221
11	0x3b6d53c0	0.003621325
12	0x3cf19698	0.029490754
13	0xbda4e6dc	-0.080518454
14	0xbd40c858	-0.047066063
15	0x3dbfec84	0.09371284
16	0x3c473100	0.012157679
17	0x3d30afe0	0.043136477
18	0xbddf7d6a	-0.10912593
19	0xbd5b4074	-0.053528264
20	0xbb507dc0	-0.0031813234
21	0xbc56e870	-0.013116941
22	0x3da36a92	0.07979311
23	0xbd1a8388	-0.037723094
24	0x3dd5a82c	0.10432467
25	0xbcc60cb0	-0.024175972
26	0x3d472450	0.048618615
27	0xbdb43b2e	-0.0880035
28	0x3cadce98	0.021216676
29	0xbdf99578	-0.12186712
30	0xbddba524	-0.107248574
31	0xbda3d762	-0.080000654
32	0x3d0f5684	0.034994617
33	0x3c1ebc00	0.009688377
34	0x3c4636f0	0.012098059
35	0xbc600710	-0.013673559
36	0x3dd71a9a	0.10503121
37	0x3dfac712	0.12245001
38	0x3d5970c4	0.053086057
39	0x3dcb95d4	0.09940687
40	0xbbca6ec0	-0.006177753
41	0xbd3c3a3c	-0.045953974
42	0x3cc71338	0.024301156
43	0x3da85444	0.082191974
44	0xbc9e42c8	-0.019318953
45	0xbdc490a0	-0.095978975
46	0x3d2914b0	0.041279495
47	0xbd028450	-0.031864464
48	0xbd767658	-0.060171455
49	0x3da1b202	0.078952804
50	0xbb8b0700	-0.004242778
51	0xbd925600	-0.071453094
52	0xbd992eea	-0.07479651
53	0x3df11734	0.11772004
54	0x3da683bc	0.08130595
55	0xbdb7912a	-0.08963235
56	0x387aa000	5.9753656e-05
57	0xbb313b40	-0.0027043372
58	0x3d740d54	0.059583023
59	0xbddb4122	-0.107057825
60	0x3af38080	0.0018577725
61	0x3d2a97e8	0.041648775
62	0x3d824778	0.06361288
63	0x3c562520	0.013070375
64	0xbd7dc890	-0.06195885
65	0xbdf5c384	-0.12000182
66	0x3d8a5f16	0.067564175
67	0x3de9b7f6	0.11412041
68	0xbd1a953c	-0.037739977
69	0xbde4c682	-0.11170675
70	0x3d15cdd0	0.03657323
71	0xbdb37b32	-0.08763732
72	0xbda742ee	-0.08167063
73	0x3d0b9060	0.034073234
74	0xbc427bc0	-0.011870325
75	0xbc0b4e60	-0.008502573
76	0x3de59e68	0.11211854
77	0xbcb39ca8	-0.021925285
78	0x3d9bd46c	0.07608876
79	0xbd1f58ac	-0.038902923
80	0x3dbe7d9c	0.09301302
81	0x3d1c3274	0.038134053
82	0x3de41f02	0.11138727
83	0x3d329338	0.04359743
84	0xbd355c00	-0.04427719
85	0x3d5f283c	0.05448173
86	0x3dda1b42	0.1064973
87	0x3cc21500	0.023691654
88	0x3d6c0bf4	0.057628587
89	0xbdb41a1a	-0.08794041
90	0x3d8ab5ca	0.06772955
91	0xbdf1fe76	-0.11816113
92	0x3de24f3c	0.11050269
93	0x3d5377d8	0.051627964
94	0x3c06c690	0.008226052
95	0xbdef9aa2	-0.11699416
96	0x3de8cbe4	0.11367014
97	0x3da33c74	0.07970515
98	0x3debff92	0.115233555
99	0x3d4945d4	0.04913886
100	0x3d2c6e1c	0.042097196
101	0xbd04a008	-0.03237918
102	0xbd51d188	-0.051225215
103	0x3d4af554	0.04955037
104	0x3d319078	0.043350667
105	0xbb84cae0	-0.004052505
106	0x3ca2e040	0.019882321
107	0x3d2fe104	0.0429392
108	0xbdf76326	-0.12079458
109	0xbde26456	-0.11054294
110	0xbd084be0	-0.033275485
111	0x3dae59f2	0.085132495
112	0x3d79cbb4	0.060985282
113	0xbdf4579e	-0.11930774
114	0xbd19ba30	-0.037531078
115	0xbc587c00	-0.013213158
116	0x3d28296c	0.041055128
117	0x3dd17064	0.10226515
118	0x3b332c00	0.0027339458
119	0xbdc7444e	-0.09729825
120	0x3bfb53a0	0.007669881
121	0xbd45b6e4	-0.04827012
122	0xbd9c73cc	-0.07639274
123	0x3d8dcbbe	0.06923626
124	0xbc899390	-0.016793996
125	0x3d71ede4	0.05906476
126	0x3dc75626	0.097332284
127	0x3c4947e0	0.012285203
128	0x3d903110	0.07040608
129	0xbd71cf64	-0.059035674
130	0x3d8ee73a	0.06977697
131	0x3ba3a2e0	0.0049937814
132	0x3daa1e9a	0.08306618
133	0x3df4c050	0.11950743
134	0xbdc1a6fe	-0.09455679
135	0x3df306b2	0.118665114
136	0x3dc36bb0	0.09542024
137	0xbdce39c4	-0.10069612
138	0x3d1616a4	0.036642686
139	0xbdd06960	-0.10176349
140	0x3d2615f0	0.040548265
141	0x3c9e59f0	0.019329995
142	0xbdf4616a	-0.11932643
143	0x3d39dd9c	0.04537736
144	0xbd0ca2e4	-0.034335032
145	0x3dff2ccc	0.12459716
146	0x3df9dbaa	0.12200101
147	0x3d30bf60	0.04315126
148	0x3dc9ca4a	0.09853037
149	0x3d38ecac	0.045147583
150	0x3df23376	0.11826222
151	0xbc3d15c0	-0.01154083
152	0x3cfd1500	0.030893803
153	0xbca925b8	-0.020647869
154	0xbb0f43c0	-0.002186045
155	0xbd1a7404	-0.037708297
156	0xbd4aa060	-0.04946935
157	0x3d941720	0.07230973
158	0x3d5bb68c	0.053640887
159	0xbd620424	-0.05517973
160	0xbde19cfa	-0.11016269
161	0x3d7a589c	0.06111966
162	0xbdeb7cb6	-0.11498396
163	0xbbb540c0	-0.0055314004
164	0xbddc45fa	-0.107555345
165	0x3dd65b50	0.10466635
166	0x3dd07474	0.10178462
167	0xbdd2643a	-0.10273023
168	0xbdee02fe	-0.116216645
169	0xbd975bfa	-0.0739059
170	0x3d0d482c	0.034492657
171	0xbd8004fa	-0.06250949
172	0xbcf3dc90	-0.029768258
173	0xbd01c808	-0.031684905
174	0x3cbbd5d8	0.022929117
175	0xbd722dd0	-0.05912572
176	0x3d68dd80	0.056851864
177	0xbdb730b2	-0.08944835
178	0xbc364ce0	-0.011126727
179	0x3dd69600	0.10477829
180	0xbd8d5b94	-0.06902233
181	0x3dc4686c	0.095902294
182	0x3d853cde	0.0650575
183	0xbd2562a4	-0.040377274
184	0x3d318b1c	0.043345556
185	0xbdacf28a	-0.08444698
186	0x3c24d410	0.010060325
187	0x3d110788	0.035407573
188	0x3ddd6e1a	0.10812016
189	0xbd8f4090	-0.06994736
190	0xbd9197c4	-0.07109025
191	0xbd7f8aac	-0.062388107
192	0xbdf9635e	-0.12177156
193	0x3ccf14b8	0.025278434
194	0xbdd3e8ba	-0.103471234
195	0xbd09717c	-0.033555493
196	0xbd6471e8	-0.055772692
197	0x3be50300	0.006988883
198	0x3d1b5088	0.037918597
199	0xbdba0812	-0.090835705
200	0xbd172660	-0.03690183
201	0xbc44e470	-0.012017354
202	0xbd93fd34	-0.07226029
203	0x3cec8e48	0.028876439
204	0x3d3d8a60	0.046274543
205	0xbdb67246	-0.08908515
206	0x3dc94c0a	0.098289564
207	0x3db5e9e0	0.08882499
208	0xbd19d140	-0.037553072
209	0x3c985cc8	0.018598929
210	0x3c795c40	0.015219748
211	0xbc8d4890	-0.017246515
212	0xbdabcfb4	-0.083892256
213	0x3dd2f300	0.10300255
214	0x3d7bf4ec	0.061512873
215	0xbdd5ee64	-0.1044586
216	0xbdc6676e	-0.096876964
217	0x3df371c8	0.118869364
218	0x3ca36f78	0.019950613
219	0xbceb4270	-0.028718203
220	0x3dad8038	0.084717214
221	0x3d13163c	0.035909876
222	0x3d37cb08	0.04487136
223	0x3dcb1848	0.09916741
224	0xbc1fd790	-0.009755984
225	0x3df3efa2	0.11910941
226	0xbdb3d2c2	-0.08780433
227	0xbd9bc6aa	-0.076062515
228	0x3cad8148	0.02117981
229	0xbc78a310	-0.015175596
230	0x3d921638	0.07133144
231	0xbd0b3a08	-0.03399089
232	0x3ca105b0	0.019656032
233	0xbcd4c660	-0.025973499
234	0x3dc030ec	0.09384331
235	0xbc065560	-0.008199066
236	0x3afb7c00	0.0019186735
237	0x3dbb8b3e	0.09157418
238	0x3df8e0ac	0.12152228
239	0x3df4f472	0.11960687
240	0xbdfa4c1c	-0.12221548
241	0xbd90a7d2	-0.07063259
242	0xbcde5c20	-0.027143538
243	0xbcd365e0	-0.025805414
244	0x3d941480	0.072304726
245	0x3d673e44	0.056455866
246	0xbc2873a0	-0.010281473
247	0x3b421100	0.0029612184
248	0x3cdb6658	0.0267822
249	0x3ddcafc0	0.10775709
250	0x3d84a9a0	0.06477666
251	0xbd8120fc	-0.063051194
252	0xbd83240c	-0.0640336
253	0x3d21eb28	0.039530903
254	0xbc4f2590	-0.012643233
255	0xbda43c04	-0.080192596

fc3.bias f4 [5]
0	0x3dd4bea6	0.10387926
1	0x3dc8fdbc	0.09814021
2	0xbcfb4198	-0.030670926
3	0xbdae54f2	-0.08512296
4	0xbd98a65a	-0.07453604

fc4.weight f4 [4, 64]
0	0xbfae41d8	-1.3613844
1	0xbf0a4626	-0.5401329
2	0x3f53e966	0.8277801
3	0xbe789ef9	-0.24279393
4	0x3d6dcc52	0.058056183
5	0x3d5c8e1b	0.05384646
6	0x3d70dc8e	0.058804087
7	0x3fd0ac46	1.6302574
8	0x40188fd9	2.3837798
9	0xbd4ffd5b	-0.050778728
10	0xbf05ca0c	-0.52261424
11	0xbf953b43	-1.165871
12	0xbd620ba4	-0.055186883
13	0xbf65344c	-0.89532924
14	0xbf4a54a1	-0.79035383
15	0x3de44550	0.11146033
16	0xbdeab59b	-0.1146042
17	0x3f91ff06	1.1405952
18	0xbf8a3337	-1.079688
19	0xbf1aa2a0	-0.60404396
20	0xbf9b6126	-1.2139022
21	0xbf69847f	-0.912178
22	0x3f4e3d16	0.8056196
23	0xbf179812	-0.59216416
24	0x3f2048a3	0.62610835
25	0x3eaaf675	0.33391157
26	0xbf096467	-0.53668827
27	0x3c726e0d	0.014796746
28	0x3f58da36	0.84707963
29	0x402784b3	2.6174743
30	0xbedf1977	-0.43574116
31	0x3f9ce874	1.2258439
32	0xbd49d7fd	-0.049278248
33	0x3ff63a11	1.923647
34	0x3f660809	0.8985601
35	0xbf1cc978	-0.61244917
36	0xbe521b21	-0.20518161
37	0xbfdc2a80	-1.720047
38	0xbf86d61e	-1.0534093
39	0x3e902a4e	0.28157276
40	0xbf575a09	-0.8412176
41	0xbf0ea3d7	-0.5571875
42	0x3f66c069	0.90137345
43	0xbfe3dee8	-1.78024
44	0xbf2d3d03	-0.6767122
45	0xbe06be44	-0.13158518
46	0xbf4918bb	-0.7855336
47	0xbf977221	-1.1831704
48	0x3fe6902a	1.8012745
49	0x3f648072	0.8925849
50	0xbf11c0f2	-0.56935036
51	0xbee7584b	-0.4518455
52	0xbf37d2aa	-0.7180582
53	0x3fd1783c	1.6364818
54	0x3f4488f5	0.7677148
55	0x3cce0fc6	0.025154006
56	0xbf02af5b	-0.5104882
57	0xbe209fb5	-0.15685923
58	0xbf6245ce	-0.88387764
59	0x405463e9	3.318598
60	0xbf983d03	-1.1893619
61	0x3da874f0	0.08225429
62	0xbcb802b5	-0.022462228
63	0xbf2c5b7b	-0.6732709
64	0xbfcd5767	-1.6042298
65	0xbe231c89	-0.15928854
66	0x3f2ec962	0.68276036
67	0xbf134de1	-0.5754071
68	0xbd2f0ba4	-0.04273571
69	0x3cb8b7b1	0.022548528
70	0xbdfa6864	-0.12226942
71	0x3fea4adc	1.8304095
72	0x401c455e	2.4417338
73	0xbef10784	-0.47076046
74	0xbf378175	-0.7168191
75	0xbe1ea5e9	-0.15492977
76	0xbddf2300	-0.108953476
77	0xbf3f3045	-0.7468303
78	0xbe2d1998	-0.16904294
79	0x3f4a1ad2	0.78947175
80	0xbf84e2b3	-1.0381683
81	0xbfcf6d75	-1.6205279
82	0xbf1f7abf	-0.6229667
83	0xbec00557	-0.37504074
84	0xbf6f344e	-0.93439186
85	0xbf392249	-0.7231794
86	0x3f1e0d90	0.61739445
87	0xbed85820	-0.42254734
88	0x3f23ab34	0.6393311
89	0x3e49d612	0.19710568
90	0xbf0b8538	-0.5450015
91	0xbdb9c2b8	-0.09070343
92	0x3e3aeb34	0.18253785
93	0x40139da6	2.306497
94	0xbde7e8e9	-0.11323721
95	0x3ffcf3a5	1.9761854
96	0x3d2c356b	0.04204313
97	0x3faf418d	1.369188
98	0x3fce9265	1.6138426
99	0xbe933996	-0.28754872
100	0xbeb9b571	-0.3627124
101	0xbf8444e6	-1.0333526
102	0xbf84608d	-1.0341965
103	0xbefcb955	-0.49360147
104	0xbf49f444	-0.78888345
105	0xbe031265	-0.12799986
106	0x3f2317ec	0.63708377
107	0x3ed0cad7	0.40779755
108	0xbf296cff	-0.6618194
109	0xbedd95ba	-0.43278295
110	0xbfb8f14e	-1.444864
111	0xbfa59b06	-1.2937934
112	0x3fa0db7e	1.2566984
113	0x3f6d89af	0.92788213
114	0xbe6fa4dc	-0.23402733
115	0xbf200fbc	-0.6252401
116	0xbef11297	-0.47084495
117	0x3fe3f838	1.7810125
118	0x3f7ffb82	0.99993145
119	0xbdc511c2	-0.09622528
120	0xbe060c60	-0.13090658
121	0x3e9cedd6	0.30650204
122	0xbf1c7ffb	-0.6113278
123	0x404d7737	3.2104013
124	0xbe001e31	-0.12511517
125	0xbdbf9a3d	-0.093555905
126	0x3d97f2c1	0.074193485
127	0xbf193f4d	-0.59862214
128	0xbf19a70f	-0.60020536
129	0xbf141f83	-0.57860583
130	0x400552e5	2.0831845
131	0xbeddb66a	-0.43303233
132	0xbcf4554a	-0.029825825
133	0x3d83339e	0.064063296
134	0xbdbfc697	-0.0936405
135	0x3f237bcf	0.6386079
136	0x3f81418d	1.009813
137	0xbfdc717a	-1.722213
138	0xbedc547a	-0.430332
139	0xbe1572e0	-0.14594603
140	0x3dbff6f1	0.09373272
141	0xbf10e5ea	-0.5660082
142	0xbf885a36	-1.065253
143	0xbf549752	-0.83043396
144	0xbf41aeac	-0.75657153
145	0x3fc1054b	1.507974
146	0xbf277f0b	-0.6542823
147	0xbf1743a9	-0.59087616
148	0xbf42b367	-0.76054996
149	0xbf379ebc	-0.71726584
150	0x3f7bfcfc	0.984329
151	0xbf1d7b17	-0.61515945
152	0x3f82f566	1.023114
153	0xbeda560c	-0.42643774
154	0xbf89d25b	-1.076732
155	0x3d261a84	0.04055263
156	0x3fb12f8c	1.3842635
157	0x40280ab4	2.6256533
158	0xbf01b2d6	-0.50663507
159	0xbf8e53fa	-1.1119378
160	0x3ca19870	0.019726008
161	0x401e7223	2.4757164
162	0x3fea6205	1.8311163
163	0xbf2e4407	-0.6807255
164	0xbefdf44d	-0.4960045
165	0xbf5c8de4	-0.8615401
166	0xbf42f5d1	-0.76156336
167	0xbec03a67	-0.37544557
168	0xbef621f2	-0.48072773
169	0x3e9fd67b	0.31218323
170	0x3fbc895d	1.472942
171	0xbde19348	-0.1101442
172	0x3e0e25ba	0.13881579
173	0xbf0ef475	-0.5584176
174	0xbf858661	-1.0431634
175	0xbf2a60cf	-0.6655397
176	0x3fef1ee9	1.8681308
177	0x3e924b0a	0.28572875
178	0xbf378810	-0.7169199
179	0xbfd3eaf4	-1.6556077
180	0xbf819dc5	-1.0126272
181	0x3fc565f6	1.5421741
182	0x3f05134d	0.51982576
183	0x3d846f26	0.064665124
184	0xbf02c59e	-0.5108279
185	0xbf1fa5a1	-0.62362105
186	0xbea16e68	-0.31529546
187	0x40412146	3.0176558
188	0x3cf52690	0.029925615
189	0x3d5cad83	0.05387641
190	0xbcf510d2	-0.029915247
191	0xbefdf3c8	-0.49600053
192	0xbf2f256e	-0.6841649
193	0xbf1242bc	-0.5713308
194	0x3f3e78f9	0.7440334
195	0xbf19e0f5	-0.6010888
196	0xbc5cf417	-0.01348593
197	0x3d9781cd	0.073978044
198	0x3d68ce80	0.05683756
199	0x400617a8	2.0951939
200	0x401fc66e	2.4964862
201	0x3cd910d9	0.026497291
202	0xbf051304	-0.5198214
203	0x3f2e084f	0.6798143
204	0x3d3cea1d	0.046121705
205	0xbe9a4557	-0.30131027
206	0xbf8aa14c	-1.0830474
207	0x3dc2c5dc	0.09510395
208	0xbebc8ed3	-0.36827716
209	0x3d7379c5	0.0594423
210	0xbf547e28	-0.83005
211	0xbf4aae94	-0.79172635
212	0x3e872164	0.26392663
213	0xbf4c90eb	-0.7990863
214	0x3edddc74	0.43332255
215	0xbee28c61	-0.44247726
216	0x3f2b588f	0.66932005
217	0xbfb5f8a2	-1.4216502
218	0xbf3a6c2a	-0.72821295
219	0xbd983047	-0.07431083
220	0x3f90660e	1.1281145
221	0x40017d20	2.023262
222	0xbf10c25e	-0.5654658
223	0x3fac439f	1.3458136
224	0xbc3f146e	-0.011662586
225	0x3ff66c01	1.925171
226	0x3fba9be9	1.457883
227	0xbee1097f	-0.43952557
228	0xbf2e3b54	-0.6805928
229	0xbf92bbd9	-1.1463577
230	0xbf99e53d	-1.2023083
231	0xbec3f319	-0.38271406
232	0xbed2d9ea	-0.4118188
233	0xbfb56c7f	-1.4173735
234	0x3f17213a	0.59035075
235	0xbf94ae5f	-1.1615714
236	0xbf0d5068	-0.55200815
237	0xbf1860f1	-0.5952292
238	0xbf1a0eb3	-0.6017868
239	0xbff908d7	-1.9455823
240	0x3feb8295	1.8399225
241	0x3f1ebc8e	0.6200646
242	0xbf0afc27	-0.54291004
243	0xbf3fac53	-0.7487232
244	0xbef30963	-0.474681
245	0x3f67dd86	0.9057239
246	0x3fdff746	1.7497337
247	0xbda837f0	-0.08213794
248	0xbef1d575	-0.47233167
249	0xbed56e7d	-0.41685858
250	0xbf4437fe	-0.7664794
251	0x4074fc09	3.827883
252	0xbf57ce11	-0.8429881
253	0xb9a63254	-0.00031699485
254	0x3cd03c7d	0.025419468
255	0xbec2f5e9	-0.3807824

fc4.bias f4 [4]
0	0x3ef8b367	0.48574373
1	0x3ecb096f	0.39655635
2	0x3d0f0846	0.03492
3	0x3d80c8fb	0.06288334
