checkpoint.pth (torch_old, 44038 bytes, 8 tensors)

fc1.weight f4 [64, 8]
0.4154953 -1.2449279 0.1872536 0.041141413 -0.2369714 -0.10013246 0.058845803 0.293098
-0.39909872 0.2690246 -0.028588315 -0.03869165 0.83737755 -0.76718575 -0.7305884 0.45365056
-0.45968804 0.24487296 0.19361494 -0.31478977 0.045070387 0.65164304 -0.097179055 0.5584282
0.33360505 -0.09057089 0.8202361 -0.627556 -0.8846379 -0.4666356 0.0042122006 0.44511893
0.6301549 -1.3511508 -0.45700517 -0.8123581 -0.89803666 0.25731775 0.010472839 0.6176769
0.643677 -1.2400329 0.14127094 -1.4324607 -0.5031667 -0.24118204 0.2189946 0.20304331
-0.6014914 -0.1578353 -0.48285514 0.18195206 0.6496946 0.3076413 1.0938053 -0.5064359
-0.001861768 -0.4918512 0.37835547 -0.73014235 -0.29500487 0.15538928 -0.38977867 -0.09686328
1.588333 -0.037715554 0.31870347 -0.24242227 -0.94978064 -1.856678e-05 -0.066193536 -0.06974477
0.16148451 -0.07823017 1.1652725 1.2010404 0.009674878 -0.43012586 0.6670287 0.26606303
-0.25163034 0.6315334 0.7080055 -0.8960033 0.1857462 0.11726923 -0.24283816 -0.3013172
-0.13773538 -0.29155645 0.15248579 0.073204465 0.20509675 0.0114838155 -0.53669155 -0.6705755
0.03571263 -0.14821355 -0.35431638 0.45687366 -1.1702996 0.78497225 0.50002056 -0.35253733
-1.3189397 -1.0846493 -0.33261722 -1.1023506 -0.09521326 0.1713249 -0.014542865 0.21135044
-0.18870087 0.5489289 0.65609396 -0.92953724 0.039727017 0.10971413 0.36826003 -0.24767719
0.66446054 0.516359 0.2655827 0.76716435 -0.9935747 -1.1493999 -0.5069583 -0.4203316
-0.7850001 -1.6265035 -0.12794495 -1.625622 -0.435541 -0.11994886 0.6927832 -0.11503035
-0.65312344 0.04140848 -0.48489016 0.21909723 0.18462405 0.1329861 0.3917901 -0.7780774
0.057656825 -0.27345 -0.82910436 0.25923496 0.7374212 -0.6634887 -0.6237779 0.50704557
0.5534482 0.59470683 1.1581589 -1.0128269 0.7878069 -0.29908097 -0.42877543 0.13832892
0.68446445 -2.6443574 -1.1284125 -0.019730646 -0.35704094 0.058680013 -0.7332473 0.23633857
-0.045445215 -0.2202632 0.7013411 -0.8538153 -0.70987815 -0.866773 -0.4424275 -0.0679126
-0.06809559 -0.74713385 0.15865493 -1.3147135 -0.48325425 -0.32379428 0.34726885 0.2974504
1.2804065 0.017269988 -0.04601385 0.5605535 -1.0437118 -0.24779923 0.5780793 0.0069530304
0.527991 0.004889296 0.07257239 -0.8787792 -1.3993841 0.20469557 0.16500641 -0.49968037
0.23629595 0.42721 -0.11972934 -0.12941945 -1.1302565 -0.34489766 -0.061555352 0.6408489
0.5606828 -0.8898799 -0.40281287 0.14218614 0.57668746 -0.14398883 -0.61376125 0.57576025
1.2577715 -0.5901406 0.39807123 -0.4414934 -0.1321603 0.115073256 0.29135916 0.14752679
-1.0981654 -0.068891495 -0.7133995 -0.34270173 -0.12556332 -0.47785076 0.10259775 0.6858927
-0.032448206 -0.41160652 1.2881927 0.214926 0.7857429 -0.6506208 -0.71893406 0.20027654
0.29727682 0.73209214 -1.7865086 -0.8601856 -0.07189306 -1.5728784 0.4144105 -0.37310186
0.07604179 -0.15790375 -0.3317775 -0.5884982 0.89679015 -0.10209259 -0.7123908 -0.45878008
00000000: cdbb d43e cc59 9fbf 68bf 3f3e e683 283d
00000010: a1a8 72be 3f12 cdbd 4c08 713d f110 963e
00000020: ab56 ccbe 98bd 893e 0b32 eabc 237b 1ebd
00000030: 605e 563f 4966 44bf d707 3bbf e344 e83e
00000040: 3b5c ebbe fabf 7a3e ff42 463e 202c a1be
00000050: ba9b 383d 14d2 263f d005 c7bd 27f5 0e3f
00000060: 48ce aa3e 3b7d b9bd fefa 513f 83a7 20bf
00000070: a177 62bf ddea eebe 8006 8a3b a1e6 e33e
00000080: d551 213f 82f2 acbf 95fc e9be b3f6 4fbf
00000090: bbe5 65bf 27bf 833e 4596 2b3c 1320 1e3f
000000a0: 04c8 243f 66b9 9ebf 54a9 103e df5a b7bf
000000b0: 88cf 00bf 6df8 76be 1f40 603e 96ea 4f3e
000000c0: 57fb 19bf 949f 21be ca38 f7be a451 3a3e
000000d0: 6352 263f 2983 9d3e d001 8c3f c8a5 01bf
000000e0: 9106 f4ba ecd3 fbbe cfb7 c13e 9cea 3abf
000000f0: e10a 97be 5e1e 1f3e 1291 c7be 4160 c6bd
00000100: 7f4e cb3f a07b 1abd 1a2d a33e 8b3d 78be
00000110: d324 73bf dbbf 9bb7 7a90 87bd 59d6 8ebd
00000120: 325c 253e 2437 a0bd a627 953f b1bb 993f
00000130: 6183 1e3c 7539 dcbe 65c2 2a3f 6a39 883e
00000140: b1d5 80be 2cac 213f d93f 353f 7960 65bf
00000150: 4034 3e3e da2a f03d 91aa 78be 3f46 9abe
00000160: 810a 0dbe e346 95be 3c25 1c3e 39ec 953d
00000170: e204 523e 9d26 3c3c 9e64 09bf d6aa 2bbf
00000180: 6847 123d 4bc5 17be f568 b5be 58eb e93e
00000190: 61cc 95bf f1f3 483f 5901 003f c67f b4be
000001a0: 04d3 a8bf cad5 8abf ce4c aabe d319 8dbf
000001b0: 2bff c2bd cb6f 2f3e 3245 6ebc 406c 583e
000001c0: cd3a 41be 9b86 0c3f c6f5 273f 27f6 6dbf
000001d0: ccb8 223d cdb1 e03d 948c bc3e 179f 7dbe
000001e0: 161a 2a3f 1a30 043f 75fa 873e e264 443f
000001f0: e95a 7ebf 891f 93bf 05c8 01bf b435 d7be
00000200: c4f5 48bf 4431 d0bf 0004 03be 6214 d0bf
00000210: 3bff debe bfa7 f5bd 3d5a 313f 0895 ebbd
00000220: 1933 27bf f09b 293d 8643 f8be 065b 603e
00000230: 160e 3d3e 822d 083e b698 c83e 1530 47bf
00000240: 9029 6c3d a301 8cbe 2f40 54bf 72ba 843e
00000250: a3c7 3c3f 65da 29bf e9af 1fbf bdcd 013f
00000260: c8ae 0d3f b53e 183f 8d3e 943f 50a4 81bf
00000270: b7ad 493f 2421 99be 7488 dbbe 19a6 0d3e
00000280: 1039 2f3f 273d 29c0 d26f 90bf 2aa2 a1bc
00000290: 12ce b6be 745a 703d 18b6 3bbf bd02 723e
000002a0: c324 3abd ad8c 61be 178b 333f a493 5abf
000002b0: 93ba 35bf d6e4 5dbf db85 e2be c315 8bbd
000002c0: b375 8bbd 2a44 3fbf 7076 223e 8848 a8bf
000002d0: 1a6d f7be 5dc8 a5be 39cd b13e 6b4b 983e
000002e0: 5ce4 a33f ca79 8d3c 0579 3cbd 6f80 0f3f
000002f0: 5998 85bf 15bf 7dbe 01fd 133f 3fd6 e33b
00000300: 6b2a 073f 6336 a03b d5a0 943d acf7 60bf
00000310: 051f b3bf b79b 513e 71f7 283e 1bd6 ffbe
00000320: 91f7 713e 45bb da3e a834 f5bd 8886 04be
00000330: 3fac 90bf 6d96 b0be 7721 7cbd ac0e 243f
00000340: e888 0f3f 2bcf 63bf 7d3d cebe 3e99 113e
00000350: caa1 133f cf71 13be 751f 1dbf 0665 133f
00000360: a8fe a03f 7413 17bf fecf cb3e 6c0b e2be
00000370: 0855 07be 87ab eb3d 072d 953e 4311 173e
00000380: af90 8cbf fc16 8dbd 5aa1 36bf 9a76 afbe
00000390: ac93 00be dba8 f4be c51e d23d aa96 2f3f
000003a0: 69e8 04bd 17be d2be 80e3 a43f 9015 5c3e
000003b0: 7226 493f 168f 26bf 100c 38bf 4b15 4d3e
000003c0: ab34 983e 646a 3b3f 50ac e4bf 2035 5cbf
000003d0: ab3c 93bd 1454 c9bf 9d2d d43e 3507 bfbe
000003e0: ccbb 9b3d 85b1 21be bede a9be d1a7 16bf
000003f0: 0a94 653f eb15 d1bd 3e5f 36bf 39e5 eabe

fc1.bias f4 [64]
-0.85833865 -0.3959686 -0.010681685 -0.29262686 -0.40673354 -0.38908902 0.36466256 -0.42912963
0.09068446 0.84845954 0.79646754 -0.6299248 -0.4808592 -0.22030261 0.8063407 0.36267993
-0.097198375 -0.4876594 0.12484066 0.6056657 -0.23876831 -0.4669539 -0.5588014 -0.49798286
-0.14702253 -0.608611 -0.60242516 -0.41219354 -0.11106998 -0.008749115 0.58800435 -0.42840225
-0.51527506 0.45600793 -0.3193348 0.21212728 -0.08436731 0.75468946 -0.60770524 -0.65522075
0.23592931 -0.26842046 0.16822962 0.9535358 0.5962733 0.14051071 1.1494333 0.24602452
0.14708208 -0.24287358 0.141982 0.7659298 -0.3832889 0.551873 -0.6520148 -0.16722853
0.033097927 0.42656654 -0.011138648 0.03855599 -0.07285898 -0.783188 0.6780105 0.1368315
00000000: 15bc 5bbf 65bc cabe 3c02 2fbc 30d3 95be
00000010: 613f d0be ad36 c7be 0db5 ba3e e1b6 dbbe
00000020: c6b8 b93d a534 593f 4ce5 4b3f c042 21bf
00000030: 2d33 f6be 0297 61be 586c 4e3f 2fb1 b93e
00000040: f10f c7bd 7eae f9be 76ac ff3d e80c 1b3f
00000050: ae7f 74be 9514 efbe 9c0d 0fbf 9cf7 febe
00000060: 138d 16be eecd 1bbf 8938 1abf 080b d3be
00000070: a878 e3bd 7358 0fbc 7487 163f 8a57 dbbe
00000080: 11e9 03bf df79 e93e da7f a3be e537 593e
00000090: c5c8 acbd 5433 413f 9292 1bbf 8cbc 27bf
000000a0: 7497 713e 686e 89be 6344 2c3e ec1a 743f
000000b0: 5ea5 183f 0ae2 0f3e a120 933f daed 7b3e
000000c0: af9c 163e dab3 78be bb63 113e fa13 443f
000000d0: 713e c4be 8d47 0d3f 71ea 26bf f53d 2bbe
000000e0: b191 073d ee66 da3e e07e 36bc e3ec 1d3d
000000f0: 1737 95bd 027f 48bf 1992 2d3f 8f1d 0c3e

fc2.weight f4 [128, 69]
0.41674566 0.7149979 -0.69354 0.35783163 -0.116878316 -0.31593472 0.24578281 -0.34805122
-1.1126854 0.34589896 0.7008758 0.008894829 -1.5595427 -0.67563426 0.5458416 -0.32785946
0.11268059 -2.7408495 0.15120919 0.46884388 0.6650443 -0.5156846 -0.050228026 -1.0110768
1.4327159 -0.80675304 -1.177029 -0.8399808 -0.6795103 0.87547064 0.012785497 -2.2336326
-0.4853602 0.52516997 1.3233507 1.2292165 -0.40676248 0.92346406 0.120130226 0.04893935
-0.19094294 -1.9795847 0.32961595 0.475052 0.19094218 -0.4221359 0.30060747 -0.012034646
1.1116759 -1.2600175 -0.065781906 0.597893 -0.3254893 0.6398534 0.2690013 1.3823533
-0.6072775 0.319207 0.3617565 0.7266531 -0.77393657 -0.6208566 1.0007645 -0.42862454
0.23627064 0.15715732 -0.1628437 -0.79341817 0.41896173 -0.14185323 0.7629926 0.1802801
0.4785338 -0.2079226 0.7789476 -0.58424515 0.87188363 0.67643243 -0.27016085 -0.044432536
-0.27104846 0.51346505 0.38586318 0.043750226 0.48301592 0.13340402 0.03678879 0.047896862
0.09455428 -0.3546392 0.28329116 0.6929205 0.6565635 -0.52797 0.78390354 1.4224396
0.34519038 0.46514386 -0.24303937 0.18903576 0.6321199 0.37186864 0.12003143 -0.11821978
-0.09604167 -0.016462836 -0.7553941 -0.7979323 0.33766943 0.026398795 0.21878773 -0.122793704
0.32069808 0.36336932 0.19601294 -0.41515326 -0.99455065 -0.9081423 0.33845425 -1.2679862
-0.27989683 0.6678793 -0.11492901 0.18532862 -1.3812385 0.07708834 -0.57893395 0.2591142
-0.37935326 0.3563593 0.5923951 -0.4230782 0.3280727 0.11054016 -0.07269421 0.21482816
-0.16421837 -0.3200479 0.42117104 1.1928159 -0.002455444 0.28610224 0.32693523 0.54063016
-0.04958989 0.15185827 -0.47096244 -0.2150569 0.2961558 0.19512351 -0.26597765 0.030774554
0.20697947 0.0924567 0.42026162 -0.0011446652 0.64397866 0.71545684 -0.34058863 0.73462427
0.8167309 0.09737124 0.7644333 -0.57370967 0.57414323 0.59427696 0.08227564 0.5560991
0.5564544 -0.11191655 0.23806623 0.89183134 1.0726041 -1.3253119 -1.7286758 -0.15966414
0.42967036 0.27947217 -0.4816937 -0.1563321 -0.655587 -0.830491 -0.95521724 -1.1446785
-0.9759773 -0.08792715 -0.6779544 0.024673557 0.7821735 -0.010720252 0.9987423 0.2350641
1.0906348 -1.1869842 0.47824076 0.26310524 0.5778526 -0.11550217 0.16311228 0.4909945
-0.047559418 0.056582667 1.1546506 0.077541836 0.46569362 0.28167143 -0.21852767 0.32945392
0.2541282 -0.055574775 0.04519051 -0.20679818 0.20002992 0.28661788 0.482053 -0.17357895
0.07243883 -0.062258564 0.010710255 -0.72006905 0.45515123 -0.19235569 0.42012972 0.3486729
-0.22342107 0.33179048 0.25792378 0.14460999 0.48870596 0.6649624 0.13745564 -0.39392486
-0.046963207 -0.22208285 -0.08576958 0.32610586 0.3873723 0.26232916 0.3135502 0.54901475
-0.06711566 0.05824232 -0.8687957 0.5277909 0.0057345433 -0.6908989 -0.056993864 -0.8068261
-0.030003762 -0.7659331 -0.045493145 -0.56695753 0.17571631 -0.59090215 -0.4641383 0.958905
00000000: b05f d53e 1a0a 373f d68b 31bf b535 b73e
00000010: e65d efbd 32c2 a1be 7dae 7b3e c533 b2be
00000020: 7a6c 8ebf ab19 b13e 996c 333f 9ebb 113c
00000030: 189f c7bf 5ef6 2cbf 46bc 0b3f 32dd a7be
00000040: 15c5 e63d 146a 2fc0 95d6 1a3e 4e0c f03e
00000050: 5840 2a3f e803 04bf e7bb 4dbd f76a 81bf
00000060: 3c63 b73f 5e87 4ebf e3a8 96bf fb08 57bf
00000070: 63f4 2dbf d81e 603f 437a 513c d6f3 0ec0
00000080: 2281 f8be 8a71 063f 8e63 a93f f756 9d3f
00000090: 2c43 d0be 2468 6c3f d606 f63d a174 483d
000000a0: 8c86 43be 0863 fdbf 6cc3 a83e 043a f33e
000000b0: 5986 433e 3222 d8be 39e9 993e f72c 45bc
000000c0: 654b 8e3f 4148 a1bf aab8 86bd 840f 193f
000000d0: 89a6 a6be 6fcd 233f 8aba 893e f4f0 b03f
000000e0: 8a76 1bbf 1a6f a33e 2638 b93e f005 3a3f
000000f0: b520 46bf 75f0 1ebf 0d19 803f ad74 dbbe
00000100: eef0 713e d9ed 203e 80c0 26be 741d 4bbf
00000110: 2782 d63e f941 11be 7c53 433f 599b 383e
00000120: 6202 f53e a9e9 54be 1c69 473f 1791 15bf
00000130: c433 5f3f ad2a 2d3f 8652 8abe e4fe 35bd
00000140: ddc6 8abe 7272 033f dc8f c53e 7033 333d
00000150: dd4d f73e 109b 083e d8af 163d 802f 443d
00000160: ada5 c13d 4593 b5be 8a0b 913e 3d63 313f
00000170: 8c14 283f 0b29 07bf e7ad 483f 8012 b63f
00000180: cbbc b03e 5627 ee3e 50df 78be 9792 413e
00000190: 9cd2 213f 9165 be3e 0ad3 f53d 361d f2bd
000001a0: 7fb1 c4bd 12dd 86bc 8261 41bf 4b45 4cbf
000001b0: 02e3 ac3e 4942 d83c e409 603e 447b fbbd
000001c0: 8a32 a43e 8b0b ba3e 9eb7 483e f88e d4be
000001d0: df9a 7ebf 047c 68bf e049 ad3e 5f4d a2bf
000001e0: a34e 8fbe 23fa 2a3f e75f ebbd c9c6 3d3e
000001f0: 6ccc b0bf 7ee0 9d3d 0435 14bf 9eaa 843e
00000200: 973a c2be ba74 b63e 35a7 173f b59d d8be
00000210: 25f9 a73e e162 e23d b4e0 94bd eafb 5b3e
00000220: dc28 28be 51dd a3be bba3 d73e 31ae 983f
00000230: 84eb 20bb fe7b 923e 0e64 a73e bd66 0a3f
00000240: c51e 4bbd bc80 1b3e fd21 f1be e037 5cbe
00000250: bca1 973e 75ce 473e 392e 88be eb1a fc3c
00000260: 6df2 533e f059 bd3d 882c d73e 9708 96ba
00000270: c9db 243f 2e28 373f a261 aebe 5610 3c3f
00000280: 4715 513f 936a c73d e7b1 433f a3de 12bf
00000290: 0dfb 123f 8922 183f 2180 a83d 835c 0e3f
000002a0: cc73 0e3f 8134 e5bd a2c7 733e 0f4f 643f
000002b0: 174b 893f d2a3 a9bf 4045 ddbf ff7e 23be
000002c0: c1fd db3e fa16 8f3e 8fa0 f6be 8615 20be
000002d0: 8dd4 27bf 0f9b 54bf 1e89 74bf d384 92bf
000002e0: a6d9 79bf 2613 b4bd 6b8e 2dbf 3320 ca3c
000002f0: 863c 483f ffa3 2fbc 93ad 7f3f a5b4 703e
00000300: ec99 8b3f 19ef 97bf f9db f43e bbb5 863e
00000310: 26ee 133f 678c ecbd e806 273e a263 fb3e
00000320: aacd 42bd 3ac3 673d 97cb 933f 41ce 9e3d
00000330: 656f ee3e 3d37 903e b8c5 5fbe 2fae a83e
00000340: 171d 823e 60a2 63bd af19 393d e7c2 53be
00000350: a5d4 4c3e 94bf 923e a7cf f63e aebe 31be
00000360: cf5a 943d d602 7fbd 117a 2f3c 7256 38bf
00000370: 9509 e93e e4f8 44be 3e1b d73e 4185 b23e
00000380: 7ec8 64be 71e0 a93e 960e 843e a414 143e
00000390: ab37 fa3e fa3a 2a3f 2cc1 0c3e 85b0 c9be
000003a0: 7e5c 40bd b069 63be f6a7 afbd 59f7 a63e
000003b0: a955 c63e 0250 863e a789 a03e 3b8c 0c3f
000003c0: ef73 89bd 808f 6e3d 6569 5ebf 4e1d 073f
000003d0: d6e8 bb3b c0de 30bf 6672 69bd 288c 4ebf
000003e0: 73ca f5bc 3114 44bf 0557 3abd 2124 11bf
000003f0: faee 333e 5d45 17bf 89a3 edbe cc7a 753f

fc2.bias f4 [128]
0.75112545 -0.18902332 -0.4386484 -0.40567645 0.32936266 -0.22705096 -0.07492202 -0.22279285
0.54480386 0.4218486 -0.0663057 -0.004420098 0.7624632 -0.16967781 -0.018913023 -0.26572412
0.36786228 -0.057513177 0.008217682 -0.08456357 0.016850812 0.07247574 0.5168543 -0.26111484
-0.35885304 0.12905014 0.58425 -0.04590486 0.1831169 0.13701378 0.68411094 -0.0283494
0.13593657 -0.2562937 0.7274148 -0.057813108 -0.24786781 -0.028585847 0.07563736 -0.2387802
0.2144999 -0.20828265 0.10880907 -0.2120266 -0.07146595 -0.27053544 0.7499266 -0.114644535
-0.1137606 -0.09752343 0.07458161 -0.14010689 -0.1369435 0.17776284 -0.29623666 -0.22181001
-0.16602618 -0.5016898 0.11752088 0.053307727 -0.2591106 -0.11710719 0.33994445 -0.020109775
0.47734553 -0.0009410274 0.03753737 0.03191774 -0.50210327 -0.23744383 -0.43424267 -0.4213645
-0.2830959 -0.16875 0.19659904 -0.050845407 0.02609114 0.3216894 0.067107596 -0.113212615
0.05255038 -0.049717896 -0.17607792 -0.27663383 -0.019023664 -0.302731 0.078339286 0.6618649
-0.16139528 -0.1912363 -0.33494148 -0.1959786 -0.060084067 0.92593026 -0.13041219 -0.16339618
-0.006331654 -0.44431823 -0.52043265 -0.08272127 0.0093922205 -0.17275736 -0.11076115 0.33004504
-0.04624956 -0.10527777 -0.22766916 -0.0561365 -0.22482821 -0.06321135 -0.4144024 -0.069705345
0.022039993 0.26155025 0.5951751 0.009491169 -0.04963344 -0.09295354 -0.10138639 0.6577444
-0.051672272 -0.06631636 0.22826193 -0.054287817 0.38657242 -0.2217164 0.03999685 0.11971855
00000000: c249 403f 548f 41be 8696 e0be d3b4 cfbe
00000010: 39a2 a83e 0c80 68be b770 99bd cf23 64be
00000020: 4478 0b3f 8afc d73e 48cb 87bd 78d6 90bb
00000030: ca30 433f 05c0 2dbe 7cef 9abc fe0c 88be
00000040: 7258 bc3e f092 6bbd 75a3 063c aa2f adbd
00000050: b70a 8a3c 296e 943d 9050 043f d8b0 85be
00000060: 96bb b7be b825 043e 6891 153f bc06 3cbd
00000070: ff82 3b3e 574d 0c3e e521 2f3f 003d e8bc
00000080: f532 0b3e ee38 83be db37 3a3f 70cd 6cbd
00000090: 0fd1 7dbe de2c eabc c3e7 9a3d cc82 74be
000000a0: dda5 5b3e 0c48 55be 4ad7 de3d 801d 59be
000000b0: bd5c 92bd 9f83 8abe 31fb 3f3f c1ca eabd
000000c0: 51fb e8bd 5dba c7bd 3ebe 983d 2e78 0fbe
000000d0: eb3a 0cbe 7607 363e 55ac 97be 2a22 63be
000000e0: c402 2abe be6e 00bf caae f03d 3459 5a3d
000000f0: 25aa 84be e5d5 efbd 330d ae3e 41bd a4bc
00000100: a266 f43e 48af 76ba c9c0 193d 2dbc 023d
00000110: d789 00bf 7a24 73be 0e55 debe 16bd d7be
00000120: f2f1 90be cdcc 2cbe 4251 493e 4643 50bd
00000130: 16bd d53c 79b4 a43e b56f 893d 04dc e7bd
00000140: 113f 573d fea4 4bbd c54d 34be f3a2 8dbe
00000150: 84d7 9bbc 8fff 9abe 5970 a03d fa6f 293f
00000160: ce44 25be 73d3 43be 737d abbe 9dae 48be
00000170: b61a 76bd c409 6d3f c68a 05be 5451 27be
00000180: c379 cfbb ae7d e3be 133b 05bf c569 a9bd
00000190: d4e1 193c 4ee7 30be bed6 e2bd aafb a83e
000001a0: 2e70 3dbd df9b d7bd 1b22 69be 63ef 65bd
000001b0: 5e39 66be f474 81bd 8d2c d4be adc1 8ebd
000001c0: 378d b43c eae9 853e 655d 183f d980 1b3c
000001d0: 6f4c 4bbd 6d5e bebd aba3 cfbd f061 283f
000001e0: 4ea6 53bd dfd0 87bd 7fbd 693e e75c 5ebd
000001f0: d2ec c53e a009 63be bdd3 233d 002f f53d

fc3.weight f4 [5, 128]
0.028824747 -0.041324995 -0.07027885 -0.0678418 -0.08409439 -0.02014628 -0.075994104 0.068690695
-0.07384213 0.06750918 0.019198172 -0.06360085 0.07536558 0.029355884 -0.0071013123 0.07000417
-0.07429907 0.06365215 -0.007724412 0.0025434494 0.032307453 -0.036204163 -0.0011701733 0.06371694
0.035218462 0.042722367 0.07550251 -0.057061225 -0.016159557 0.07706728 -0.031422086 0.025164872
0.035032116 -0.080108285 0.0011673123 0.081669815 -0.014916815 -0.08651469 -0.08050342 0.01344382
-0.028053068 -0.05888786 0.071797095 -0.04993962 -0.06373752 0.060033344 0.06711816 0.030277044
0.08828 0.0022395477 0.066313155 -0.052419648 -0.07198461 0.0098847225 -0.058775812 -0.0024924278
-0.008875206 0.013602138 -0.02168297 -0.0063084736 -0.080252774 -0.03726284 0.04059293 0.07683567
0.07760837 0.016721569 -0.01712136 0.0676643 0.0039815083 -0.0016342327 0.0032146648 -0.05476495
-0.025932029 -0.0797091 -0.008282959 -0.085323185 0.01346872 -0.00015181303 0.03128513 -0.05514718
-0.0005885288 -0.024634242 -0.05277329 0.06892718 -0.08718098 0.06256113 -0.021881588 -0.04946808
-0.085824125 -0.08384685 -0.030487545 0.057027467 0.01752992 -0.0645619 0.074554585 0.072415255
0.036733203 0.08652558 0.058873408 0.012545936 0.061089374 -0.050363377 -0.01145038 -0.046069488
-0.015557088 -0.06995317 0.060086824 -0.03491805 0.027228326 0.081061535 0.029846646 0.0046749413
0.08778853 -0.08745471 0.08186399 -0.0766299 0.08761344 0.0070274174 -0.054246787 -0.030188955
-0.04538558 0.053000562 0.07593187 0.053449176 0.064631574 0.08521771 -0.07789914 0.037161253
0.0072351247 0.05327473 0.024943344 0.0024646074 0.0588165 -0.035747502 -0.06734263 -0.06335154
0.06343383 0.0018616766 -0.0718507 0.030563936 -0.0028714538 -0.052432533 0.07744602 0.051333047
0.07484198 -0.0143942535 -0.05464286 -0.074770086 0.010330327 -0.06194518 0.05272705 -0.08012789
-0.06290888 0.012837425 0.021629602 -0.011642322 -0.018403456 -0.044807833 -0.025565706 0.011464603
-0.07933772 -0.0153218955 -0.013969436 0.0019380376 0.06569291 -0.07409763 0.030535042 0.03276808
0.024535432 -0.025329411 0.05133731 -0.06254827 -0.035613842 -0.0023728162 -0.013000399 -0.08742166
0.047425143 0.052221812 -0.07847783 0.00016999245 -0.07439514 -0.01606682 0.010505736 0.076879136
0.062165014 0.0455667 0.011639729 -0.08155966 -0.028513532 0.078795634 0.007279195 -0.019918777
-0.030492391 0.042674042 0.05560375 -0.0077124834 0.025887586 0.065090306 0.05917745 0.04584647
0.060356595 0.0321666 0.024224006 -0.08697942 -0.0173598 -0.026372567 0.019817784 -0.025355347
-0.0806343 0.07396086 -0.03830825 -0.083935015 -0.036753453 0.018519 -0.030043304 -0.08828594
0.029409535 0.034073226 0.08228072 -0.08736119 -0.01674693 -0.033682548 -0.030624248 0.0019100234
0.08240873 -0.009241104 0.07567095 0.012238257 -0.0460393 -0.008504637 0.04548975 0.052262686
-0.029326126 -0.010812096 -0.07390573 -0.056286503 -0.023356684 0.05267193 0.005456418 0.046702735
-0.07376149 0.018085845 -0.07143032 -0.025849529 0.07215189 0.0036882833 -0.06617826 -0.087044455
-0.026717752 -0.034660123 -0.082056396 0.048368044 0.0017712116 -0.013568491 0.0682699 -0.083729774
00000000: e021 ec3c 6644 29bd 5cee 8fbd a4f0 8abd
00000010: ae39 acbd d009 a5bc cca2 9bbd b5ad 8c3d
00000020: 8b3a 97bd 4142 8a3d 7c45 9d3c 2a41 82bd
00000030: 4559 9a3d c07b f03c 20b2 e8bb 595e 8f3d
00000040: 1c2a 98bd 0f5c 823d 101d fdbb 00b0 263b
00000050: d254 043d d14a 14bd 8060 99ba 077e 823d
00000060: 3c41 103d a6fd 2e3d 0fa1 9a3d 08b9 69bd
00000070: 0c61 84bc 73d5 9d3d 72b4 00bd 9026 ce3c
00000080: d67d 0f3d d00f a4bd 8000 993a 8142 a73d
00000090: a865 74bc 9d2e b1bd fade a4bd 7843 5c3c
000000a0: 8ccf e5bc 6634 71bd 5b0a 933d 7d8d 4cbd
000000b0: d188 82bd 86e5 753d 3f75 893d 9007 f83c
000000c0: 25cc b43d 60c5 123b 31cf 873d fcb5 56bd
000000d0: ab6c 93bd 88f3 213c e8be 70bd 0058 23bb
000000e0: 5069 11bc 80db 5e3c 7ca0 b1bc 50b7 cebb
000000f0: 915b a4bd eba0 18bd c644 263d 055c 9d3d
00000100: 23f1 9e3d acfb 883c 1842 8cbc 9593 8a3d
00000110: 5077 823b c033 d6ba 20ad 523b 3651 60bd
00000120: 686f d4bc 863e a3bd 40b5 07bc ecbd aebd
00000130: e8ab 5c3c 0030 1fb9 d624 003d 02e2 61bd
00000140: 8047 1aba c0cd c9bc ce28 58bd b129 8d3d
00000150: f18b b2bd 0d20 803d 0441 b3bc 0b9f 4abd
00000160: 8fc4 afbd e6b7 abbd 04c1 f9bc a295 693d
00000170: e89a 8f3c 0839 84bd 13b0 983d 734e 943d
00000180: 8e75 163d 5334 b13d 3e25 713d 788d 4d3c
00000190: da38 7a3d d449 4ebd 609a 3bbc 5cb3 3cbd
000001a0: 28e3 7ebc 9c43 8fbd 9a1d 763d 3b06 0fbd
000001b0: f00d df3c 9703 a63d f480 f43c 4030 993b
000001c0: 79ca b33d 741b b3bd 4fa8 a73d 23f0 9cbd
000001d0: ad6e b33d 4046 e63b e131 5ebd d44e f7bc
000001e0: 3be6 39bd 1e17 593d 2b82 9b3d 86ed 5a3d
000001f0: 8f5d 843d 9f86 ae3d 9689 9fbd 6636 183d
00000200: a014 ed3b 9a36 5a3d fc55 cc3c 4085 213b
00000210: 92e9 703d f96b 12bd efea 89bd 74be 81bd
00000220: 99e9 813d 8003 f43a 7626 93bd 3861 fa3c
00000230: 002f 3cbb 7fc3 56bd 059c 9e3d 9a42 523d
00000240: c146 993d e0d5 6bbc 31d1 5fbd 0f21 99bd
00000250: 8840 293c 3bba 7dbd 52f8 573d 171a a4bd
00000260: 5fd6 80bd 1054 523c 9030 b13c 70bf 3ebc
00000270: d8c2 96bc 6b88 37bd 2c6f d1bc 08d6 3b3c
00000280: d17b a2bd b008 7bbc 10e0 64bc c005 fe3a
00000290: 018a 863d 80c0 97bd a024 fa3c d237 063d
000002a0: 88fe c83c a07f cfbc 1247 523d 4f19 80bd
000002b0: d2df 11bd 4081 1bbb a0ff 54bc 210a b3bd
000002c0: de40 423d 8ae6 553d fcb8 a0bd 0040 3239
000002d0: 7b5c 98bd 909e 83bc 4020 2c3c cf72 9d3d
000002e0: bea0 7e3d 26a4 3a3d 90b4 3e3c c008 a7bd
000002f0: 3695 e9bc 9b5f a13d 5086 ee3b b42c a3bc
00000300: 2ecb f9bc faca 2e3d c2c0 633d 00b9 fcbb
00000310: 3412 d43c 114e 853d 0e64 723d 82c9 3b3d
00000320: 7a38 773d 20c1 033d 6c71 c63c 4422 b2bd
00000330: 2436 8ebc 480b d8bc e858 a23c 04b6 cfbc
00000340: 9923 a5bd cb78 973d 1de9 1cbd 1fe6 abbd
00000350: ca8a 16bd 28b5 973c 601d f6bc 42cf b4bd
00000360: 44ec f03c 5e90 0b3d cb82 a83d 6cea b2bd
00000370: dc30 89bc b6f6 09bd b4df fabc c059 fa3a
00000380: e9c5 a83d 0068 17bc 5ff9 9a3d f882 483c
00000390: b493 3cbd 0857 0bbc 7653 3a3d 6611 563d
000003a0: 583d f0bc 3825 31bc e35b 97bd ad8c 66bd
000003b0: 8456 bfbc 86be 573d c0cb b23b 5e4b 3f3d
000003c0: 4410 97bd c428 943c 0f4a 92bd 64c2 d3bc
000003d0: 5fc4 933d 20b7 713b 7888 87bd 5d44 b2bd
000003e0: 30df dabc c6f7 0dbd 2f0d a8bd 921d 463d
000003f0: 0028 e83a 604e 5ebc 17d1 8b3d 847a abbd

fc3.bias f4 [5]
0.016527623 -0.062781595 -0.053816795 -0.0487758 -0.05994667
00000000: f064 873c a393 80bd 006f 5cbd 22c9 47bd
00000010: a48a 75bd

fc4.weight f4 [4, 128]
1.0984838 -0.5412465 2.3199637 1.0501423 0.48121685 -1.1329784 1.6449803 1.3597797
1.2775006 0.07626699 -0.52348953 0.62315357 0.7380014 -1.5072834 -0.9029255 -0.8553621
0.6007254 -0.8919194 -0.66740286 -0.6815828 1.1891813 -0.73995465 0.38067868 -0.46105024
0.46995232 -0.67153984 2.6723251 2.2213137 -0.67308617 -0.99225616 0.58069247 -0.4505605
-0.813671 0.69931346 3.0158708 -0.5013523 -0.9638176 -0.7622975 -0.88401216 -0.653167
0.4648255 -0.39765355 1.116342 -0.40681857 -1.2400315 -0.42410505 0.6616365 -0.4564151
-0.7265796 -0.39411905 -0.57495415 0.02057252 0.08576788 0.3872538 -1.1943282 1.9909286
-0.29160067 0.78699225 -0.08450673 0.037601635 -0.53001815 -1.1518856 -1.0852872 -0.062560186
-0.76495516 -1.3580692 -0.6339407 -0.4060398 -0.33881223 0.52553684 0.30910307 0.899795
-0.35354888 1.4838854 -0.52631515 -1.2700226 -1.4829884 0.56910384 -0.7149567 -0.45150846
-0.8380816 -0.039776824 -0.9848435 -0.65188986 -0.49450654 0.10408956 0.5047219 0.57921183
-1.1484733 -0.6095822 -0.6177092 -0.41537064 -1.0115259 1.189489 -0.5459309 -0.64061546
0.8065674 0.5152361 -0.5978492 -0.706715 -0.98334265 0.17486933 0.054487757 0.9996713
0.72091985 -0.5834391 -0.52639395 -0.35621214 -0.1789015 -0.4781799 -0.022559408 -0.05117624
-0.13712665 -0.93344533 0.41368282 -0.24931057 -0.43970072 -1.1527092 -0.1963314 0.85613555
-0.7147812 0.8003683 0.4387078 -0.7028704 0.32753184 0.019018449 -0.6396167 1.283981
1.4568726 -0.6939961 2.1130621 1.0916315 0.43647087 0.14344919 0.25987422 0.9019176
1.703025 -0.64855444 -0.46312314 0.6640049 0.6766439 0.48311228 -1.5365646 -0.48441342
0.46759653 -0.7916553 -0.25481036 -0.54457325 0.9147619 -0.34483063 0.393701 -0.5050497
0.8006183 -0.7191597 3.4316595 1.4839364 -0.8995318 -1.3233074 0.27093658 1.2052195
-0.815454 1.5435828 2.5765758 0.43579787 -0.61591977 -0.0071869865 -0.2806411 -0.7353507
0.3319361 -0.610284 1.7493846 -0.77518636 -1.4004315 -0.5210834 0.580658 -0.31516382
-0.88659924 0.80092335 -0.8655145 0.00023089895 0.045745954 0.3445181 -1.2864655 1.522048
-0.48407575 -0.9329815 -0.7140917 0.032333788 -0.8316847 -0.651943 -0.61419994 -1.554722
-0.7396363 -0.39269832 -0.5503429 -0.44651985 -0.27224964 -0.57508004 -0.2604294 0.5825777
0.2578173 0.7731745 -0.11559157 0.16691113 -0.64587694 0.5137552 -0.45029527 -0.35091186
-1.2483243 0.028579913 -0.7456427 0.25176406 -0.6278896 0.9538514 0.8658708 0.9345488
-0.21123521 -0.4706453 -0.07770014 -0.6715218 -0.6897303 0.9162497 0.72009414 -1.2670134
1.1826636 -0.40553805 -0.85109764 -0.42963642 -0.07558115 -0.42105058 0.029483177 0.91093034
0.7171113 -1.0680361 -0.9091508 -0.19901472 -0.29116544 -0.40659297 -0.5519672 -0.031665865
-0.60031474 -0.6669863 0.94408834 -0.59594387 -0.58306175 -1.3745929 -0.40696564 0.45737377
-0.6185411 1.8546695 0.105131544 -0.022618243 0.5245478 -0.92850137 -0.58592623 1.755126
00000000: 1e9b 8c3f 218f 0abf 497a 1440 106b 863f
00000010: 0e62 f63e 7005 91bf b78e d23f 430d ae3f
00000020: 2485 a33f de31 9c3d 6903 06bf fe86 1f3f
00000030: a9ed 3c3f aaee c0bf 2026 67bf 03f9 5abf
00000040: 24c9 193f d454 64bf eada 2abf 367c 2ebf
00000050: 1837 983f ab6d 3dbf 51e8 c23e c70e ecbe
00000060: 979d f03e 09ea 2bbf 6007 2b40 012a 0e40
00000070: 604f 2cbf 8004 7ebf 43a8 143f deaf e6be
00000080: be4c 50bf 3506 333f 0704 4140 a058 00bf
00000090: c0bc 76bf ee25 43bf 9f4e 62bf f435 27bf
000000a0: 9cfd ed3e 3f99 cbbe 4be4 8e3f 864a d0be
000000b0: 5ab9 9ebf 4c24 d9be 0261 293f 3daf e9be
000000c0: 1f01 3abf f9c9 c9be 3230 13bf b487 a83c
000000d0: 12a7 af3d 2146 c63e bfdf 98bf c0d6 fe3f
000000e0: af4c 95be 5378 493f dd11 adbd 2c04 1a3d
000000f0: 45af 07bf fd70 93bf b1ea 8abf 8e1f 80bd
00000100: 1ad4 43bf 36d5 adbf f049 22bf 73e4 cfbe
00000110: cc78 adbe 9589 063f c242 9e3e f758 663f
00000120: 5c04 b5be f5ef bd3f 97bc 06bf 1a90 a2bf
00000130: 90d2 bdbf cab0 113f 6707 37bf 1e2c e7be
00000140: 848c 56bf 06ed 22bd b41e 7cbf 41e2 26bf
00000150: f62f fdbe e82c d53d 7435 013f 3a47 143f
00000160: 2c01 93bf 940d 1cbf 3122 1ebf 76ab d4be
00000170: ae79 81bf 2d41 983f 21c2 0bbf 60ff 23bf
00000180: 337b 4e3f 83e6 033f a50c 19bf 46eb 34bf
00000190: 58bc 7bbf f210 333e 8e2e 5f3d 75ea 7f3f
000001a0: 348e 383f 445c 15bf c1c1 06bf 7061 b6be
000001b0: f431 37be ffd3 f4be 82ce b8bc 2d9e 51bd
000001c0: ee6a 0cbe 46f6 6ebf 3cce d33e 454b 7fbe
000001d0: 7420 e1be fa8b 93bf 190b 49be b32b 5b3f
000001e0: e7fb 36bf f0e4 4c3f 4f9e e03e 51ef 33bf
000001f0: 41b2 a73e 94cc 9b3c ecbd 23bf 7d59 a43f
00000200: cd7a ba3f baa9 31bf 693c 0740 95ba 8b3f
00000210: 1c79 df3e 58e4 123e 3c0e 853e 12e4 663f
00000220: b9fc d93f aa07 26bf 7a1e edbe 3afc 293f
00000230: 8938 2d3f 7e5a f73e 26ae c4bf 0905 f8be
00000240: d068 ef3e eca9 4abf 8176 82be 2769 0bbf
00000250: d62d 6a3f a48d b0be 2d93 c93e f04a 01bf
00000260: 52f5 4c3f da1a 38bf 4fa0 5b40 a1f1 bd3f
00000270: b747 66bf 2362 a9bf 33b8 8a3e a244 9a3f
00000280: 98c1 50bf 1f94 c53f 9ee6 2440 e620 df3e
00000290: ebac 1dbf d080 ebbb 31b0 8fbe f23f 3cbf
000002a0: 87f3 a93e 923b 1cbf d6eb df3f 9d72 46bf
000002b0: 5741 b3bf b965 05bf 01a6 143f 275d a1be
000002c0: 2bf8 62bf 5009 4d3f 5c92 5dbf 771d 7239
000002d0: 1c60 3b3d ad64 b03e e7aa a4bf 78d2 c23f
000002e0: c7d8 f7be e0d7 6ebf b7ce 36bf 6f70 043d
000002f0: 4ae9 54bf bde5 26bf 353c 1dbf 2101 c7bf
00000300: ce58 3dbf c10f c9be 46e3 0cbf 409e e4be
00000310: 4e64 8bbe 7238 13bf 0157 85be d023 153f
00000320: a100 843e c4ee 453f 46bb ecbd c0ea 2a3e
00000330: 3158 25bf 7685 033f 1a8d e6be b8aa b3be
00000340: 17c9 9fbf 6c20 ea3c 71e2 3ebf 38e7 803e
00000350: 5fbd 20bf 9b2f 743f b5a9 5d3f 973e 6f3f
00000360: 0b4e 58be 6cf8 f0be 4021 9fbd dae8 2bbf
00000370: 2a92 30bf 578f 6a3f 1758 383f 7f2d a2bf
00000380: 8561 973f afa2 cfbe 89e1 59bf 4ef9 dbbe
00000390: 4aca 9abd f193 d7be b486 f13c bb32 693f
000003a0: 9b94 373f 68b5 88bf 1bbe 68bf 84ca 4bbe
000003b0: a313 95be f42c d0be b94d 0dbf 11b4 01bd
000003c0: 3aae 19bf 9dbf 2abf c6af 713f c78f 18bf
000003d0: 8943 15bf a9f2 afbf cd5d d0be e52c ea3e
000003e0: b658 1ebf cf65 ed3f 354f d73d e549 b9bc
000003f0: c448 063f 44b2 6dbf 43ff 15bf f8a7 e03f

fc4.bias f4 [4]
0.3365139 0.30867317 0.41904694 0.25265533
00000000: 8d4b ac3e 690a 9e3e 528d d63e 0a5c 813e
