checkpoint.pth (torch_old, 45238 bytes, 8 tensors)

fc1.weight f4 [64, 8]
0	0x3e36facc	0.17869109
1	0xbe87e4b6	-0.2654168
2	0xbd8be11e	-0.06830047
3	0xbec4f9b4	-0.38471758
4	0x3dcc9f24	0.09991291
5	0x3ef8b0e7	0.48572466
6	0x3dca51f6	0.09878914
7	0x3f0cc24b	0.5498397
8	0x3e0f0992	0.13968495
9	0x3e39846c	0.18116921
10	0xbe3d5f44	-0.18493372
11	0xbd36c16e	-0.044618063
12	0xbe95d8d9	-0.29267004
13	0xbf70723a	-0.93924296
14	0xbe5ce1dc	-0.21570534
15	0x3ed211d8	0.4102924
16	0x3ddd4706	0.10804562
17	0x3e0f5b06	0.13999566
18	0xbe433f3e	-0.19067094
19	0x3e09e4c7	0.13466178
20	0x3eb76935	0.35822454
21	0x3ee9e88e	0.45685238
22	0x3c9d4115	0.019196073
23	0x3f187e17	0.595674
24	0xbd58ad78	-0.052899808
25	0xbd37c84b	-0.04486875
26	0x3ffc498d	1.9709946
27	0xbfa8fdcb	-1.3202451
28	0xbc7b7ccb	-0.015349577
29	0xbe0542a5	-0.13013704
30	0x3e0b119a	0.13580933
31	0x3e99a49f	0.30008408
32	0x3e2f222d	0.17102881
33	0xbf38e384	-0.7222216
34	0xbe466f5c	-0.19378418
35	0xbf367d7d	-0.7128523
36	0xbe6ef80c	-0.2333681
37	0x3f3caaa3	0.7369787
38	0x3dca469f	0.09876751
39	0xbd20731b	-0.039172273
40	0x3f296737	0.6617312
41	0xbf679b25	-0.90471107
42	0x3ea4b857	0.3217189
43	0xbf4e017c	-0.80471015
44	0xbdb692e8	-0.08914739
45	0xbe9d4b7c	-0.30721653
46	0x3eec2caa	0.46127826
47	0x3e123ac8	0.14280236
48	0xbf4ac8df	-0.79212755
49	0xc00fc4da	-2.2463899
50	0x3e6a69d1	0.22891928
51	0x3e2f496f	0.17117856
52	0xbe9882c5	-0.2978727
53	0x3df45317	0.11929911
54	0x3e8b5136	0.27210397
55	0xbf004de9	-0.5011888
56	0x3e93976d	0.28826466
57	0xbeb2afb6	-0.34899682
58	0xbdbaf590	-0.091288686
59	0xbf6c6696	-0.92344034
60	0x3cfc0296	0.030762952
61	0x3e634662	0.22194818
62	0xbe46f9e8	-0.19431269
63	0x3dc20652	0.09473862
64	0x3f382104	0.7192538
65	0x3d0ab27d	0.033861626
66	0x3eb639a1	0.35590842
67	0xbcf3cd50	-0.029760987
68	0x3e4c2fae	0.19940063
69	0x3f5f560a	0.8724066
70	0xbe832227	-0.25611994
71	0xbec73c9d	-0.38913432
72	0x3e852ae5	0.26009288
73	0x3e6f1c13	0.23350553
74	0x402fd620	2.7474442
75	0x3f243b7f	0.64153284
76	0xbf020b0b	-0.507981
77	0xbee65d9c	-0.44993293
78	0xbabd6f36	-0.0014452699
79	0x3dcd435d	0.10022614
80	0xbf6ac669	-0.91709
81	0x3f269c59	0.6508232
82	0x3e9e1f95	0.3088347
83	0xbf25f822	-0.64831746
84	0x39618f64	0.0002151109
85	0x3e1c66ea	0.15273634
86	0xbe33bb07	-0.17551814
87	0xbf64145d	-0.8909357
88	0xbea33fb6	-0.31884545
89	0xbf5b7bb2	-0.8573562
90	0xbd23721b	-0.03990374
91	0x3e95f9a5	0.29292026
92	0x3e201510	0.15633035
93	0x3e55ab29	0.20866074
94	0xbeb32945	-0.34992424
95	0xbec8a523	-0.3918849
96	0xbe25df2f	-0.16198419
97	0x3e72764a	0.23677936
98	0x3d8d2ea4	0.068936616
99	0x3e1f6359	0.15565242
100	0x3e6a9130	0.22906947
101	0x3f2c012f	0.67189306
102	0x3e00031f	0.1250119
103	0xbf0e756f	-0.5564794
104	0xbf8149de	-1.0100667
105	0xbea2544f	-0.31704947
106	0xbf15d6cb	-0.58530873
107	0x3eae72b5	0.3407189
108	0x3e96dca0	0.294652
109	0xba74070f	-0.0009308913
110	0xbd8d87eb	-0.0691069
111	0x3eddc9af	0.43317935
112	0xbe4eff75	-0.20214637
113	0x3ed15223	0.40882978
114	0x3f2254a1	0.63410383
115	0xbfa845c2	-1.3146288
116	0xbe2ed086	-0.17071733
117	0x3c2b30ce	0.010448648
118	0x3e960560	0.29300976
119	0xbe764e2f	-0.24053262
120	0x3f1769c9	0.5914579
121	0x3eebc27c	0.46046817
122	0x3e5652e2	0.20930055
123	0x3ebe0f54	0.3712107
124	0xbe9cb075	-0.30603376
125	0xbee10dee	-0.4395594
126	0xbef7e2bd	-0.48415175
127	0xbfa18f38	-1.2621832
128	0x3dbef585	0.09324173
129	0xbf11bd23	-0.56929225
130	0xbe8ebfc0	-0.2788067
131	0x3da2bf24	0.079466134
132	0x3e2f468e	0.17116758
133	0x3d2db118	0.042405218
134	0x3f0dcfef	0.55395406
135	0x3eb72149	0.35767582
136	0x3b85d0b3	0.004083717
137	0xbe1f6fca	-0.15569988
138	0x3dd46405	0.1037064
139	0x3d065169	0.032792483
140	0xbd498b55	-0.049205143
141	0x3f5c5ca0	0.86078835
142	0x3ef23ab9	0.47310427
143	0xbe919991	-0.28437474
144	0xbe2abf88	-0.16674626
145	0xbdef9431	-0.11698187
146	0xbe550c34	-0.20805436
147	0x3e9b0dd3	0.30283985
148	0x3e11d5d5	0.14241727
149	0xbf48f143	-0.78493136
150	0xbef476cc	-0.47746885
151	0x3e7fbb2f	0.24973749
152	0x3e792349	0.24329866
153	0x3e558dd1	0.2085488
154	0x3f045f3a	0.51707804
155	0xc005cded	-2.0906937
156	0x3f06d79d	0.5267275
157	0xbf670a33	-0.9024994
158	0xbce82407	-0.028337492
159	0xbec0c688	-0.37651467
160	0xbf22eac8	-0.636395
161	0xbeb591e1	-0.3546286
162	0xbf2eccf5	-0.6828149
163	0xbedae77e	-0.4275474
164	0x3d648c46	0.055797838
165	0xbeaad57e	-0.33366007
166	0xbf2330d3	-0.63746375
167	0xbeb52fd4	-0.35388052
168	0xbe27aa49	-0.16373552
169	0xbf98fd8b	-1.1952375
170	0x3ef23562	0.47306353
171	0xbea49339	-0.32143572
172	0x3f05bc9b	0.52240914
173	0x3e585d9d	0.2112946
174	0xbe84395e	-0.25825018
175	0x3d95ffbf	0.0732417
176	0x3e88cd77	0.26719257
177	0xbf339eeb	-0.70164365
178	0x3e77ecc5	0.24211414
179	0xbf543f03	-0.8290865
180	0x3e87b829	0.2650769
181	0xbe31f971	-0.1738031
182	0x3f04a850	0.51819324
183	0x3e810a61	0.2520323
184	0x3f6b1568	0.9182954
185	0xbf066cd2	-0.52509797
186	0x3e8b511a	0.27210313
187	0xbee80e04	-0.45323193
188	0xbe6d4e0c	-0.23174304
189	0x3e4ec3d3	0.20191889
190	0x3f17602e	0.59131134
191	0x3e40dcff	0.18834303
192	0xbe2cc0b4	-0.16870385
193	0xbfc7874d	-1.5588166
194	0xbecf67be	-0.40508837
195	0xbf226a40	-0.63443375
196	0xbf23812e	-0.6386899
197	0xbd36c4bc	-0.044621214
198	0xbe94d7df	-0.29070947
199	0x3e62158c	0.22078532
200	0x3e5ff1f4	0.21869642
201	0x3e774242	0.24146369
202	0xbeacd6e1	-0.3375769
203	0xbeef046a	-0.46683055
204	0x3e113a74	0.14182454
205	0x3ed15c7e	0.40890878
206	0x3df0abaf	0.11751496
207	0x3f2dca2f	0.6788663
208	0xbea05469	-0.313144
209	0xbfcd56df	-1.6042136
210	0xbed2ed55	-0.41196695
211	0xbf240831	-0.64075
212	0x3ece85d4	0.40336478
213	0x3e44ea5b	0.19230025
214	0x3ea91bb2	0.33028942
215	0x3d8871a0	0.06662297
216	0x3e05b729	0.13058151
217	0xbf89f842	-1.0778887
218	0x3e2c99d4	0.16855556
219	0xbf073e67	-0.52829593
220	0x3d9078f2	0.070543185
221	0x3f3334b9	0.70002323
222	0x3dac043c	0.08399245
223	0xb94f3a14	-0.00019762694
224	0x3d8a56f5	0.06754867
225	0x3dcc5a3c	0.09978148
226	0xbf890c0b	-1.07068
227	0xbf3e3902	-0.74305737
228	0x3f44f122	0.7693044
229	0xbf0f7312	-0.5603496
230	0x3e23f698	0.16012037
231	0x3e5b2b34	0.214032
232	0xbdc2a4e1	-0.095041044
233	0x3e375d69	0.17906727
234	0x3f5302c8	0.8242612
235	0x3d8a9580	0.06766796
236	0x401d3c9f	2.456825
237	0x3da405f3	0.08008947
238	0xbe5a91d2	-0.21344689
239	0xbda5e5b2	-0.081004515
240	0xbe5d090e	-0.21585485
241	0x3e9a2bb9	0.30111483
242	0xbf4f3f44	-0.8095591
243	0x3ef141e5	0.47120586
244	0x3f18b73b	0.5965459
245	0xbf4f6d7e	-0.81026447
246	0x3f0ceec4	0.5505183
247	0xbe55de51	-0.20885588
248	0xbefe7d74	-0.49705088
249	0x3dc48897	0.09596365
250	0xbee68f14	-0.45031035
251	0x3eac26bc	0.33623302
252	0x3f5b5985	0.8568347
253	0x3eaecce7	0.34140703
254	0xbf2306c3	-0.6368219
255	0xbf6be34b	-0.92143697

fc1.bias f4 [64]
0	0xbee51b95	-0.44747606
1	0xbe4f4672	-0.20241717
2	0xbe65aef1	-0.22430016
3	0xbbf2d00c	-0.007410055
4	0xbf163129	-0.5866876
5	0xbe97012c	-0.29493082
6	0x3ea42a01	0.32063296
7	0xbe9431db	-0.28944287
8	0xbba31f30	-0.004978083
9	0x3ea58be6	0.32333297
10	0x3ec1602a	0.3776868
11	0xbecd345d	-0.40079013
12	0xbed22a41	-0.41047862
13	0xbeab0f6c	-0.33410203
14	0x3ee7eddf	0.4529867
15	0x3cf061f4	0.029343583
16	0xbe0b2414	-0.13587981
17	0x3de41271	0.1113633
18	0x3ea4ecc9	0.32211903
19	0x3f17320a	0.5906073
20	0xbef0e6e6	-0.47051162
21	0xbf1499a5	-0.5804694
22	0xbeb185a1	-0.34672263
23	0xbe1c755e	-0.15279147
24	0xbd9297ff	-0.07157897
25	0xbeb9d199	-0.36292723
26	0xbed50c10	-0.41610765
27	0xbf170f17	-0.590074
28	0xbe303089	-0.17206015
29	0xbd9c979b	-0.07646104
30	0x3e11ced3	0.14239053
31	0x3eb4a577	0.3528249
32	0x3cfbef14	0.03075365
33	0x3f1c0340	0.6094246
34	0xbf1369f8	-0.5758357
35	0xbe7898c0	-0.2427702
36	0x3ea9f4b1	0.33194497
37	0x3e896dc1	0.26841548
38	0xbeabbe97	-0.33543846
39	0xbe51f717	-0.20504414
40	0x3ecee9d9	0.40412787
41	0xbed949a1	-0.42438987
42	0x3dd10fcf	0.102080934
43	0x3e7688cd	0.24075623
44	0x3e685349	0.22688021
45	0x3e5d8623	0.216332
46	0x3f0f27e5	0.5592025
47	0x3f293dbe	0.66109836
48	0x3e92f46f	0.28702113
49	0xbeef8a34	-0.46785128
50	0x3e83bd84	0.25730526
51	0x3ecb1033	0.39660797
52	0x3b7a2701	0.003817022
53	0x3dc9559e	0.09830783
54	0xbecda527	-0.40165064
55	0xbdd7d8d2	-0.10539402
56	0x3ec0245f	0.3752775
57	0x3e814aff	0.2525253
58	0x3e15bbbb	0.14622395
59	0x3d43d5e0	0.04781139
60	0xbee70c52	-0.45126587
61	0xbee01b85	-0.43770996
62	0xbced5cfd	-0.028975004
63	0x3e31c6a0	0.17360926

fc2.weight f4 [128, 69]
0	0x3e87ee46	0.26548976
1	0x3e0c5ed1	0.13708045
2	0x3e3a2140	0.18176746
3	0x3e57d8af	0.21078752
4	0x3f2473fb	0.6423947
5	0x3e0823d7	0.13294922
6	0xbe512f4d	-0.204282
7	0x3ebd6615	0.36991945
8	0x3e90c6a7	0.2827656
9	0xbf216bf7	-0.63055366
10	0xbe03e9a6	-0.12882099
11	0x3e93f032	0.28894192
12	0x3eabee69	0.3358033
13	0x3db8136d	0.0898808
14	0xbdb77e47	-0.08959632
15	0xbeaec3a6	-0.34133643
16	0x3c514bc0	0.012774408
17	0x3e9c6455	0.30545297
18	0x3e2cc32f	0.16871332
19	0x3dbc6125	0.09198216
20	0xbe827fa4	-0.25488007
21	0x3eee0f37	0.46495983
22	0x3f0f15d5	0.5589269
23	0x3eddc4cf	0.43314216
24	0x3da5f828	0.08103973
25	0x3eb620f7	0.35572025
26	0x3ec0272f	0.37529895
27	0x3f1f7c3b	0.62298936
28	0xbe3c4d7f	-0.18388937
29	0xbd868c97	-0.06569784
30	0x3d833181	0.064059265
31	0xbd459426	-0.04823699
32	0xbd1f68d6	-0.03891834
33	0xbf2d466b	-0.67685574
34	0xbe326f70	-0.17425323
35	0x3da22339	0.079168744
36	0xbe3ef759	-0.18649043
37	0xbd6657d2	-0.056236096
38	0x3d2ee8fc	0.04270266
39	0x3d705d77	0.058682885
40	0xbe9d3f4a	-0.30712348
41	0x3eb0cc6f	0.3453097
42	0xbe6223ac	-0.2208392
43	0xbe8a3af8	-0.26998115
44	0x3e78f717	0.24313007
45	0x3e8ebaed	0.27876988
46	0xbf319d1a	-0.6938034
47	0xbf0c541c	-0.5481584
48	0xbf482314	-0.78178525
49	0xbee75252	-0.45179993
50	0xbfac8290	-1.3477345
51	0xbf028d37	-0.50996727
52	0xbd4c586c	-0.049889013
53	0x3e4906ea	0.19631544
54	0x3eb9cd19	0.3628929
55	0x3ef8b289	0.48573712
56	0xbe59d6f0	-0.21273398
57	0xbdc05d13	-0.093927525
58	0x3d7f15dd	0.06227671
59	0x3d811519	0.06302852
60	0x3e595811	0.21225001
61	0x3e102a66	0.14078674
62	0xbd166b08	-0.036723167
63	0x3df2165b	0.1182067
64	0x3cf0fc33	0.029417133
65	0xbeb77667	-0.3583252
66	0xbdb69bcc	-0.08916435
67	0xbe0193a4	-0.12653977
68	0xbe61592a	-0.2200667
69	0x3ee94c77	0.4556615
70	0x3e61e90a	0.22061554
71	0x3e9f86ef	0.31157634
72	0xbf63b2a2	-0.8894445
73	0x3f10495e	0.5636195
74	0x3e37e4be	0.17958352
75	0xbe2033cd	-0.1564476
76	0x3ec16e98	0.3777969
77	0x3ebb29ad	0.36555234
78	0xbf3591d4	-0.7092564
79	0xbe5e64bf	-0.21718119
80	0x3e9f2c76	0.31088609
81	0x3ed58bfb	0.4170836
82	0x3efa36ef	0.48870036
83	0x3da70339	0.081549115
84	0xbf213eed	-0.6298664
85	0x3e04662e	0.12929603
86	0x3efcb3ee	0.49356025
87	0x3dbcac74	0.0921258
88	0x3dc9bcb6	0.09850447
89	0x3ee0008e	0.43750423
90	0x3ee2a00d	0.44262734
91	0x3f023e6a	0.50876486
92	0x3d4549e0	0.048166156
93	0x3f0bd212	0.54617417
94	0x3e94ff9f	0.29101273
95	0x3f762d71	0.9616309
96	0x3ed14668	0.40874028
97	0x3c785e89	0.015159258
98	0xbf92349e	-1.1422307
99	0x3e7c24ec	0.2462346
100	0x3f01bf34	0.5068238
101	0x3eae4dd4	0.34043753
102	0xbd8b94d3	-0.06815495
103	0x3da3fb35	0.08006898
104	0xbd95dc7b	-0.07317444
105	0x3efe732d	0.49697247
106	0xbf91c5f8	-1.138854
107	0xbbd3e110	-0.0064660385
108	0xbed789f7	-0.42097446
109	0x3eaa87d6	0.3330676
110	0x3e39ed3c	0.18156904
111	0xbe494a44	-0.19657236
112	0xbe0fab77	-0.14030252
113	0x3f03b06e	0.51441085
114	0x3f014426	0.5049461
115	0xbe89917d	-0.2686881
116	0x3eb3771c	0.3505181
117	0xbe7f942f	-0.24958871
118	0xbccfdba2	-0.025373284
119	0xbf2cae99	-0.67453915
120	0x3d189142	0.037247904
121	0xbe67555d	-0.22591157
122	0xbd843239	-0.06454892
123	0x3e8f1ae2	0.27950197
124	0x3cc5f2b3	0.02416358
125	0xbde69b82	-0.112601295
126	0xbeabec61	-0.3357878
127	0xbd5f3d17	-0.05450162
128	0xbf40deaa	-0.7533976
129	0x3e5a62e6	0.2132679
130	0x3ea80161	0.32813552
131	0xbe252074	-0.16125661
132	0x3ab204cd	0.0013581753
133	0x3e0c38e6	0.1369358
134	0x3d73b0a7	0.05949464
135	0x3e522266	0.20520934
136	0x3e240d1c	0.16020626
137	0xbed910ce	-0.42395633
138	0x3f1bb411	0.60821635
139	0x3c95774f	0.018245367
140	0x3e1afb22	0.15134862
141	0x3e1c652a	0.15272966
142	0x3ee88284	0.45412076
143	0x3eaf09d0	0.34187174
144	0xbb1fef3e	-0.0024404074
145	0x3e94851c	0.29007804
146	0x3e350cb7	0.17680632
147	0xbed743cf	-0.4204392
148	0x3bc810ba	0.0061055096
149	0x3e87944c	0.2648033
150	0x3ea997ff	0.33123776
151	0x3eec8b00	0.461998
152	0x3df1b89a	0.11802788
153	0xbf34950a	-0.70539916
154	0x3daac4ab	0.08338293
155	0x3ea55bdb	0.32296643
156	0xbe191fc8	-0.1495353
157	0xbe8f1cc3	-0.2795163
158	0x3f20b624	0.62777925
159	0x3e929cf0	0.2863536
160	0x3eecf757	0.46282455
161	0x3a00d62c	0.00049147266
162	0x3efdc431	0.49563745
163	0x3e915d60	0.28391552
164	0x3f5b2465	0.8560241
165	0x3e740a69	0.23832096
166	0xbdc6215a	-0.0967433
167	0xbf50f8b2	-0.8162948
168	0xbe0a2d53	-0.13493852
169	0x3eba5cae	0.36398834
170	0x3eb84cef	0.35996196
171	0xbed493de	-0.41519064
172	0x3eef98ec	0.46796358
173	0xbd5bda2a	-0.053674854
174	0x3db9933e	0.09061287
175	0xbd0dd1d5	-0.03462394
176	0x3db98356	0.090582535
177	0xbe7255e6	-0.2366558
178	0xbc0feef8	-0.008785002
179	0x3e9bb500	0.3041153
180	0xbf019a2f	-0.5062589
181	0x3e8a0027	0.2695324
182	0x3ea0af94	0.31383955
183	0x3dd18d0a	0.10231979
184	0xbeee8e92	-0.46593148
185	0x3d80e574	0.06293765
186	0xbee33848	-0.44378877
187	0x3e955186	0.2916376
188	0xbf5d5c18	-0.8646865
189	0xbe46b2c5	-0.19404133
190	0xbf425c86	-0.7592243
191	0x3e99e5e4	0.30058205
192	0xba8e254a	-0.0010844853
193	0x3cc36584	0.023852117
194	0xbe29855b	-0.16554777
195	0xbec94786	-0.3931238
196	0x3d8a08e9	0.06739981
197	0x3dcf5d83	0.10125258
198	0x3e4a790e	0.19772741
199	0x3e9f46b7	0.3110864
200	0x3cce3f97	0.025176806
201	0xbdd5e95b	-0.104449
202	0xbed0a9fa	-0.40754682
203	0xbe8fbae1	-0.28072265
204	0x3d40bac1	0.047053102
205	0x3dc5f6ba	0.096662
206	0x3e25edbc	0.1620397
207	0x3e3392c6	0.17536458
208	0x3e23378d	0.1593916
209	0xbbfe0c60	-0.00775294
210	0xbe82d14e	-0.25550312
211	0x3f105b51	0.5638934
212	0x3e159275	0.1460665
213	0x3d25eb76	0.040507756
214	0x3ed3208d	0.41235772
215	0x3e021aae	0.1270549
216	0x3de7ddb8	0.11321586
217	0xbdcab081	-0.09896947
218	0x3e1f3062	0.155458
219	0x3e492c55	0.19645818
220	0x3e96b2fe	0.29433435
221	0x3d51056d	0.051030565
222	0xbc6a8439	-0.014313751
223	0x3e29932f	0.16560052
224	0x3ebb15e9	0.36540154
225	0x3c2cfb77	0.010558001
226	0x3eaf3eb6	0.34227532
227	0xbb392631	-0.0028251524
228	0xbe05439d	-0.13014074
229	0x3ec030f3	0.37537345
230	0x3f0088b2	0.5020858
231	0xbf0f114e	-0.5588578
232	0x3e73c19b	0.23804323
233	0x3f15a0e0	0.584486
234	0x3efacdb9	0.4898508
235	0xbf1d1612	-0.613618
236	0xbf49405c	-0.7861383
237	0xbd0f6161	-0.035004977
238	0x3dd93969	0.10606653
239	0x3eb0a2f1	0.34499314
240	0xbea26bd8	-0.31722903
241	0x3eaed617	0.34147713
242	0xbef575a1	-0.47941306
243	0x3e586099	0.21130599
244	0xbeb7307e	-0.35779184
245	0xbd16b9a8	-0.03679815
246	0x3de9ad7d	0.114100434
247	0x3da1ea15	0.07905976
248	0x3e71069a	0.23537675
249	0xbd40d33e	-0.047076456
250	0xbe870e87	-0.2637827
251	0xbe1bc8cc	-0.15213317
252	0x3ed57f81	0.4169884
253	0xbeea7892	-0.45795113
254	0x3e515358	0.2044195
255	0xbe738e96	-0.23784861

fc2.bias f4 [128]
0	0xbe9f9e8b	-0.31175646
1	0x3e347f95	0.17626794
2	0xbe96b4f7	-0.2943494
3	0x3e12e6e1	0.14345886
4	0xbe21e322	-0.158093
5	0xbee1e6f8	-0.44121528
6	0x3dbf1988	0.093310416
7	0xbd5b3670	-0.053518713
8	0x3e837821	0.2567759
9	0xbd875970	-0.06608856
10	0xbd94e930	-0.072710395
11	0x3d1c3009	0.038131747
12	0x3cbbde6e	0.022933211
13	0x3daf00f7	0.08545106
14	0x3ea08830	0.31353903
15	0xbe04ce90	-0.12969422
16	0x3bda5aa5	0.0066636377
17	0x3d7f7ea9	0.062376652
18	0x3ca1e0d8	0.019760534
19	0xbeb79bfe	-0.358612
20	0xbde44ec3	-0.11147835
21	0xbe77a772	-0.24184969
22	0x3e1cb6cf	0.15304111
23	0x3d807f68	0.06274301
24	0xbd5035fa	-0.050832726
25	0xbd49d795	-0.04927786
26	0xbe255a9b	-0.16147844
27	0x3d2746fe	0.040839188
28	0x3ebabe55	0.36473337
29	0x3dc04b5c	0.09389374
30	0x3e09f6a3	0.1347299
31	0x3e6a98ad	0.22909804
32	0x3e27dcd9	0.1639284
33	0xbc6bcaa4	-0.014391575
34	0x3e4ac431	0.19801404
35	0x3e051ba6	0.12998828
36	0xbd57f6f9	-0.052725766
37	0xbe75c2f2	-0.24000147
38	0x3d86fb2d	0.06590877
39	0x3d9158bc	0.07097003
40	0x3e2240a4	0.15844971
41	0x3e1174db	0.14204733
42	0xbdaab1a1	-0.08334661
43	0x3e0f3afb	0.13987343
44	0x3caac0c3	0.02084387
45	0x3ded29c3	0.11580231
46	0x3e229574	0.15877324
47	0xbea5c718	-0.3237846
48	0xbdff5aae	-0.12468468
49	0xbeb1dc7e	-0.34738535
50	0x3ea1b853	0.3158594
51	0x3ebbe5cc	0.3669876
52	0xbe00de4c	-0.125848
53	0xbe845b8a	-0.2585109
54	0x3d7a9701	0.061179165
55	0x3c314c7d	0.010821459
56	0xbed5212a	-0.41626865
57	0x3d204291	0.039125983
58	0xbe1ec7a8	-0.1550585
59	0x3ecfd57a	0.40592557
60	0xbf0ea4e7	-0.5572037
61	0xbd155fbd	-0.036468256
62	0x3da23274	0.079197794
63	0xbe481300	-0.19538498
64	0x3d52e980	0.051492214
65	0x3df5c9b1	0.1200136
66	0x3ea94783	0.33062372
67	0xbed61c98	-0.4181869
68	0xbda71e52	-0.0816008
69	0x3ec451de	0.3834371
70	0x3e948275	0.2900578
71	0xbc7d89a1	-0.015474708
72	0x3e1cda71	0.15317704
73	0xbd991d87	-0.07476335
74	0xbe24539c	-0.1604752
75	0x3e4b9c21	0.19883777
76	0xbde8b361	-0.11362339
77	0xbdd1cc1d	-0.1024401
78	0xbeca54e0	-0.3951788
79	0x3d2e79c9	0.042596612
80	0xbe32cdd1	-0.17461325
81	0xbd033434	-0.032032207
82	0xbc838f0b	-0.01605942
83	0x3e29ea56	0.16593298
84	0x3e59e434	0.21278459
85	0x3e1190aa	0.14215341
86	0x3d831cce	0.064019784
87	0xbaeccea9	-0.0018066961
88	0x3e90ac51	0.28256467
89	0x3d9efc12	0.07762922
90	0x3e21a86e	0.15786907
91	0x3cfb5a6d	0.030682767
92	0x3cb6647a	0.022264708
93	0xbed4dd3b	-0.41575035
94	0x3c725957	0.014791808
95	0x3dd0d77c	0.101973504
96	0xbe92dbf5	-0.2868344
97	0x3eb5381e	0.35394377
98	0x3e7b26df	0.24526547
99	0x3e699ce9	0.22813763
100	0xbc44d623	-0.012013945
101	0x3dc22d72	0.09481324
102	0xbe0b906b	-0.1362931
103	0x3e13f5bd	0.1444921
104	0xbe6b57b9	-0.22982682
105	0xbd5f6dae	-0.054547958
106	0xbda8a666	-0.08234863
107	0xbdd7b7ab	-0.10533079
108	0x3e4faa01	0.20279695
109	0x3dd6a543	0.1048074
110	0xbdbeaf31	-0.09310759
111	0xbda6a2df	-0.08136534
112	0x3bc9b104	0.006155135
113	0x3c61c40d	0.013779652
114	0x3c8e5516	0.017374557
115	0x3eaf7370	0.3426776
116	0x3cf40337	0.02978669
117	0x3e8c3bd9	0.2738941
118	0x3e3414bd	0.17586036
119	0x3e1656f9	0.14681615
120	0x3e4fc270	0.20289016
121	0xbe94bba1	-0.290494
122	0x3e81da74	0.2536198
123	0xbe5543dd	-0.20826669
124	0x3e485a39	0.19565667
125	0x3f098c32	0.53729546
126	0x3e396b7d	0.1810741
127	0xbe9fd1c1	-0.31214717

fc3.weight f4 [5, 192]
0	0x3f9bb8a8	1.2165728
1	0x3ffabed8	1.9589491
2	0x3f832eed	1.0248696
3	0x3fb4e86c	1.413343
4	0xbed62b33	-0.41829833
5	0xbe1f9cda	-0.15587178
6	0xc1254a25	-10.330602
7	0x3efbd90b	0.49189028
8	0xbf4f4825	-0.8096946
9	0x3ec7afa8	0.39001203
10	0x3fdd06bc	1.726768
11	0xbe1da43a	-0.15394679
12	0x3ffbf68f	1.9684619
13	0xbfce6b9a	-1.6126587
14	0x3ef4a462	0.47781664
15	0x40071d1b	2.1111515
16	0xc0146630	-2.318737
17	0xbf20b582	-0.6277696
18	0xc091138d	-4.5336366
19	0xbe69d044	-0.22833353
20	0x3e4895f8	0.19588459
21	0xbf8c6bf0	-1.097044
22	0xbeea2069	-0.45727852
23	0xbfa14530	-1.2599239
24	0xbf965050	-1.174326
25	0x40a534d8	5.1627007
26	0xbfb63123	-1.4233745
27	0xbf30eb3d	-0.69108945
28	0x4076552f	3.8489492
29	0x4082e136	4.0899916
30	0x405d3f05	3.4569714
31	0xbf7e44e5	-0.99323875
32	0x3f9cb385	1.2242285
33	0xc12a529a	-10.645166
34	0xbfde9119	-1.738803
35	0x3e00bc8f	0.1257193
36	0xbf7d56f3	-0.989608
37	0xc0bde126	-5.933734
38	0xbd869dda	-0.065730765
39	0x3fdf17f0	1.742918
40	0xc101f874	-8.1231575
41	0x3fc29dac	1.5204368
42	0x3ef05963	0.46943197
43	0xbfb97596	-1.4489009
44	0x40aec35e	5.4613485
45	0xc0008b08	-2.0084858
46	0xbf39cb68	-0.72576
47	0x3efa7b8c	0.48922384
48	0x4019c86f	2.4028585
49	0x40a072ca	5.0140123
50	0xc0d4743e	-6.6391897
51	0x3ebaf096	0.36511678
52	0x400448e1	2.0669482
53	0xc08a4c96	-4.321849
54	0xc0198637	-2.3988168
55	0xbf2e36c1	-0.680523
56	0xc0757f62	-3.8358998
57	0x3ff2410c	1.8926101
58	0x3f412f38	0.75462675
59	0xbf4ac8e0	-0.7921276
60	0x4068380c	3.6284208
61	0xc00f99bf	-2.243759
62	0xbfe24b52	-1.7679236
63	0xc0d41a8f	-6.628242
64	0xbef65106	-0.4810869
65	0xbfbb4e3d	-1.4633251
66	0x3fe01b09	1.750825
67	0xbfa265c6	-1.2687309
68	0xbece9985	-0.403515
69	0xbf378bef	-0.71697897
70	0xbf589e2a	-0.8461634
71	0xbd537c4a	-0.051632203
72	0xbf3bd4a8	-0.7337136
73	0xbe0cd7bb	-0.1375417
74	0xbc0c907a	-0.008579368
75	0x3e7363f6	0.23768601
76	0x3e71598d	0.23569317
77	0x3eeeadc0	0.46616936
78	0x3fa27a38	1.2693548
79	0x3f6cde14	0.92526364
80	0xbf8ad465	-1.0846068
81	0xbf6dfa18	-0.9295974
82	0x3f0e434a	0.55571425
83	0xbf0827b7	-0.531856
84	0xbd8361b2	-0.06415118
85	0xbf0e0b28	-0.55485773
86	0xbf2b98de	-0.6703013
87	0xbf9c911a	-1.2231781
88	0x3f6f5ff9	0.9350582
89	0x3f8057d1	1.00268
90	0x3f3a4dc5	0.72774917
91	0xbfb4450f	-1.4083575
92	0x3f1e6570	0.6187353
93	0x3f5507ac	0.8321483
94	0xbffe75a5	-1.9879652
95	0xbe0348f8	-0.12820804
96	0xbf54a428	-0.8306298
97	0x3fc3c24c	1.529367
98	0x3f01ab53	0.50652045
99	0xbf1325a5	-0.57479316
100	0x3fc52303	1.540131
101	0xbf4d49ed	-0.80190927
102	0x3f9a9f11	1.2079793
103	0x3fc512a8	1.5396318
104	0x3f16578d	0.5872734
105	0x3e1c6f5e	0.15276858
106	0x3d107e50	0.03527671
107	0xbf6a7901	-0.9159089
108	0xbeb41153	-0.35169467
109	0xbfaf4e08	-1.3695688
110	0xbffc1664	-1.9694333
111	0xbe8da616	-0.27665776
112	0x3e3c3003	0.1837769
113	0xbcd6869e	-0.026187237
114	0xbf64c358	-0.8936057
115	0xbf5d99f5	-0.86563045
116	0x3d099750	0.03359157
117	0xbda8233a	-0.08209844
118	0xbe196d91	-0.14983203
119	0x3fce698b	1.6125959
120	0x3f80b7fd	1.0056149
121	0x3c00b42b	0.007855455
122	0x3f1ac926	0.6046318
123	0xbee7ed7b	-0.4529837
124	0xbed6eefd	-0.4197921
125	0xbdbea9e7	-0.0930975
126	0xbd86a511	-0.06574453
127	0x3f6f2388	0.9341359
128	0x3fd2508d	1.6430832
129	0x3e28c9e9	0.16483273
130	0xc00d8d1d	-2.2117379
131	0xbf48e56b	-0.78475064
132	0x3e968fba	0.2940653
133	0xbf24842f	-0.64264196
134	0xbe389481	-0.180254
135	0x3f39558e	0.7239617
136	0x3e0f7037	0.1400765
137	0x3e370e6a	0.17876592
138	0xbeb2b89f	-0.3490648
139	0xbfed58ec	-1.8542762
140	0xbc4ccf7d	-0.012500641
141	0x3e6c050f	0.23048805
142	0x3e0a39e8	0.13498652
143	0x3f66c2d7	0.9014105
144	0x3f919080	1.1372223
145	0xbcbe76df	-0.023250042
146	0x3e102df6	0.14080033
147	0x3f4ba2a8	0.7954507
148	0x3f016321	0.50541884
149	0xbfa1e4fb	-1.2648004
150	0xbfe5a0d9	-1.7939712
151	0xbfa2eebb	-1.2729105
152	0x3e17eb6a	0.14835897
153	0xbf985873	-1.1901993
154	0xbfc033c1	-1.5015794
155	0x3fe20c0c	1.7659926
156	0xbf8734c1	-1.0562974
157	0xbf0f9ee9	-0.5610185
158	0x3ee4a0be	0.44653887
159	0x3e6f87ec	0.23391694
160	0xbebc0a24	-0.36726487
161	0xbea4dfea	-0.32202083
162	0x3f857e00	1.0429077
163	0xbdc17a52	-0.09447159
164	0x3e516cf3	0.20451717
165	0xbf1585a6	-0.58407056
166	0x3d01574b	0.03157739
167	0xbe9ace59	-0.30235556
168	0x3efd23c4	0.4944135
169	0x3f95c970	1.1702099
170	0x3f0cbc9d	0.549753
171	0xbc9595b8	-0.018259868
172	0x3f59fdcf	0.85152906
173	0xbe0a6b5d	-0.13517518
174	0xbfe5b792	-1.7946646
175	0xbda25971	-0.07927216
176	0x3eb95cb6	0.36203545
177	0xbfa7dd5d	-1.311443
178	0x3f507cee	0.8144063
179	0x3e98846c	0.2978853
180	0xbf7a60bb	-0.9780385
181	0x3c943b65	0.018094728
182	0xbf59647f	-0.8491897
183	0xc08482ae	-4.140952
184	0xbe4a82fc	-0.19776529
185	0x400f5d70	2.240078
186	0x3f45d714	0.7728131
187	0xbf3d78c6	-0.7401241
188	0xbf3cb586	-0.7371448
189	0xbfd6fed3	-1.6796516
190	0xc0081457	-2.1262414
191	0x3eb37a90	0.35054445
192	0xbf3cee1d	-0.7380083
193	0xbebd4eda	-0.3697422
194	0xbe8153dc	-0.25259292
195	0xbf8da245	-1.1065146
196	0x3f0824ff	0.5318145
197	0x3edd42f7	0.43215153
198	0x4129b407	10.606452
199	0x3e1ef29f	0.1552224
200	0x3fc67ea5	1.5507399
201	0x3ebe04a4	0.37112916
202	0xbfdceaf0	-1.7259197
203	0x3dbb0222	0.09131266
204	0xbf8db194	-1.1069818
205	0x3ff3f6ad	1.9059654
206	0xbed7acb0	-0.42123938
207	0xbfe19110	-1.7622395
208	0x3ffd7cc9	1.9803706
209	0x3fb6ecec	1.4291053
210	0x40356564	2.8343134
211	0x3e643938	0.22287452
212	0x3ec600eb	0.38672575
213	0x3fd9db08	1.7019968
214	0x3f1ef482	0.6209184
215	0x3fcf045a	1.6173203
216	0x3f6d4153	0.926778
217	0xc027296d	-2.6119034
218	0x3fc7083a	1.5549386
219	0x3f5b7c77	0.85736793
220	0xc01838c6	-2.3784652
221	0xc00f0b9e	-2.235084
222	0xc03b5256	-2.9269004
223	0x3f213b07	0.62980694
224	0xbf7604a6	-0.9610084
225	0x414e08d9	12.87716
226	0x3ff33def	1.9003276
227	0x3d543513	0.051808428
228	0x3edfca46	0.4370901
229	0x40b34e17	5.6032825
230	0x3d182274	0.037142232
231	0x3cfdc753	0.030978834
232	0x40fab627	7.8347354
233	0xbf68dd95	-0.9096311
234	0xbe9b5f9f	-0.3034639
235	0x3f145162	0.5793668
236	0xc094aac4	-4.6458454
237	0x3fddae2c	1.7318778
238	0x3f25f447	0.6482586
239	0xbea668c1	-0.32501796
240	0xbfc952f5	-1.5728441
241	0xc03016a9	-2.751383
242	0x40ce35bd	6.44406
243	0xbe0ad096	-0.13556132
244	0xc03a7528	-2.9134007
245	0x409beedd	4.872908
246	0x4013b702	2.308045
247	0x3f489da5	0.78365546
248	0x40a6e1cd	5.2150636
249	0xbfac930b	-1.3482374
250	0xbe52a6ae	-0.20571396
251	0x3f712d72	0.9420997
252	0xc0232353	-2.549031
253	0x40154bb4	2.3327456
254	0x403883f7	2.8830545
255	0x40b18b44	5.54825

fc3.bias f4 [5]
0	0xc08409c8	-4.126194
1	0x40585716	3.3803153
2	0x3e4b719d	0.19867559
3	0xbf1af40d	-0.6052864
4	0xc073e39a	-3.8107667

fc4.weight f4 [4, 128]
0	0xbf1c1cc8	-0.60981417
1	0xbf47a8a8	-0.77991724
2	0x3dd6f134	0.104952246
3	0xbe326e9a	-0.17425004
4	0xbe15daab	-0.14634196
5	0xbed1cba1	-0.4097567
6	0x3e83ab07	0.2571642
7	0xbbd44712	-0.006478199
8	0x3ea8e789	0.32989147
9	0xbdc0a758	-0.09406918
10	0xbdf96838	-0.12178081
11	0xbe7f0620	-0.2490468
12	0xbd280a81	-0.041025642
13	0x3f24c381	0.64360815
14	0x3fd90340	1.6954117
15	0xbf44baba	-0.7684742
16	0xbe635a0e	-0.22202322
17	0xbe6dc803	-0.2322083
18	0xbe86e268	-0.2634461
19	0x3ec9f8de	0.39447683
20	0x3c386e99	0.011256837
21	0x3f3e3990	0.74306583
22	0xbf8de31e	-1.1084936
23	0xbe820598	-0.25394893
24	0xbe95eace	-0.29280704
25	0xbeca3985	-0.3949701
26	0xbec3bca3	-0.38229856
27	0xbfcd60a7	-1.6045121
28	0x3f7abac9	0.9794126
29	0x3f4a6652	0.7906238
30	0x3f3c8c2c	0.73651385
31	0x3f0f65bf	0.5601463
32	0xbd98230e	-0.07428561
33	0xbf3a0319	-0.72660977
34	0xbf833d15	-1.0253016
35	0xbe57d3b9	-0.2107686
36	0xbf2274ad	-0.63459283
37	0xbf452871	-0.77014834
38	0x3ee4adf7	0.44663975
39	0x3e80458f	0.2505307
40	0x3f50a41c	0.8150041
41	0xbf371ad4	-0.7152531
42	0x3b60c168	0.0034294967
43	0xbe46133e	-0.19343278
44	0xbf227fee	-0.63476455
45	0xbf69dbb4	-0.91350865
46	0xbe9b4e75	-0.30333295
47	0xbf17c186	-0.5927967
48	0xbefcee99	-0.49400786
49	0xbf6ab458	-0.9168143
50	0x3f2bf358	0.6716819
51	0x3f4ce7d3	0.80041236
52	0x3d079e71	0.033110086
53	0x3e92ef7e	0.28698343
54	0x3ea147eb	0.31500182
55	0x3f20f025	0.6286643
56	0xbf03246a	-0.5122744
57	0x3d9b1db4	0.07574025
58	0x3eba38f9	0.36371592
59	0x3f0066e9	0.5015703
60	0xbf1dec9e	-0.61689174
61	0xbeab0092	-0.33398873
62	0xbc06e49f	-0.008233218
63	0xbefb6292	-0.4909864
64	0x3fb36847	1.4016198
65	0xbe58815c	-0.21143097
66	0x3f6dfca4	0.92963624
67	0xbeb55b05	-0.35421005
68	0xbeb8928b	-0.36049303
69	0x3edf2766	0.43584746
70	0x3fa65d4c	1.2997222
71	0xbeb66718	-0.3562553
72	0xbe794e75	-0.24346335
73	0xbd06d75f	-0.032920238
74	0xbf346bde	-0.7047709
75	0xbe51cdd7	-0.20488678
76	0x3d6cda25	0.057825226
77	0xbe833687	-0.2562754
78	0xbf058f1d	-0.521715
79	0x3f819517	1.0123624
80	0xbf5a6f36	-0.85325944
81	0xbd837998	-0.064196765
82	0xbe82381a	-0.25433427
83	0x3f879204	1.0591435
84	0xbf7e6777	-0.99376625
85	0xbe9fa7f7	-0.31182835
86	0x3d0241c4	0.031801
87	0xbecf1459	-0.40445212
88	0x3e939325	0.288232
89	0xbe9daaf3	-0.30794486
90	0xbe981638	-0.29704452
91	0xbf22f4f1	-0.63655
92	0xbecae295	-0.39625993
93	0xbf1408d1	-0.5782595
94	0xbe8be94b	-0.27326426
95	0xbf27eb4e	-0.6559342
96	0xbf071e95	-0.5278104
97	0x3f4e6875	0.8062814
98	0x3f8076a2	1.0036204
99	0xbf579714	-0.842149
100	0xbee46583	-0.44608697
101	0xbe667898	-0.2250694
102	0xbd98c6c7	-0.07459789
103	0xbe93d29b	-0.28871617
104	0x3f249534	0.64290166
105	0xbf48d228	-0.78445673
106	0xbdbdfb50	-0.0927645
107	0xbe2d7034	-0.16937333
108	0x4001f33d	2.030471
109	0x3f19ad21	0.600298
110	0x3fc5f558	1.5465498
111	0x3cd3b362	0.025842372
112	0xbe3f7914	-0.18698531
113	0xbf23e24f	-0.64017195
114	0xbf1b0ccf	-0.6056642
115	0x3ec3b8bc	0.3822688
116	0xbe6f9b6c	-0.23399132
117	0x3efa4acf	0.488852
118	0xc009200d	-2.1425812
119	0x3ef71a18	0.48262095
120	0xbf81479a	-1.0099976
121	0x40480301	3.1251833
122	0xbece1167	-0.40247652
123	0xbe7a71fc	-0.24457544
124	0xbe4ff45c	-0.2030806
125	0x3fabca5f	1.3421134
126	0xbe8d0430	-0.27542257
127	0x3f0f7a8f	0.56046385
128	0xbe943532	-0.28946835
129	0xbe197547	-0.14986144
130	0xbe1ba14f	-0.15198253
131	0xbe1ea7e1	-0.15493728
132	0x3e1dfe68	0.1542908
133	0xbee4d32e	-0.44692367
134	0x3eb3a399	0.35085753
135	0xbc9afa20	-0.018918097
136	0x3d71ea25	0.05906119
137	0xbf1bc289	-0.6084371
138	0xbf785884	-0.97010064
139	0xbe881c01	-0.26583865
140	0x3e87417c	0.26417148
141	0x3ea1a1f2	0.31568867
142	0x3f8a4e98	1.0805235
143	0xbf1f4f7c	-0.6223066
144	0xbe915574	-0.28385508
145	0xbea707e8	-0.3262322
146	0xbee9eff8	-0.45690894
147	0xbf045e26	-0.5170616
148	0xbcc0fb52	-0.023557339
149	0x3e9410dd	0.28919116
150	0xbf3af619	-0.73031765
151	0xbe6ff62e	-0.23433754
152	0xbf26ae98	-0.6511016
153	0xbe484fba	-0.19561663
154	0xbf0e6a89	-0.5563131
155	0xbfa54682	-1.2912142
156	0x3f48007b	0.78125733
157	0x3fd5f475	1.6715227
158	0x3f9e7b30	1.2381344
159	0x3e518aa3	0.20463042
160	0x3d129b93	0.0357929
161	0xbf1abe96	-0.6044706
162	0xbf149ddf	-0.5805339
163	0xbe282ef6	-0.16424164
164	0xbf3c275a	-0.73497546
165	0xbe9d1daa	-0.30686694
166	0x3e4aac34	0.19792253
167	0x3e2ceeeb	0.16888015
168	0x3fc4f434	1.5387025
169	0xbf236b88	-0.63835955
170	0xbd9357d1	-0.07194484
171	0xbea312da	-0.3185032
172	0xbf3fcdf1	-0.74923617
173	0xbecceed8	-0.40025973
174	0xbec81bc8	-0.39083695
175	0x3e506b61	0.20353462
176	0xbf0f0aa3	-0.55875605
177	0xbf24465f	-0.6416988
178	0x3f5b7e84	0.8573992
179	0x3f630872	0.8868476
180	0xbd06245a	-0.03274951
181	0x3d1a27c0	0.037635565
182	0x3e4ac5ce	0.19802019
183	0x3f8e69ec	1.1126075
184	0xbf1d7fdb	-0.61523217
185	0x3d8d2cdf	0.06893324
186	0xbd890107	-0.06689649
187	0x3ea9ceda	0.33165628
188	0xbe489799	-0.1958908
189	0xbef39c38	-0.47580123
190	0xbd4f57f2	-0.05062098
191	0xbf5b03ec	-0.8555286
192	0x3dd41526	0.10355596
193	0xbe9f14a0	-0.31070423
194	0x3faea30f	1.3643512
195	0xbf28d211	-0.65945536
196	0xbf0eb857	-0.5575003
197	0x3ec8440e	0.39114422
198	0x3f9f090f	1.242464
199	0xbf0e5751	-0.55601984
200	0xbf815a70	-1.0105724
201	0xbe78083a	-0.24221888
202	0xbe982a01	-0.29719546
203	0xbeef6aae	-0.46761078
204	0x3d55e31e	0.05221855
205	0xbeb5d06d	-0.3551058
206	0xbf1e687a	-0.6187817
207	0x3eeaa969	0.45832375
208	0xbef38913	-0.47565517
209	0x3d0134b0	0.031544387
210	0xbe7e5144	-0.24835688
211	0x3ea70b92	0.32626015
212	0xbf82185c	-1.0163684
213	0xbeb3804a	-0.35058814
214	0x3e4e2538	0.20131385
215	0xbd3d19d8	-0.046167225
216	0x3ee445c6	0.44584483
217	0xbebebae2	-0.37251955
218	0xbeb4a1ae	-0.35279602
219	0xbec653d6	-0.38735837
220	0xbf084833	-0.5323517
221	0xbec6216a	-0.38697368
222	0xbf1e1494	-0.6175015
223	0xbf2865a7	-0.6578011
224	0xbc98291a	-0.018574286
225	0x3f2a74ae	0.6658429
226	0x3f008a7b	0.50211304
227	0xbef0938f	-0.46987578
228	0xbee23d71	-0.441875
229	0xbe7bb53c	-0.24580854
230	0xbc1a5a77	-0.009420983
231	0xbec7b621	-0.3900614
232	0x3d95c015	0.07312027
233	0xbf5b0334	-0.8555176
234	0xbee9ce2b	-0.45665106
235	0xbfb94bf7	-1.4476308
236	0x400454ed	2.0676835
237	0x3ebc27a8	0.36749005
238	0x3fb6aca9	1.4271442
239	0xbd25e6c9	-0.040503297
240	0xbe30c49d	-0.17262502
241	0x3e0fe153	0.14050798
242	0xbc00a6d8	-0.007852279
243	0x3ed44f13	0.4146658
244	0xbe853ba8	-0.26022077
245	0x3f62ad89	0.88546044
246	0xbfae5c14	-1.362185
247	0x3e971ceb	0.2951425
248	0xbf0d83a1	-0.55278975
249	0x401aba11	2.4176066
250	0xbf720e83	-0.94553393
251	0xbecfe329	-0.40602997
252	0xbe9d37cc	-0.30706632
253	0x3fcdd284	1.6079869
254	0xbe5b0bc5	-0.21391208
255	0xbf23de0e	-0.64010704

fc4.bias f4 [4]
0	0x3daa7dae	0.08324753
1	0x3e1410b5	0.14459498
2	0x3ea55ebc	0.3229884
3	0xbd400519	-0.04687986
