mental_classifer.pth (torch_old, 186192 bytes, 6 tensors)

fc1.weight f4 [32, 1408]
00000000: b682 cebd f90f 95bd c08b 8e3a b078 913d
00000010: 19d0 93bb c893 43bc d319 34bd dc10 6bbd
00000020: e181 d23d 4b88 a63d 1834 20bc 778b 423d
00000030: 5100 17bc 34e1 0b3d 47cb 7d3d 5c34 ecbc
00000040: ff76 80bd 3f8c 153d 5dc2 13bd 69dc 9f3d
00000050: 0e8b 12bd 97e8 60bd 67d1 a4bc d3c7 29bd
00000060: 56de 62bd cc72 a5bd dfe7 f93c 0327 553d
00000070: ffbe 9b3c c359 d63c 3337 0d3d 2432 d7bc
00000080: eef6 923d dda9 22bd a571 79bc b865 6d3d
00000090: d8d8 3abd 26b4 ef3b 1a90 55bd 733b 86bd
000000a0: 9293 a7bd 4e39 73bd 9c90 bbbc e6be 99bd
000000b0: 4081 473d 716b 3f3d 5f9f 50bd 1767 f83c
000000c0: e45f 76bd 059b 16bd 2f58 49bb 5dd3 653d
000000d0: 00e5 05bd e0c4 b43c 760a b1bc 2070 37bd
000000e0: 8fb8 cb3d fc0d 75bd 5a69 c6bc 6d92 3e3d
000000f0: b51a 20bd fe86 bdbc 766c 05bd 3d36 2bbd
00000100: 196b d13d 9f6f a0bd 0836 013d 0711 b03d
00000110: 289f 0ebd 8020 2dbc 8980 373d 565e ab3c
00000120: 5b4c bbbd 2a1a 8f3d 9a7c 203c 740b 64bd
00000130: 5bcc 82bb ab05 273d 7a84 2b3d 70b1 423d
00000140: 060c 7c3d d1de 193d ee64 a83a 21b5 223d
00000150: 7033 123d 8e5c d9bc 351c 64bd 3e0a 89bd
00000160: 2ac2 7fbd 93b5 99bd bf45 8a3c c3b5 223d
00000170: 0863 39bd bbd0 a8bc 6d0c a03c c157 d23c
00000180: 32f2 68bd a7ae 96bd 288a 04bd d38c 5f3d
00000190: ef4e 9abc 1f4e 693c 46c1 2abd b6a4 f5bc
000001a0: 2f8b 993d c8db 61bd e986 2abd a9cf 973d
000001b0: fc06 a6bc 78a1 0fbd 65f7 87bd 0965 f7bc
000001c0: 8a9d 73bd 5b44 84bd 3fcf 0a3d 6a3e 933d
000001d0: 5b4c a03c 5dba f43c 6126 913d 3ce6 26bd
000001e0: efe0 c8bd 6f65 7dbd 39c0 03bc 0a92 5a3d
000001f0: 82f8 34bd c8dd 5b3d d874 6f3d 82d4 143d
00000200: b1fb 9f3d 398e 80bd 6d54 e13c c511 813d
00000210: 90c1 663c e72a 163d 56df 32bd f412 2e3d
00000220: af9a 883d 954a 59bd 0815 97b9 955e 5dbd
00000230: 704a 81bc f8f4 0dbd 3143 85bd af03 273d
00000240: 8868 9d3d 4bf3 a9bd ca43 223b 8010 19bd
00000250: 576f 4d3d aa70 3e3d 3827 d4bc 8171 513d
00000260: 2927 bc3d 014a 2dbd 0f76 773c 366b 703d
00000270: a2a2 493d 1de6 013d c6bc 7cbd 29f8 7bbd
00000280: a0fb bb3d 512f 1bbd 9e40 02ba 602e 883d
00000290: c8bf 41bc 8628 66bd 372b 82bd 1e9a 783c
000002a0: 9078 c93d 5a96 76bd 7a46 143c 0f9b 913d
000002b0: cfab 24bd cff2 47bd 730c 0bbd d96b 13bd
000002c0: 5388 c4bd 686f 9ebd ae79 0a3d 0594 a83d
000002d0: cbaf 043d 803a 963c f504 01bd 716e 3a3d
000002e0: f53c cdbd c621 9ebd d10b de3c 0ae7 a03d
000002f0: 9542 b13c 46aa 363d 8855 79bd 5fc4 7bbc
00000300: 4e08 c43d 1502 853d 5f40 1bbc 6a25 923d
00000310: 2637 3cbd d7df 02bd f2d5 523d 1fc3 0e3d
00000320: 8449 52bd 4fd5 8fbd a984 22bb 0150 4a3d
00000330: 01d2 b13b a5f6 1fbc 552b 66bd 1e38 74bd
00000340: d51f a3bd 6089 9fbd 7d2f f13b 40f5 9a3d
00000350: 7e08 253c cc6b 353d 0f3d ccbc 036d 27bd
00000360: 653d 85bd 785e 99bd 8779 2c3d a429 b43d
00000370: 63b5 c3bc c396 f3bb 8d08 91bd e460 33bd
00000380: ac4d a83d 6d3b aabd da7a 0c3d 7284 543d
00000390: 2650 a83c c24c 2d3c 5f10 09bd dbd2 76bd
000003a0: 79ba 913d d112 45bd 729a 293d 627f 8b3d
000003b0: 7728 a63c 62ed a43c f5ec f0bc 4e1c 13bd
000003c0: 7a30 cb3d a365 4cbd b43a 8c39 844e 263d
000003d0: 3f8d 533d 5692 9f3c daf2 52bd f713 283d
000003e0: 0e91 a7bd cf8c 853d 0296 1e3b 49c0 9fbd
000003f0: 682a b4bc 5ba9 59bd e68c 24bd 2da4 803d
-0.10083525 -0.07278437 0.0010875389 0.071030974 -0.004510891 -0.011937089 -0.04396994 -0.057389125
0.10278679 0.081314646 -0.009778045 0.047496285 -0.009216384 0.034150317 0.06196144 -0.02883356
-0.06272697 0.036510702 -0.03607403 0.07805712 -0.035777144 -0.054909315 -0.020119382 -0.041450333
-0.055387817 -0.080785364 0.030506073 0.052039158 0.019011972 0.026165849 0.03447647 -0.026269026
0.07176004 -0.039712775 -0.015224849 0.057958335 -0.045616955 0.0073151765 -0.05213938 -0.06554308
-0.08182444 -0.059380822 -0.022896104 -0.07507114 0.048707247 0.046733323 -0.050933238 0.030322595
-0.060150042 -0.036768932 -0.0030722728 0.056109775 -0.032689095 0.022066534 -0.021611433 -0.044784665
0.09947311 -0.05982779 -0.024220157 0.04652636 -0.03908797 -0.023135658 -0.03257414 -0.041799773
0.102255054 -0.0783379 0.03154567 0.08596998 -0.034819752 -0.010566831 0.044800315 0.020919006
-0.09145423 0.06987412 0.009795332 -0.055674985 -0.003991646 0.04077689 0.041874386 0.0475325
0.061534904 0.03756601 0.0012847462 0.03972352 0.035693586 -0.026533391 -0.055690963 -0.06691407
-0.06244103 -0.07505336 0.01687896 0.039724123 -0.04526046 -0.020607343 0.019537175 0.02567661
-0.0568716 -0.07357531 -0.03235832 0.05457766 -0.018836467 0.014239817 -0.041688226 -0.029985767
0.0749725 -0.05514124 -0.041632567 0.07412655 -0.020267002 -0.035066098 -0.06638984 -0.030199545
-0.059476413 -0.0645835 0.03388905 0.07189639 0.01956766 0.029874021 0.07087398 -0.040746912
-0.09808528 -0.061864313 -0.008041435 0.05336193 -0.044182308 0.053678304 0.05846104 0.036335476
0.07811678 -0.06277127 0.027506078 0.063022174 0.014084235 0.03666201 -0.04367002 0.042498544
0.066701286 -0.053049643 -0.00028816634 -0.05404528 -0.015782565 -0.03465745 -0.06506956 0.040774997
0.076859534 -0.082983576 0.0024759644 -0.03736925 0.05015501 0.046494164 -0.025897607 0.051133636
0.09187157 -0.042306904 0.015103831 0.058695994 0.049227364 0.031713594 -0.061703466 -0.06151596
0.09178853 -0.03788692 -0.0004968735 0.0664947 -0.011825509 -0.05619099 -0.06355899 0.015173463
0.098374486 -0.06020198 0.009050006 0.07109653 -0.040202912 -0.048815545 -0.03394742 -0.035991523
-0.09596314 -0.07736093 0.03380745 0.082313575 0.03239421 0.018338442 -0.031498868 0.04551548
-0.10021392 -0.077212855 0.027105244 0.07856567 0.021638194 0.04459598 -0.060872585 -0.015366643
0.095718965 0.06494538 -0.0094757965 0.071360424 -0.04595103 -0.03195175 0.051473565 0.03485405
-0.05133964 -0.07023107 -0.002479831 0.049392704 0.0054266457 -0.0097633945 -0.05619367 -0.05962383
-0.07965056 -0.07789874 0.0073603974 0.07566309 0.0100728255 0.044292256 -0.024931459 -0.040875446
-0.06505851 -0.074887216 0.042108085 0.08797005 -0.023890203 -0.0074337437 -0.07081709 -0.043793574
0.0821794 -0.08312116 0.034296848 0.051884122 0.02054603 0.0105773825 -0.03346288 -0.06025968
0.07115645 -0.048113648 0.041407056 0.06811406 0.020282967 0.020132724 -0.029409865 -0.035915665
0.099213555 -0.049901616 0.00026746618 0.040602222 0.051648375 0.019478958 -0.051501133 0.041034665
-0.08181964 0.06520998 0.0024198298 -0.07800347 -0.021992877 -0.053140026 -0.040173434 0.06281314

fc1.bias f4 [32]
00000000: adc5 b33c 81bd 7abc 2263 403d 4910 003d
00000010: 9026 223d a708 613b 59b4 633d ac5b bdbc
00000020: a9c2 bd3d df5d 9ebc be42 7dbc 1aae 593d
00000030: 87d4 babc e63e c83c 822e c3bc 4b17 8c3d
00000040: 0e38 103b fda6 bb3d 72b9 8bbc d5cd abbc
00000050: 6ff1 f1bc bbe4 7fbc dfe8 fcbc fa97 983d
00000060: b2dc c7b8 baf0 fc3b 3711 12bd 4798 0ebd
00000070: 9075 b3bb dbe4 a93c 74a5 d2bb c231 cdbc
0.021944845 -0.01530397 0.04696954 0.03126553 0.039587557 0.0034337433 0.055591915 -0.023115002
0.09265644 -0.01933187 -0.015457807 0.05314455 -0.022806419 0.024444055 -0.023825888 0.0684038
0.0022006067 0.0916271 -0.0170562 -0.020972172 -0.02953407 -0.015618498 -0.03087276 0.07450862
-9.530167e-05 0.0077191265 -0.03566095 -0.03481319 -0.005476661 0.02073901 -0.006428415 -0.02504814

fc2.weight f4 [32, 32]
00000000: adc0 0a3e b4fe 4bbd ae2c 0ebe b88f 7fbd
00000010: 8563 2dbe 881a 0f3e 4672 11be 7c36 06be
00000020: 70da 2cbe 4eea 2cbe 4b9b 45bd 8827 3b3c
00000030: 5e8c 703a 70d6 423c b768 d9bd 6981 cd3d
00000040: 6ddc b33b cf6f 9fbc 32e7 edbd 8ac1 053d
00000050: 3300 193e 6c7a 01be 8ae4 303d ef1a 12be
00000060: 31d7 d93c b4b2 e1bd 8906 c83d a16c 843c
00000070: c880 893c 4858 2dbd 3196 1d3e bc45 68bc
00000080: 2c2b 92bc d34e 383e e9d5 3fbe e35f 96bd
00000090: 481e 5b3e dee8 60ba f46e a93d 6028 6bbd
000000a0: c204 5d3b 7e38 383e 76a4 a83d 73b7 553e
000000b0: c10c 03bd 0687 68bd 4964 e6bd 5bea bb3d
000000c0: 3c44 f5bc 2868 b6bd b03b 6fbc 45c1 afbd
000000d0: 2bb2 1a3e aa93 05bd c64f 973d 9afd 5e3e
000000e0: 4729 163d 144e c43d 1676 14be 9216 c03d
000000f0: aad7 2fbe 880b 20bd 33ee be3c 0814 6d3d
00000100: b79c afbd 6d10 243e eff2 323c 9a47 e1bd
00000110: e78b e33b c101 33be 29da 17be d0d6 5d3d
00000120: 20ef 073e ce8a e23d d116 973d ca4b a63d
00000130: 4143 3abe 5dc4 9dbb 3053 81bc 7c6b 013e
00000140: 27f2 b2bc 6b38 0fbe fae5 ccbd 11d5 26bd
00000150: 2071 503d c2ef 1d3e 3279 fabd bf80 29be
00000160: 9a4c 5cbd aa1c 913d 1ce6 a83d 9258 0ebe
00000170: 40b0 83bb 3e66 813a a995 1bbd ff87 1c3e
00000180: de2f 02be 2a66 febc 5547 423e 233e 25bd
00000190: b00e 0fbe 2c47 883d cac2 563e 885f 313e
000001a0: 056d fa3d 8327 1ebe fb58 f8bd e6bd edbd
000001b0: 8f0f ddbb a31c 203e 18e3 573d 277d 393e
000001c0: 0ac5 1c3e 0f9d 123e 08a7 82bc f2ef cd3d
000001d0: bcfc 3fbe dd8b 25be 0858 75be d910 313e
000001e0: e19b d63d 91a8 2f3c fbf3 8e3d 387a 5dbd
000001f0: c0ac 3e3c 3a67 35bd 92e5 0cbe 0993 923d
00000200: 5025 4c3d bfda 0a3e 7c89 53bd 409e 543d
00000210: 409b bd3c 4497 b9bd ab08 e2bd 4a48 f13d
00000220: 1428 0ebe 10a8 923c b476 2abe a44d d8bd
00000230: 77ec edbd 7a22 cf3d 4c78 4d3d 2e4c ddbd
00000240: b2a0 cdbd 0056 1dbe ed94 bfbd 28ea 8abd
00000250: 2c2e 0abd 6748 21be 2099 e9bb 2845 cc3c
00000260: 9bbd 2abe f8fb 8fbc dab5 fabd 890e 343e
00000270: 080c d03c db81 e3bd d08c d7bd 3355 0cbe
00000280: e78c 23be f7a6 2b3e b9df 2d3e a25d c2bd
00000290: 8972 0bbd 6345 ee3d 47db 113e b8b4 7bbd
000002a0: db81 163e ce04 773c 382e 4abd 62a5 3b3e
000002b0: 7d70 c9bd dbcb a03c d231 ad3d c422 813d
000002c0: efeb 18bd 51a3 c7bc f563 bbbd 7bb7 1d3d
000002d0: 2d93 1dbe c0d5 533b 5794 13be ce2e 223d
000002e0: f8f2 7cbd e937 25be b42d 0ebc 66fe c03d
000002f0: 1548 27be 8474 2ebe badb 853c 7219 80bc
00000300: 12d4 abbc 8ccd 3bbc f741 6e3d d191 f53d
00000310: 1f0b 17bd fd40 dd3d cea8 8d3d d41e ba3d
00000320: a96b 443d 68cf fa3d 3217 b3bd 8e76 84bd
00000330: bee4 02bd 1161 083e c590 25be daff a93d
00000340: ac6d ca3d de0b 4fbd c7f6 07be f31c e93d
00000350: efc5 cbbd 544b 2b3e eef2 df3d 6644 0dbe
00000360: 62b6 a83c 6e28 f2bd f5ae 8dbd 676f 0dbe
00000370: e014 783c ec02 923d 624f 96bd 668c cfbd
00000380: 05d8 0d3e 912c 0c3e 7529 873d a30a 64bc
00000390: c771 4a3d 3547 c6bd a608 35bd 0328 da3d
000003a0: 1459 a8bd 0184 6d3b 62cd 02be 2365 933d
000003b0: 6ef1 22be 0a74 46bd 59c6 05be 11ac f13b
000003c0: 4b85 073d 494f 0c3e a0cd a23b cde3 d9bd
000003d0: 081a c6bd 5a6c 0fbe 33fd 1cbe 760b cebd
000003e0: 7311 d63d fee9 10bd 3365 11bd 9270 193e
000003f0: dc98 1abe 21d0 1d3e 601a a33d f697 2c3e
0.13550062 -0.04980345 -0.13884231 -0.06239292 -0.16932495 0.13974965 -0.14203748 -0.13106722
-0.16880202 -0.16886255 -0.048243802 0.011422999 0.000917619 0.011891946 -0.10615676 0.10034449
0.0054889233 -0.019462494 -0.11616363 0.032655276 0.14941482 -0.12644356 0.0431867 -0.14268087
0.02659187 -0.11020413 0.097668715 0.01616508 0.01678504 -0.04232052 0.15389325 -0.014176782
-0.017842852 0.17998819 -0.18733944 -0.07342508 0.2139827 -0.0008579622 0.08273116 -0.05741155
0.003372476 0.179903 0.082344934 0.20870762 -0.031994585 -0.056769393 -0.112495966 0.09175559
-0.029939763 -0.08906585 -0.014601633 -0.08581785 0.15107028 -0.032611527 0.073882625 0.21776429
0.03666046 0.09585205 -0.14498171 0.09379305 -0.17172113 -0.039073497 0.023306942 0.05788043
-0.08574813 0.16021891 0.010922178 -0.10999985 0.006944168 -0.17481138 -0.14829315 0.05415994
0.13274813 0.11061631 0.07377399 0.08119924 -0.18189718 -0.004814668 -0.015786737 0.12638658
-0.021843983 -0.13986365 -0.10004802 -0.04073054 0.050889134 0.15423492 -0.122301474 -0.16553019
-0.05378399 0.07085545 0.08247015 -0.13900974 -0.0040188134 0.000987239 -0.037984524 0.15286253
-0.12713572 -0.031054575 0.18972524 -0.04034246 -0.13970447 0.066542 0.20972744 0.17321599
0.12227825 -0.1544476 -0.12126347 -0.11608486 -0.0067462395 0.15635924 0.052706808 0.18114148
0.1530954 0.14317726 -0.015948787 0.100555316 -0.18748754 -0.16166635 -0.23959363 0.17291583
0.1047895 0.010721342 0.06980129 -0.054071635 0.0116378665 -0.044287898 -0.13759449 0.07156951
0.04984027 0.13560008 -0.051644787 0.05190873 0.023145318 -0.09062055 -0.110368095 0.11781366
-0.13882476 0.017902404 -0.16646844 -0.10561684 -0.11617368 0.10113998 0.050163552 -0.10805546
-0.10040416 -0.15364838 -0.09354577 -0.06782943 -0.03373544 -0.15750276 -0.0071288496 0.02493532
-0.16673891 -0.017576203 -0.12241717 0.1758367 0.025396362 -0.11108752 -0.10524905 -0.13704376
-0.15971719 0.16762911 0.16979875 -0.09490515 -0.034044776 0.11634328 0.14243804 -0.061451644
0.14697973 0.015076829 -0.049360484 0.18324807 -0.098359086 0.019628456 0.08456768 0.06305459
-0.03733438 -0.024369868 -0.09149925 0.03850506 -0.15388174 0.003232345 -0.14412056 0.039595418
-0.06175515 -0.1613461 -0.008677889 0.09423523 -0.16336091 -0.17036635 0.016340125 -0.015637133
-0.020975146 -0.01146258 0.058168378 0.11990703 -0.03687584 0.10803411 0.069169626 0.09087911
0.047954235 0.12246591 -0.087446585 -0.06467925 -0.031956427 0.13318278 -0.16168506 0.08300753
0.098841995 -0.050548427 -0.13277732 0.11382475 -0.09949862 0.16727954 0.10935007 -0.13795623
0.02059478 -0.118241176 -0.06918136 -0.13812028 0.015141696 0.071294636 -0.0733936 -0.10134201
0.13851936 0.13688876 0.06599704 -0.013918552 0.049424913 -0.096815504 -0.0441977 0.10652163
-0.08220115 0.003624201 -0.1277366 0.07197025 -0.1591241 -0.048450507 -0.13063945 0.0073752482
0.033086102 0.1370212 0.00496836 -0.10639153 -0.09672934 -0.14006177 -0.15330963 -0.1006078
0.10452547 -0.035379402 -0.0354969 0.14984348 -0.15097374 0.15411426 0.07964015 0.16854843

fc2.bias f4 [32]
00000000: 7592 133d f324 36bd 7d30 3d3d b572 293e
00000010: 81e9 efbd 5cc7 37bc d6d3 3abe d1f2 293e
00000020: 4114 d03d 545b 313c 1810 1fbd 66e5 f7bd
00000030: 9635 27bd 9f1d 6bbd 7ad3 ef3d 0705 023e
00000040: 6a9c b63d a4ca 4dbd 8bac 023d e06e 223e
00000050: 24c5 10be 6be9 12be a11b 7bbc 880a 903d
00000060: df0a c9bd 47be bb3d c465 0d3e 8a1a b1bd
00000070: 1c7b 00bd bf46 203d 334b a53c 75b9 b63d
0.036028344 -0.04446883 0.04618882 0.16547664 -0.11714459 -0.011216965 -0.18244871 0.16596533
0.10160113 0.010824997 -0.038833708 -0.12104301 -0.040822588 -0.057401296 0.11710258 0.1269723
0.08916552 -0.05024208 0.03190283 0.15862608 -0.14137703 -0.14346854 -0.015326411 0.07033259
-0.098165266 0.09167152 0.13808352 -0.0864764 -0.031367406 0.03912997 0.02017746 0.08922092

fc3.weight f4 [5, 32]
00000000: de68 18be cb0d 37bd a5ab 183e cd51 34bd
00000010: d07e a7bd 684b 14be 5226 6b3d 948b 7d3d
00000020: c489 423c 02a3 8ebe 63d4 84be bc38 c53b
00000030: dfb2 ab3c 67fd 42be 4ec2 783e b08f 483d
00000040: cd09 9e3d 4fc1 2cbe 9c50 b13a 9bc6 00bd
00000050: 4a37 2d3e a262 b3bd 9a7c f13d 3d0c 7dbd
00000060: 5f5c c13c 5603 d4bd 4446 323e 96f5 fa3d
00000070: 9ad4 31be 62cd 4fbe ac69 3a3e 3bcc 01bd
00000080: f598 bebd e98a 2e3e 4824 2fbd 01bf e9bc
00000090: 0c46 87bd 83e3 32be 218d f73c 6448 18be
000000a0: 4690 203e b232 183e 68c2 7c3d 735b 31be
000000b0: 91e8 f03d 502a 453e 3516 473d fe54 0c3e
000000c0: 1bac 4d3d f785 8dbd c6cb bc3d e6d0 46be
000000d0: 0bc4 dd3d f375 66bd 6cd7 143c bb51 54be
000000e0: 71ed 1fbe aa97 10be 2479 373e 0312 d33d
000000f0: 8e62 a53d faf7 553e da3d 80bc 811d e7bd
00000100: a5a6 2d3e 052c d3bd 1d6e 5fbb 4613 c83c
00000110: fc6c 303d 5d52 2dbe 4bee f43d 8f71 98bd
00000120: df83 793e d6dd 6dbe 30a7 71be fc56 7abd
00000130: 1d6f 4dbe a966 1abd cdaa 643d 2054 18be
00000140: 7dde 383e 7868 07bd e220 d23b 06e0 6bbd
00000150: 86b0 0e3e 1095 70be 08d7 c1bd 7e16 ea3c
00000160: d391 7cbd 12ea 6c3d bfbe d3bd e7a9 d3bd
00000170: fe6a e03d ffb7 373e 0a59 a1bd ed20 3e3e
00000180: 7a05 b9bd 37d1 00be f82a 643d 7bf9 75be
00000190: c018 663c de96 12be 0c39 163e 9c61 98bd
000001a0: f8f7 9a3b 4d6e fb3d f3ac 693e 5b10 59be
000001b0: dae4 d9bd acae 42be 3a87 b03d 6e2f 39bd
000001c0: c78e 303e f3ba 6cbd da08 a93c f15a bb3c
000001d0: 3623 59be 6327 643d d57a 01be 444f 64be
000001e0: ec41 8e3d 25ca d6bd 07db 663d b2f6 1cbe
000001f0: 4643 2ebe aef0 6bbd 44cb 59be f80f fd3d
00000200: 3cdb 28be 61e8 853d eca1 063e a97c 99bc
00000210: d279 0bbe 8be4 00be 6386 093e 8962 ae3d
00000220: 7d5b 30bd bec6 383e 67ff 50be 43ee 11be
00000230: cff4 453e 9b3d debd 5cd7 1fbe face 05be
00000240: e659 ba3c 9f5f c8bd dce6 ba3d cc97 30be
00000250: 4ef2 e3bd eea3 edbc c221 0a3e 383b 80bc
00000260: 53d0 66be 4d79 5fbe ee27 c3bd 5291 28bc
00000270: 2b79 a2bd 606e 9bbb 1c79 273e 93fa b13d
-0.14883754 -0.04469089 0.14909227 -0.044023324 -0.081784844 -0.1448189 0.057409592 0.06190069
0.011873666 -0.2785874 -0.25943288 0.006018726 0.020959316 -0.19041978 0.24292871 0.048965156
0.07716713 -0.16870616 0.0013528052 -0.031439405 0.16915622 -0.08759047 0.11791344 -0.06177925
0.023603616 -0.10352199 0.17409617 0.12253873 -0.17366257 -0.20293191 0.18204373 -0.03168891
-0.09306518 0.17045178 -0.04275921 -0.02853346 -0.06605157 -0.17469601 0.030218663 -0.14871365
0.15680036 0.14863089 0.061708838 -0.17320041 0.117631085 0.19254422 0.048605163 0.13704297
0.05021296 -0.069103174 0.09218554 -0.19415626 0.10828408 -0.05626483 0.009084564 -0.20734303
-0.1561792 -0.14120355 0.17917305 0.1030617 0.080754384 0.20895377 -0.015654493 -0.11284924
0.16958101 -0.103111304 -0.0034092732 0.024423253 0.043072686 -0.1692595 0.11959513 -0.074435346
0.24366711 -0.23229155 -0.23598933 -0.06111811 -0.20061918 -0.03769556 0.05582695 -0.14875841
0.18053623 -0.033058614 0.0064126113 -0.057586692 0.13934526 -0.23494363 -0.09464842 0.028575178
-0.061662506 0.057840414 -0.10339116 -0.10335141 0.10957907 0.17941283 -0.07878311 0.18567248
-0.09034248 -0.12579809 0.05570504 -0.2402095 0.014043987 -0.14315364 0.14670199 -0.074404925
0.004729267 0.122768976 0.22819881 -0.21197645 -0.10639353 -0.19011945 0.086195424 -0.045211248
0.17241965 -0.057795476 0.020634104 0.022870513 -0.21204838 0.055701625 -0.12644513 -0.22295862
0.06946167 -0.10487775 0.056361225 -0.15328482 -0.1701785 -0.057602577 -0.21268946 0.123565614
-0.16489881 0.065384634 0.13147706 -0.0187362 -0.1362069 -0.12587182 0.1343017 0.08514888
-0.043056 0.18044564 -0.20409928 -0.14251046 0.19331668 -0.10851594 -0.15609497 -0.13067237
0.022747945 -0.09783863 0.09126064 -0.17245406 -0.111302 -0.029008832 0.1348944 -0.015653238
-0.22540407 -0.21823616 -0.095291 -0.010288553 -0.07933267 -0.0047433823 0.16354793 0.08690371

fc3.bias f4 [5]
00000000: 6afe 4dbe 97fd 17be b326 f33d 49cc cb3d
00000010: 37d1 cebd
-0.20116583 -0.1484283 0.11872616 0.09951074 -0.10098498
