mental_classifer.pth (torch_old, 186188 bytes, 6 tensors)

layers.0.weight f4 [32, 1408]
0.03139325 -0.052497607 0.010017052 0.020817026 -0.021304425 0.008856015 -0.045495525 -0.053591456
-0.029337917 0.061037704 -0.00085040473 -0.0026935763 -0.026001489 0.0150219435 0.063482754 -0.024901707
0.06962442 0.016262587 -0.027156569 0.027849955 -0.05257111 -0.035729937 -0.02164463 -0.037652977
0.07697856 -0.060495447 0.021570537 0.0018280831 0.035807014 0.006983899 0.03599812 -0.022471368
-0.060483556 -0.019448005 -0.0063026175 0.0077483887 -0.062410228 -0.012399176 -0.053667188 -0.06174408
0.050543815 -0.039187733 -0.014040322 -0.024949038 0.065492116 0.027581997 -0.05246159 0.02652163
0.072253056 -0.016479082 -0.012007233 0.006090208 -0.04947736 0.0022017614 -0.023138694 -0.040983014
-0.03287728 -0.039534852 -0.015285294 -0.003679202 -0.055882957 -0.0038327165 -0.03410131 -0.037998687
-0.030063568 -0.058091898 0.022611735 0.035860017 -0.05158927 0.008579531 0.046327088 0.01712194
0.040809106 0.04958471 0.00086114387 -0.005457311 -0.020783864 0.021607816 0.043403096 0.043734677
-0.07083773 0.017273579 -0.0076437495 -0.010495121 0.05248723 -0.00736452 -0.05721889 -0.06311209
0.06990867 -0.054779828 0.007944769 -0.010479915 -0.06205481 -0.001475004 0.021065678 0.021879172
0.07542791 -0.053318564 -0.023456436 0.0043822606 -0.035632487 -0.005211631 -0.04321486 -0.026187709
-0.057435364 -0.03484794 -0.03271212 0.023914883 -0.03706219 -0.01578535 -0.067914724 -0.02639969
0.07285204 -0.044316743 0.024954995 0.021739438 0.03636277 0.010671831 0.07239679 -0.036949355
0.034247264 -0.041598555 0.00087742077 0.0031657554 -0.060976986 0.034527652 0.059988286 0.032536305
-0.053992793 -0.04248315 0.018576918 0.012813279 0.030869571 0.017500207 -0.045198333 0.038685024
-0.0656087 -0.032813728 -0.009187206 -0.0038944467 -0.032575957 -0.015505599 -0.06659804 0.036977306
-0.05538052 -0.06269564 -0.006456768 0.0127883 0.06694936 0.027351715 -0.027424052 0.047336347
-0.040469658 -0.022015175 0.0061689094 0.0084790625 0.06602109 0.01241935 -0.06323065 -0.05771485
-0.040573485 -0.017592462 0.008366545 0.016299924 -0.028617328 -0.036845516 -0.06508517 0.011366693
-0.034025043 -0.039908133 0.000119450764 0.020884147 -0.05699803 -0.029569276 -0.035440326 -0.03219371
0.036388498 -0.057173986 0.024881946 0.032128107 0.04918799 -0.00082824985 -0.033027306 0.041717034
0.032145202 -0.05693196 0.018201012 0.028356558 0.038416527 0.024444556 -0.062401123 -0.011568458
-0.036340266 0.0446566 -0.00053939334 0.021145135 -0.062744915 -0.012334866 0.05300187 0.031055916
0.0810456 -0.049942166 -0.011409919 -0.0008208974 0.022180209 0.009408613 -0.057687517 -0.055826377
0.05248737 -0.057618324 -0.0015488788 0.025452772 0.026777359 0.025112705 -0.026459448 -0.037068453
0.06731987 -0.0545947 0.033175107 0.03775565 -0.040683065 0.012185825 -0.07234084 -0.039995097
-0.05018345 -0.06282984 0.025362704 0.0017065244 0.03731501 -0.008833616 -0.034988884 -0.056461398
-0.061064053 -0.027825687 0.03247168 0.017893482 0.037076678 0.000989782 -0.030938456 -0.032116015
-0.03294341 -0.029624017 0.0091348365 -0.009608562 0.06844147 0.00021249498 -0.053029515 0.037237506
0.050420776 0.04493184 0.011353929 -0.027789637 -0.03878834 -0.033668343 -0.04169944 0.05901323
00000000: 3596 003d bb07 57bd 901e 243c 7888 aa3c
00000010: 9e86 aebc d218 113c 8459 3abd b782 5bbd
00000020: 1256 f0bc ac02 7a3d b2ed 5eba b686 30bb
00000030: 1301 d5bc 991e 763c 3f03 823d aafe cbbc
00000040: 3f97 8e3d 1e39 853c 7477 debc 9725 e43c
00000050: ce54 57bd 8e59 12bd 1450 b1bc 023a 1abd
00000060: efa6 9d3d 13ca 77bd b2b4 b03c 4a9c ef3a
00000070: 60aa 123d 31d9 e43b c472 133d e015 b8bc
00000080: 9bbd 77bd 6c51 9fbc 3086 cebb 32e6 fd3b
00000090: dea1 7fbd ea25 4bbc 20d2 5bbd 5ce7 7cbd
000000a0: 0807 4f3d 5183 20bd 6109 66bc ed61 ccbc
000000b0: bb20 863d a4f3 e13c f7e1 56bd e443 d93c
000000c0: 69f9 933d 24ff 86bc fcb9 44bc 5e90 c73b
000000d0: c6a8 4abd 6d4b 103b 5c8d bdbc cedd 27bd
000000e0: 54aa 06bd 4cef 21bd 2b6f 7abc c41e 71bb
000000f0: 87e5 64bd 502e 7bbb d1ad 0bbd 83a4 1bbd
00000100: df47 f6bc c5f1 6dbd 3f3c b93c f4e1 123d
00000110: 454f 53bd 2991 0c3c 79c1 3d3d 5043 8c3c
00000120: 7327 273d 5619 4b3d 63be 613a 3ed3 b2bb
00000130: ec42 aabc e002 b13c 72c7 313d 2223 333d
00000140: 5f13 91bd 5281 8d3c 6b78 fabb baf3 2bbc
00000150: dafc 563d 1252 f1bb 5b5e 6abd e940 81bd
00000160: 472c 8f3d d060 60bd c72a 023c f3b3 2bbc
00000170: 2f2d 7ebd ec54 c1ba ee91 ac3c f33b b33c
00000180: f379 9a3d 9164 5abd b627 c0bc 1199 8f3b
00000190: 5ff3 11bd 54c6 aabb 1102 31bd 9b87 d6bc
000001a0: 5841 6bbd b7bc 0ebd 25fd 05bd 25e9 c33c
000001b0: 86ce 17bd 4750 81bc e016 8bbd 2a44 d8bc
000001c0: 7333 953d 7985 35bd 6b6e cc3c e816 b23c
000001d0: 21f1 143d e7d8 2e3c c544 943d 3558 17bd
000001e0: dc46 0c3d 3f63 2abd b602 663a 9078 4f3b
000001f0: 01c3 79bd de6c 0d3d 47b6 753d ca44 053d
00000200: 8c27 5dbd d002 2ebd 9f2e 983c caee 513c
00000210: 2fe2 fc3c 985c 8f3c e321 39bd 3074 1e3d
00000220: db5d 86bd b067 06bd ef85 16bc f939 7fbb
00000230: 5e6e 05bd 320b 7ebc 8e64 88bd 8475 173d
00000240: afd6 62bd 9266 80bd 4c93 d3bb 0586 513c
00000250: bf1c 893d b410 e03c 68a8 e0bc c2e3 413d
00000260: 83c3 25bd 2b59 b4bc 9024 ca3b c4eb 0a3c
00000270: 1136 873d 887a 4b3c 127f 81bd 6866 6cbd
00000280: 6230 26bd 111e 90bc d513 093c 6b87 853c
00000290: e36e eabc 53eb 16bd 604b 85bd 5e3b 3a3c
000002a0: d85d 0bbd b676 23bd a481 fa38 3b15 ab3c
000002b0: c476 69bd 443b f2bc e029 11bd 8ddd 03bd
000002c0: 1b0c 153d 452f 6abd 39d5 cb3c c398 033d
000002d0: 5979 493d e81e 59ba a447 07bd 7bdf 2a3d
000002e0: b0aa 033d 7d31 69bd 4a1a 953c 034c e83c
000002f0: a65a 1d3d f33f c83c 5298 7fbd a189 3dbc
00000300: 88d9 14bd d7e9 363d 1366 0dba 9038 ad3c
00000310: 6880 80bd 2e18 4abc 7d18 593d fa68 fe3c
00000320: 3cfb a53d 2890 4cbd abf0 3abc 7e31 57ba
00000330: 45b3 b53c 9526 1a3c bf49 6cbd 33aa 64bd
00000340: fffc 563d 3101 6cbd c003 cbba 5582 d03c
00000350: 315c db3c 29b9 cd3c 7cc1 d8bc 17d5 17bd
00000360: 00df 893d b19e 5fbd 9fe2 073d aba5 1a3d
00000370: 49a3 26bd 0ea7 473c 6f27 94bd e6d1 23bd
00000380: 298d 4dbd eeac 80bd 72c5 cf3c 75ad df3a
00000390: a0d7 183d dfba 10bc 8150 0fbd 1144 67bd
000003a0: 4d1e 7abd b2f2 e3bc 0601 053d 5a95 923c
000003b0: b7dd 173d 93bb 813a a572 fdbc 158c 03bd
000003c0: abef 06bd 11ae f2bc 48aa 153c 3b6d 1dbc
000003d0: 0b2b 8c3d 30d1 5e39 7a35 59bd 5b86 183d
000003e0: 0486 4e3d 730a 383d d405 3a3c 18a7 e3bc
000003f0: 86e0 1ebd d1e7 09bd 08cd 2abd dbb7 713d

layers.0.bias f4 [32]
0.053677186 -0.0753843 -0.017665027 -0.006991039 0.032828424 0.017259061 -0.008916652 -0.023110846
0.049477402 0.00085508026 -0.022687485 0.060083818 -0.02375007 0.010200355 -0.023825888 0.04925931
0.013027799 0.10701691 -0.0170562 0.022821024 0.00061422325 -0.015540021 -0.042890243 0.07291814
-0.0037156907 0.060551044 0.0039997175 0.016159715 -0.005476661 0.020605473 0.034370255 0.049588628
00000000: 9cdc 5b3d 1563 9abd 3fb6 90bc 1615 e5bb
00000010: 1977 063d e062 8d3c 2617 12bc f552 bdbc
00000020: d1a8 4a3d 7727 603a 1bdb b9bc 731a 763d
00000030: 828f c2bc 641f 273c 822e c3bc 21c4 493d
00000040: 8d72 553c af2b db3d 72b9 8bbc 28f3 ba3c
00000050: d303 213a 929b 7ebc aead 2fbd 1b56 953d
00000060: f282 73bb 5f04 783d 1010 833b 6161 843c
00000070: 9075 b3bb cfcc a83c d3c7 0c3d 721d 4b3d

layers.2.weight f4 [32, 32]
0.1991654 -0.13310674 -0.13790259 0.0058911517 -0.13039057 0.21831551 -0.09598092 -0.13109389
-0.19228731 -0.21795727 -0.08886975 0.03136897 0.0009138483 0.06773523 -0.10615676 0.17766643
-0.02025016 0.051816896 -0.11616363 0.038171016 0.13215777 -0.12644356 0.07881971 -0.088926084
-0.007820451 -0.13172364 0.097668245 0.01616249 0.01678504 -0.04232052 0.21632758 0.051831238
-0.021849338 0.1103047 -0.15997395 -0.096961536 0.20830804 -0.011021583 0.08627532 -0.05741155
-0.049471 0.18518385 0.07083871 0.14856976 0.024806285 -0.09942817 -0.112495966 0.114902616
-0.08166218 -0.0522807 -0.014601633 -0.013070876 0.14414425 -0.032381758 0.005748135 0.1986256
0.0075841183 0.07887196 -0.078490324 0.08639254 -0.17172113 -0.039073497 -0.0084574325 0.08967261
-0.056093965 0.2699905 0.010313388 -0.052401792 0.047092136 -0.20991276 -0.15004793 0.05415994
0.1900587 0.16164511 0.114057854 0.027474673 -0.17455924 0.10509039 -0.015786737 0.15216446
0.028119642 -0.20691139 -0.10004802 0.006295912 0.12759522 0.15300517 -0.052272312 -0.18723182
-0.08965719 0.107248865 0.10922869 -0.11450466 -0.0040188134 0.0013129693 -0.004470083 0.0785965
-0.10363016 0.013759661 0.11975686 0.0039813323 -0.120620064 0.09913615 0.2657955 0.17330186
0.07409502 -0.13355741 -0.11168517 -0.21115299 -0.0014504155 0.14883132 0.052706808 0.24855939
0.12463907 0.16595569 -0.015948787 0.12732035 -0.18082842 -0.16286474 -0.16874583 0.1640013
0.093425825 0.026090907 0.064721756 -0.026201878 0.0116378665 -0.044110578 -0.16768764 0.120836094
0.04984027 0.13560008 -0.051644787 0.05190873 0.023145318 -0.09062055 -0.110368095 0.11781366
-0.13882476 0.017902404 -0.16646844 -0.10561684 -0.11617368 0.10113998 0.050163552 -0.10805546
-0.10040416 -0.15364838 -0.09354577 -0.06782943 -0.03373544 -0.15750276 -0.0071288496 0.02493532
-0.16673891 -0.017576203 -0.12241717 0.1758367 0.025396362 -0.11108752 -0.10524905 -0.13704376
-0.1597808 0.16762911 0.12229799 -0.124226 -0.062640145 0.1103139 0.11293681 -0.061451644
0.09875344 0.022981092 -0.06446707 0.12081157 -0.12625265 -0.010923944 0.08456768 0.017161569
-0.06399733 -0.030615047 -0.09149925 0.03303849 -0.16062121 0.003232345 -0.14735192 -0.014606801
-0.09339231 -0.18485075 0.011992946 0.103514895 -0.16336091 -0.17036635 0.0070519345 -0.022935774
0.005558237 0.09587157 0.069292605 0.19085783 0.0055325706 0.13949454 0.10078547 0.09124823
0.0838341 0.14606935 -0.051722556 -0.06957737 -0.021436784 0.19634296 -0.16168506 0.119448565
0.13387308 -0.11209182 -0.13277732 0.14557692 -0.04164037 0.16722816 0.17040195 -0.11239386
0.024660014 -0.0856772 -0.0574965 -0.11649318 0.015141696 0.071294636 -0.036027867 -0.12642549
0.1058854 0.040543776 0.080668084 0.015549887 0.06201504 -0.0609425 -0.031243453 0.1065538
-0.078774005 0.057265494 -0.16638671 0.13666503 -0.15682167 -0.045986474 -0.13063945 -0.05256756
0.094149776 0.19989593 0.00496836 -0.17669752 -0.15676503 -0.13095292 -0.08830445 -0.032346852
0.17616053 0.021668898 -0.03297729 0.1485071 -0.15097374 0.15471187 0.14971955 0.23286293
00000000: 04f2 4b3e 224d 08be 5636 0dbe 900a c13b
00000010: 1b85 05be 1a8e 5f3e a591 c4bd 7a3d 06be
00000020: f7e6 44be 3130 5fbe 5801 b6bd c07c 003d
00000030: 528f 6f3a c5b8 8a3d b768 d9bd 30ee 353e
00000040: aae3 a5bc f43d 543d 32e7 edbd 3659 1c3d
00000050: 5e54 073e 6c7a 01be 3a6c a13d e11e b6bd
00000060: 5921 00bc 90e2 06be 4a06 c83d 3367 843c
00000070: c880 893c 4858 2dbd fa84 5d3e fe4c 543d
00000080: 62fd b2bc 6ee7 e13d 36d0 23be c593 c6bd
00000090: b44e 553e df93 34bc 1db1 b03d 6028 6bbd
000000a0: 1aa2 4abd d6a0 3d3e e313 913d ac22 183e
000000b0: 8d36 cb3c ffa0 cbbd 4964 e6bd 1052 eb3d
000000c0: 803e a7bd 4a24 56bd b03b 6fbc 3a27 56bc
000000d0: 8d9a 133e bca2 04bd da5a bc3b 8264 4b3e
000000e0: 3284 f83b 9f87 a13d 89bf a0bd 92ee b03d
000000f0: aad7 2fbe 880b 20bd 0b91 0abc 46a6 b73d
00000100: c9c2 65bd 323c 8a3e 7cf9 283c 43a3 56bd
00000110: afe3 403d 5ff3 56be 2aa6 19be d0d6 5d3d
00000120: bf9e 423e 4c86 253e 2a97 e93d 9112 e13c
00000130: a8bf 32be a139 d73d 3053 81bc 00d1 1b3e
00000140: 2a5b e63c 94e0 53be fae5 ccbd f04d ce3b
00000150: 52a8 023e 63ad 1c3e 7e1b 56bd b3b9 3fbe
00000160: 309e b7bd 4ba5 db3d 4bb3 df3d 6b81 eabd
00000170: 40b0 83bb f017 ac3a c679 92bb 34f7 a03d
00000180: 0d3c d4bd 3370 613c 1643 f53d d675 823b
00000190: a707 f7bd e507 cb3d 5916 883e 0b76 313e
000001a0: 21bf 973d 46c3 08be 32bb e4bd 7d38 58be
000001b0: de1b beba 3d67 183e 18e3 573d 5a86 7e3e
000001c0: c542 ff3d 4af0 293e 08a7 82bc 4460 023e
000001d0: 162b 39be 04c6 26be b5cb 2cbe f5ef 273e
000001e0: 0a56 bf3d 99bc d53c d78c 843d 52a5 d6bc
000001f0: c0ac 3e3c 4bad 34bd 4fb6 2bbe ea78 f73d
00000200: 5025 4c3d bfda 0a3e 7c89 53bd 409e 543d
00000210: 409b bd3c 4497 b9bd ab08 e2bd 4a48 f13d
00000220: 1428 0ebe 10a8 923c b476 2abe a44d d8bd
00000230: 77ec edbd 7a22 cf3d 4c78 4d3d 2e4c ddbd
00000240: b2a0 cdbd 0056 1dbe ed94 bfbd 28ea 8abd
00000250: 2c2e 0abd 6748 21be 2099 e9bb 2845 cc3c
00000260: 9bbd 2abe f8fb 8fbc dab5 fabd 890e 343e
00000270: 080c d03c db81 e3bd d08c d7bd 3355 0cbe
00000280: 949d 23be f7a6 2b3e 5e77 fa3d 336a febd
00000290: 7a49 80bd 41ec e13d 6a4b e73d b8b4 7bbd
000002a0: 3e3f ca3d d842 bc3c 5007 84bd 0e6c f73d
000002b0: 6048 01be 58fa 32bc d231 ad3d 6b96 8c3c
000002c0: 0811 83bd 68cc fabc f563 bbbd 5e53 073d
000002d0: e379 24be c0d5 533b 6ce3 16be 5d51 6fbc
000002e0: 7844 bfbd 8449 3dbe 107e 443c 9eff d33d
000002f0: 1548 27be 8474 2ebe ea13 e73b cee3 bbbc
00000300: df21 b63b 5058 c43d 48e9 8d3d 3c70 433e
00000310: 914a b53b a8d7 0e3e 9d68 ce3d 5ae0 ba3d
00000320: 36b1 ab3d 3493 153e 08db 53bd 957e 8ebd
00000330: 329c afbc 210e 493e c590 25be 73a1 f43d
00000340: 0616 093e 6590 e5bd c7f6 07be 1e12 153e
00000350: 188f 2abd dc3d 2b3e d97d 2e3e c12e e6bd
00000360: cc03 ca3c 8777 afbd 7381 6bbd fa93 eebd
00000370: e014 783c ec02 923d f591 13bd af75 01be
00000380: 72da d83d 3b11 263d 4f35 a53d f4c4 7e3c
00000390: 7c03 7e3d d89e 79bd 45f2 ffbc e138 da3d
000003a0: 4454 a1bd 398f 6a3d 4761 2abe ebf1 0b3e
000003b0: dc95 20be 505c 3cbd 59c6 05be 1551 57bd
000003c0: 99d1 c03d 85b1 4c3e a0cd a23b 32f0 34be
000003d0: 0387 20be 8618 06be f7d8 b4bd 227e 04bd
000003e0: 6d63 343e f982 b13c 3213 07bd 3f12 183e
000003f0: dc98 1abe ca6c 1e3e 1550 193e 9f73 6e3e

layers.2.bias f4 [32]
0.09408659 -0.053592965 0.0064377696 0.14856197 -0.11714459 -0.06484547 -0.19424357 0.21452646
0.053696696 0.059541315 -0.0889225 -0.12185839 -0.013304481 -0.054416515 0.13546617 0.12177095
0.08394596 -0.08954274 0.054646272 0.17600355 -0.17549273 -0.15531103 0.0062435786 0.04774443
-0.1264326 0.007196009 0.11732347 -0.066768974 -0.031367406 -0.010740652 0.05970273 0.085125335
00000000: 78b0 c03d 4c84 5bbd edf3 d23b a120 183e
00000010: 81e9 efbd b4cd 84bd c9e7 46be d3ac 5b3e
00000020: 11f1 5b3d 98e1 733d 001d b6bd e490 f9bd
00000030: 0afb 59bc dae3 5ebd a5b7 0a3e 0c63 f93d
00000040: dceb ab3d 2f62 b7bd c5d4 5f3d 463a 343e
00000050: 5eb4 33be db09 1fbe ef96 cc3b aa8f 433d
00000060: 8c77 01be 80cc eb3b 4a47 f03d 2cbe 88bd
00000070: 1c7b 00bd 8ff9 2fbc da8a 743d 3156 ae3d

layers.4.weight f4 [4, 32]
-0.16719708 -0.06003094 0.22539124 -0.028566295 -0.081784844 -0.074718714 0.1418287 -0.006326636
-0.02490839 -0.2684986 -0.177573 0.006810457 -0.0242926 -0.22179984 0.27697346 0.0526009
0.09305095 -0.18446451 0.02767311 -0.056370657 0.19070514 -0.030993693 0.123036325 -0.03233502
0.083073616 -0.04257974 0.18159732 0.13879852 -0.17366257 -0.16485323 0.1000923 -0.07864714
-0.042823702 0.104936555 0.024268262 0.03476996 -0.06605157 -0.123452105 0.08401984 -0.21076147
0.1246091 0.058554545 0.07089056 -0.16172276 0.12266621 0.13726796 -0.0077363253 0.13342786
0.06718033 -0.02901154 0.1614417 -0.22411393 0.11560664 0.03353528 -0.020918783 -0.2291103
-0.10464589 -0.08324782 0.18017963 0.1166717 0.080754384 0.21761425 -0.11116201 -0.14956504
0.257119 -0.11241843 -0.06685596 0.04696516 0.043072686 -0.12302964 0.17720033 -0.1367393
0.1489083 -0.20921712 -0.18143839 -0.07926528 -0.1983521 -0.063233316 0.12785754 -0.14362487
0.16090319 -0.022876972 0.057060152 -0.1058308 0.18100153 -0.25104746 -0.13084021 0.06875691
-0.017163977 -0.044105932 -0.1140853 -0.120799065 0.10957907 0.21426362 -0.085282825 0.11079562
-0.18094704 -0.11836853 0.11836175 -0.25999838 0.014043987 -0.073506966 0.14127196 -0.13461341
-0.040211998 0.16303582 0.15931612 -0.2044102 -0.025113499 -0.1512682 0.11024671 -0.041550577
0.17994587 -0.04519575 -0.015214786 0.019080712 -0.25424865 0.18376015 -0.15615332 -0.24556904
0.12747975 -0.033177793 0.10355138 -0.1388542 -0.1701785 -0.10017824 -0.1347636 0.12194401
00000000: b635 2bbe 01e3 75bd f6cc 663e dd03 eabc
00000010: d07e a7bd 2006 99bd 8b3b 113e ab4f cfbb
00000020: ae0c ccbc a678 89be b2d5 35be 412a df3b
00000030: 4601 c7bc 7f1f 63be 77cf 8d3e 0b74 573d
00000040: 7f91 be3d 44e4 3cbe b8b2 e23c ebe4 66bd
00000050: 3548 433e 7ce6 fdbc 78fa fb3d ba71 04bd
00000060: 8022 aa3d 1868 2ebd a6f4 393e 3321 0e3e
00000070: 9ad4 31be 49cf 28be 31fd cc3d c011 a1bd
00000080: e867 2fbd fae8 d63d 3cce c63c f26a 0e3d
00000090: 0c46 87bd 75d4 fcbd 9812 ac3d dbd1 57be
000000a0: 0e33 ff3d e4d6 6f3d 122f 913d a79a 25be
000000b0: 6c38 fb3d f98f 0c3e 0081 fdbb 50a1 083e
000000c0: d795 893d 9ca9 edbc f950 253e 1f7e 65be
000000d0: 2dc3 ec3d 4a5c 093d de5d abbc e49b 6abe
000000e0: 9650 d6bd d57d aabd 0281 383e 92f1 ee3d
000000f0: 8e62 a53d 45d6 5e3e e8a8 e3bd 9427 19be
00000100: 1aa5 833e a23b e6bd c7eb 88bd 8a5e 403d
00000110: fc6c 303d f7f6 fbbd 0174 353e 6305 0cbe
00000120: 6b7b 183e 033d 56be fcca 39be d655 a2bd
00000130: d01c 4bbe 7880 81bd 16ed 023e 6612 13be
00000140: cec3 243e 7d68 bbbc e8b7 693d d2bd d8bd
00000150: 7758 393e 4b89 80be fafa 05be 6cd0 8c3d
00000160: 789b 8cbc 6ca8 34bd 8ea5 e9bd 8065 f7bd
00000170: fe6a e03d ec67 5b3e c3a8 aebd d0e8 e23d
00000180: 2e4a 39be 336b f2bd a567 f23d 821e 85be
00000190: c018 663c d28a 96bd 99a9 103e 19d8 09be
000001a0: 56b5 24bd ddf2 263e c423 233e e850 51be
000001b0: d3ba cdbc 0de6 1abe 07c9 e13d f030 2abd
000001c0: bb43 383e 2e1f 39bd 7047 79bc 274f 9c3c
000001d0: e12c 82be 9f2b 3c3e a8e6 1fbe 7376 7bbe
000001e0: 0d8a 023e 70e5 07bd bf12 d43d cc2f 0ebe
000001f0: 4643 2ebe 402a cdbd 78ff 09be c8bd f93d

layers.4.bias f4 [4]
-0.23041204 0.09840633 0.095956884 -0.013927712
00000000: 22f1 6bbe 4289 c93d 0b85 c43d 0f31 64bc
