solved.pth (torch_old, 45238 bytes, 8 tensors)

fc1.weight f4 [64, 8]
0	0x3e06f321	0.13178684
1	0xbe93ab1a	-0.28841478
2	0xbdd066e1	-0.101758726
3	0xbec073ad	-0.37588254
4	0x3daa712c	0.08322367
5	0x3eea883b	0.4580706
6	0x3dcf2568	0.101145566
7	0x3f140bae	0.5783032
8	0x3df888a2	0.12135436
9	0x3e151e76	0.14562401
10	0xbdc7ab25	-0.0974944
11	0xbd8c58a0	-0.068528414
12	0xbe602277	-0.21888147
13	0xbf709773	-0.93981093
14	0xbe61cea5	-0.22051485
15	0x3ecc8096	0.39941853
16	0x3d981426	0.07425718
17	0x3d79ce7d	0.06098794
18	0xbe51737f	-0.20454215
19	0x3d899d00	0.067193985
20	0x3eb0dc41	0.3454304
21	0x3ee64aa0	0.4497881
22	0x3d2bb0e8	0.041916758
23	0x3f1aeb2f	0.6051511
24	0xbca9d8d0	-0.020733267
25	0xbbbc68a6	-0.0057497798
26	0x3febe5f5	1.8429552
27	0xbfa4e6b8	-1.288291
28	0x3da1cb41	0.07900096
29	0xbe139875	-0.14413626
30	0x3e03c28e	0.12867185
31	0x3e9c09bf	0.30476186
32	0x3e21a405	0.15785225
33	0xbf1d7b70	-0.61516476
34	0xbe60f1a9	-0.21967186
35	0xbf316731	-0.6929808
36	0xbe6c8192	-0.23096302
37	0x3f3a6ed8	0.72825384
38	0x3dc656a9	0.09684498
39	0xbc1282b5	-0.008942296
40	0x3f214389	0.62993675
41	0xbf7aa3b4	-0.9790604
42	0x3eb09939	0.344919
43	0xbf4dcd2e	-0.80391204
44	0xbd42b87e	-0.047539227
45	0xbe8f1444	-0.2794515
46	0x3ef18afa	0.47176343
47	0x3e1fb799	0.1559738
48	0xbf34b608	-0.7059026
49	0xbffc153d	-1.9693981
50	0x3e790f56	0.24322256
51	0x3e7a9f11	0.24474742
52	0xbea32a94	-0.31868422
53	0x3e152b91	0.145674
54	0x3e83dde2	0.2575522
55	0xbf060158	-0.523458
56	0x3e9a82cb	0.30177912
57	0xbebbb935	-0.3666474
58	0xbddecd43	-0.10878994
59	0xbf654d78	-0.8957133
60	0x3d843012	0.06454481
61	0x3e5712dc	0.21003288
62	0xbe410774	-0.188505
63	0x3e2508fc	0.16116709
64	0x3f2b3152	0.6687213
65	0x3d8dcee9	0.069242306
66	0x3e935940	0.2877903
67	0x3cbebe66	0.023284148
68	0x3e8a3c0f	0.26998946
69	0x3f5fb7f8	0.8739009
70	0xbe88b9f2	-0.26704365
71	0xbed42afa	-0.4143904
72	0x3e7a197b	0.24423783
73	0x3e849d06	0.2590105
74	0x40292402	2.6428227
75	0x3f1e9ea4	0.61960816
76	0xbed8d3fe	-0.42349237
77	0xbedf4dcb	-0.4361404
78	0x3c8b4642	0.017001275
79	0x3dce6f77	0.10079854
80	0xbf6727d9	-0.9029518
81	0x3f25d37d	0.6477583
82	0x3eafa163	0.34302816
83	0xbf283fed	-0.65722543
84	0x3cd01006	0.025398266
85	0x3e4ae115	0.19812424
86	0xbe43653f	-0.19081591
87	0xbf48815b	-0.7832238
88	0xbea33fb6	-0.31884545
89	0xbf5b7bb2	-0.8573562
90	0xbd23721b	-0.03990374
91	0x3e95f9a5	0.29292026
92	0x3e201510	0.15633035
93	0x3e55ab29	0.20866074
94	0xbeb32945	-0.34992424
95	0xbec8a523	-0.3918849
96	0xbe2e9941	-0.17050649
97	0x3e652014	0.22375518
98	0x3c70ac1b	0.014689471
99	0x3e3166b3	0.17324333
100	0x3e81c6b1	0.25346902
101	0x3f2a930f	0.66630644
102	0x3e0f3294	0.13984138
103	0xbefdb147	-0.49549314
104	0xbf69dc8f	-0.9135217
105	0xbf022a8e	-0.50846183
106	0xbf19a25b	-0.6001336
107	0x3e648f51	0.22320296
108	0x3e804ac6	0.25057048
109	0x3d014a28	0.03156486
110	0xbda69dc5	-0.08135561
111	0x3edcc61a	0.4311989
112	0xbe142af4	-0.1446951
113	0x3edc8729	0.4307187
114	0x3f161ed1	0.5864077
115	0xbf9e62c5	-1.2373892
116	0xbe2fb4fb	-0.17158882
117	0xbc7ba086	-0.015358096
118	0x3e93be7f	0.28856274
119	0xbe775d32	-0.24156645
120	0x3f1d7681	0.6150895
121	0x3ee3ac32	0.44467312
122	0x3e2b80cf	0.16748355
123	0x3ec36150	0.3816018
124	0xbe83d2f0	-0.2574687
125	0xbf157a1a	-0.5838944
126	0xbf08ef3a	-0.5349003
127	0xbfa18f38	-1.2621832
128	0x3d3d795b	0.04625831
129	0xbf34dc16	-0.70648324
130	0xbe8a680c	-0.27032506
131	0x3d5becb3	0.05369253
132	0x3e35ce79	0.17754544
133	0x3d9756ba	0.07389589
134	0x3f0e9b28	0.557055
135	0x3eb9dfbc	0.36303508
136	0xbd01ddea	-0.031705774
137	0xbdeb4ddc	-0.1148946
138	0x3db1e3f6	0.08686058
139	0x3bcac409	0.00618792
140	0x3c97f00e	0.018547084
141	0x3f6220da	0.8833138
142	0x3ef82b70	0.4847064
143	0xbe8d8568	-0.27640843
144	0xbe3fb474	-0.18721181
145	0xbe05b3ad	-0.13056822
146	0xbe1c5863	-0.15268092
147	0x3e9c3767	0.3051102
148	0x3d9f261b	0.0777094
149	0xbf521e4a	-0.8207747
150	0xbef596b8	-0.47966552
151	0x3e74d946	0.23911008
152	0x3e91756b	0.28409895
153	0x3e7350c3	0.23761277
154	0x3eff311d	0.49842158
155	0xbfff65a4	-1.9952893
156	0x3f16d5d0	0.5892
157	0xbf663ec3	-0.89939517
158	0xbd214304	-0.03937055
159	0xbec24630	-0.37944174
160	0xbf2cc26c	-0.67484164
161	0xbeade1a4	-0.33961213
162	0xbf2a2dc5	-0.6647609
163	0xbed64782	-0.4185143
164	0x3c2f348b	0.01069368
165	0xbed4b5ad	-0.41544858
166	0xbf2330d3	-0.63746375
167	0xbe87b4f9	-0.2650526
168	0xbe27aa49	-0.16373552
169	0xbf98fd8b	-1.1952375
170	0x3ef23562	0.47306353
171	0xbea49339	-0.32143572
172	0x3f05bc9b	0.52240914
173	0x3e585d9d	0.2112946
174	0xbe84395e	-0.25825018
175	0x3d95ffbf	0.0732417
176	0x3e80f1d2	0.25184494
177	0xbf3fa5c8	-0.7486234
178	0x3e83feb3	0.25780258
179	0xbf52e5dd	-0.82381994
180	0x3e92e6e3	0.28691778
181	0xbe15d848	-0.14633286
182	0x3f045583	0.5169298
183	0x3e847a2e	0.25874466
184	0x3f567194	0.83767056
185	0xbf1fb718	-0.62388754
186	0x3eaddc0f	0.33956954
187	0xbedf438a	-0.43606216
188	0xbe400cf5	-0.18754943
189	0x3e7b3281	0.24530984
190	0x3f176386	0.59136236
191	0x3e340947	0.17581664
192	0xbdd75e52	-0.10516037
193	0xbfab91a6	-1.3403823
194	0xbec7e282	-0.3904
195	0xbf1ad03d	-0.60473996
196	0xbf105145	-0.5637401
197	0xbccedead	-0.025252664
198	0xbe8f6519	-0.2800682
199	0x3e634035	0.22192462
200	0x3e554ed9	0.20830859
201	0x3e17ebec	0.14836091
202	0xbe96ad04	-0.29428875
203	0xbeed24c8	-0.46317124
204	0x3e220d76	0.15825447
205	0x3ee30691	0.44340947
206	0x3df8d02e	0.12149082
207	0x3f2e1282	0.6799699
208	0xbe8eadd8	-0.27867007
209	0xbfbea144	-1.4892964
210	0xbee8ca35	-0.45466772
211	0xbf1100d4	-0.5664189
212	0x3ec5df38	0.38646865
213	0x3e5ebcf3	0.21751766
214	0x3ead05ad	0.33793393
215	0x3d6dcb83	0.058055412
216	0x3dfc7416	0.12326829
217	0xbf874634	-1.0568299
218	0x3e00b97a	0.12570754
219	0xbefa1025	-0.48840442
220	0x3dbdb14f	0.092623346
221	0x3f30e7fe	0.6910399
222	0x3d929b94	0.071585804
223	0x3d41e9a2	0.04734195
224	0x3d9ba14b	0.075991236
225	0x3da2609b	0.07928582
226	0xbf7e77e2	-0.99401677
227	0xbf3cf239	-0.738071
228	0x3f2d64ba	0.6773182
229	0xbf16af59	-0.5886131
230	0x3e3e3104	0.18573385
231	0x3e5436e6	0.20724067
232	0xbd817dfd	-0.063228585
233	0x3e280d40	0.16411304
234	0x3f360484	0.7110064
235	0x3c6a655f	0.014306395
236	0x401fc8d7	2.4966333
237	0xbca73966	-0.020413112
238	0xbe812fe5	-0.25231853
239	0xbc4b538d	-0.012410057
240	0xbe734596	-0.23757014
241	0x3eb67d2b	0.3564237
242	0xbf328555	-0.697347
243	0x3e642328	0.22279036
244	0x3ee738c6	0.45160502
245	0xbf3b25cc	-0.7310455
246	0x3f0279a9	0.5096689
247	0xbe4dc9de	-0.20096537
248	0xbed4eafd	-0.41585532
249	0x3e04417d	0.12915607
250	0xbeeae4e4	-0.45877755
251	0x3eb56852	0.35431153
252	0x3f6ba503	0.9204866
253	0x3ea4bb28	0.3217404
254	0xbf36a030	-0.71338177
255	0xbf6ec834	-0.93274236

fc1.bias f4 [64]
0	0xbeda5c36	-0.42648476
1	0xbe3879da	-0.18015233
2	0xbe5400d2	-0.20703438
3	0xbc4128c6	-0.011789506
4	0xbf12eab1	-0.5738936
5	0xbe8e0185	-0.27735534
6	0x3ea013c1	0.3126507
7	0xbe8dc7dc	-0.27691543
8	0x3bd8ba71	0.0066140224
9	0x3e916f39	0.2840517
10	0x3eb59529	0.35465363
11	0xbecd345d	-0.40079013
12	0xbecab82d	-0.3959364
13	0xbead6690	-0.3386731
14	0x3ee89136	0.45423287
15	0x3d2e2848	0.042518884
16	0xbe0736b3	-0.1320446
17	0x3dbdb431	0.092628844
18	0x3e9ff8e9	0.3124459
19	0x3f1698a5	0.5882667
20	0xbeeafa85	-0.45894256
21	0xbf1499a5	-0.5804694
22	0xbeaf2082	-0.3420449
23	0xbe426fd7	-0.18987976
24	0xbdbc8efa	-0.09206958
25	0xbeb61af0	-0.35567427
26	0xbed10e48	-0.40831208
27	0xbf171fe9	-0.59033066
28	0xbe45b717	-0.19308124
29	0xbd7d2f51	-0.061812703
30	0x3e129ed2	0.14318398
31	0x3eaff613	0.34367427
32	0x3cc04393	0.023469722
33	0x3f1b0295	0.60550815
34	0xbf0f5c0a	-0.55999815
35	0xbe6fe17b	-0.23425858
36	0x3e9fbd62	0.31199175
37	0x3e829c8a	0.25510055
38	0xbeabbe97	-0.33543846
39	0xbe438e85	-0.19097336
40	0x3edce74f	0.43145224
41	0xbecbb973	-0.39789924
42	0x3dfe5e15	0.124202885
43	0x3e62d31c	0.22150844
44	0x3e6a2af8	0.22867954
45	0x3e541e56	0.20714697
46	0x3f0cf297	0.5505766
47	0x3f2c6ba3	0.6735174
48	0x3e8baf77	0.27282307
49	0xbeec8ed4	-0.4620272
50	0x3e8ee244	0.27907002
51	0x3ece3be0	0.40280056
52	0x3b1cc77f	0.002392262
53	0x3d8cb234	0.06869927
54	0xbecfa2b7	-0.4055383
55	0xbdfe0b5f	-0.124045126
56	0x3ebc6cff	0.36801907
57	0x3e7d7433	0.24751358
58	0x3e15845a	0.1460127
59	0x3d47c149	0.048768315
60	0xbedb173b	-0.4279116
61	0xbee5d26d	-0.44887105
62	0xbcc70091	-0.024292262
63	0x3e4de06d	0.20105143

fc2.weight f4 [128, 69]
0	0x3e7420c7	0.23840629
1	0x3e1c9931	0.15292813
2	0x3e19a68c	0.15004939
3	0x3e47babb	0.19504826
4	0x3f20e3ad	0.62847406
5	0x3df50a91	0.11964906
6	0xbe4cf486	-0.20015153
7	0x3eaa8341	0.33303264
8	0x3e8e269a	0.27763826
9	0xbf2306d7	-0.6368231
10	0xbdffe2d6	-0.124944374
11	0x3e93f032	0.28894192
12	0x3ea7560f	0.32682845
13	0x3db8136d	0.0898808
14	0xbdc10b34	-0.09425965
15	0xbea6a231	-0.32545617
16	0x3c280faa	0.010257641
17	0x3e9bee2e	0.30455154
18	0x3e2cc32f	0.16871332
19	0x3db6bcfe	0.08922766
20	0xbe827fa4	-0.25488007
21	0x3eee0f37	0.46495983
22	0x3f0a578e	0.5403985
23	0x3ed90a98	0.42390895
24	0x3df4f7ec	0.1196135
25	0x3eaa72ca	0.33290702
26	0x3eab8d83	0.33506402
27	0x3f1a4f93	0.6027767
28	0xbe48939a	-0.19587556
29	0xbcc36f5e	-0.023856815
30	0x3d833181	0.064059265
31	0xbc8dcd6d	-0.017309869
32	0xbd2cc19e	-0.042176835
33	0xbf2dbaa9	-0.67862946
34	0xbe326f70	-0.17425323
35	0x3d8debe7	0.069297604
36	0xbe2b60e9	-0.16736187
37	0xbda465a4	-0.08027199
38	0x3d2ee8fc	0.04270266
39	0x3d3f7043	0.04673792
40	0xbe9af12e	-0.3026213
41	0x3e9b2be1	0.30306914
42	0xbe261d54	-0.16222125
43	0xbe8e3a52	-0.2777887
44	0x3e731380	0.23737907
45	0x3e8f974d	0.2804512
46	0xbf2d8c5f	-0.67792314
47	0xbf0b20ff	-0.54347223
48	0xbf482314	-0.78178525
49	0xbee75252	-0.45179993
50	0xbfabd226	-1.3423507
51	0xbf00fc63	-0.5038511
52	0xbd511ab6	-0.051050864
53	0x3e385973	0.18002872
54	0x3eb3d816	0.35125798
55	0x3ef3eb10	0.47640276
56	0xbe7375c1	-0.23775388
57	0xbd7ceb22	-0.061747678
58	0x3d58b0c4	0.05290295
59	0x3d5ede52	0.05441124
60	0x3e571778	0.21005046
61	0x3df13818	0.11778277
62	0xbd0f23cd	-0.03494625
63	0x3ddfe009	0.10931403
64	0x3cf0fc33	0.029417133
65	0xbeb546de	-0.3540563
66	0xbdaddcc8	-0.08489376
67	0xbe0193a4	-0.12653977
68	0xbe69bfec	-0.22827119
69	0x3eea5399	0.45766905
70	0x3e3975c7	0.18111335
71	0x3e9c83a4	0.30569184
72	0xbf51ec85	-0.82001525
73	0x3f0f0711	0.5587016
74	0x3e1e0a14	0.15433532
75	0xbe19a116	-0.15002856
76	0x3eb20b39	0.34774187
77	0x3ebb49fc	0.36579883
78	0xbf34b156	-0.70583093
79	0xbe4ff432	-0.20307997
80	0x3e9f2c76	0.31088609
81	0x3ed91094	0.4239546
82	0x3eefdd44	0.468485
83	0x3db49462	0.08817364
84	0xbf06044f	-0.52350324
85	0x3ddfacea	0.109216526
86	0x3efdf2b1	0.4959922
87	0x3d8ff591	0.0702926
88	0x3db89327	0.09012442
89	0x3ef03e9f	0.46922776
90	0x3ee2a00d	0.44262734
91	0x3efb3aeb	0.49068388
92	0x3d1c06bd	0.038092364
93	0x3f070952	0.52748597
94	0x3e8fffa7	0.28124735
95	0x3f6530e3	0.8952772
96	0x3ecc4c47	0.39901945
97	0xbd2b8439	-0.041874144
98	0xbf8c88d9	-1.0979263
99	0x3e4378c3	0.19089036
100	0x3effd805	0.49969497
101	0x3ead1804	0.33807385
102	0xbde60e59	-0.11233205
103	0x3da3fb35	0.08006898
104	0xbd5bf755	-0.05370267
105	0x3efa7326	0.48915976
106	0xbf7cbcda	-0.98725665
107	0xbbd3e110	-0.0064660385
108	0xbec625c4	-0.38700688
109	0x3e9b70d9	0.30359533
110	0x3e2536f2	0.16134241
111	0xbe64ed7c	-0.22356218
112	0xbdac5b4e	-0.084158525
113	0x3f023175	0.50856715
114	0x3efcb06c	0.4935335
115	0xbe70e248	-0.2352382
116	0x3eab2213	0.33424434
117	0xbe897e13	-0.26854
118	0xbcfd0b74	-0.03088925
119	0xbf3415b9	-0.70345646
120	0x3d8438f5	0.06456176
121	0xbe89807b	-0.26855835
122	0xbd69b4bb	-0.057057124
123	0x3e62d129	0.22150101
124	0x3d606871	0.054787103
125	0xbd9b6ed4	-0.07589498
126	0xbea91198	-0.33021235
127	0xbd1421a0	-0.03616488
128	0xbf27ad22	-0.65498555
129	0x3e6b7707	0.22994624
130	0x3e9ba356	0.30398053
131	0xbe217680	-0.1576786
132	0xbc8b1865	-0.016979406
133	0x3e834fb5	0.2564675
134	0x3d3f3444	0.046680704
135	0x3e1fc8e7	0.15603982
136	0x3e38fe64	0.18065792
137	0xbeb48495	-0.35257402
138	0x3f19462c	0.598727
139	0x3b1b3e12	0.002368812
140	0x3e1b9d7a	0.15196791
141	0x3e00df79	0.12585248
142	0x3ee09c36	0.4386918
143	0x3ea5a62f	0.3235335
144	0xba0114c2	-0.00049240526
145	0x3e715103	0.2356606
146	0x3e317088	0.17328084
147	0xbee223aa	-0.44167835
148	0xbad364ed	-0.0016128101
149	0x3e87944c	0.2648033
150	0x3ea6ef99	0.32604674
151	0x3f1010bd	0.5627554
152	0x3de1c590	0.1102401
153	0xbf38a5e1	-0.7212811
154	0x3e0027ba	0.12515154
155	0x3ea9dc0c	0.33175695
156	0xbe167f61	-0.14697029
157	0xbe94e8a3	-0.29083738
158	0x3f20b624	0.62777925
159	0x3e929cf0	0.2863536
160	0x3ee35e5b	0.44407925
161	0xbb822b3e	-0.00397244
162	0x3f0736fc	0.52818274
163	0x3e92a2d0	0.2863984
164	0x3f54f013	0.83178824
165	0x3e5a19f7	0.21298967
166	0xbdaa30e6	-0.08310108
167	0xbf6506fc	-0.8946378
168	0xbe032432	-0.12806776
169	0x3e983f9a	0.29736024
170	0x3ec7d4af	0.39029452
171	0xbecb5533	-0.3971344
172	0x3eef98ec	0.46796358
173	0xbd832f74	-0.06405535
174	0x3da54054	0.0806891
175	0xbd907f50	-0.07055533
176	0x3db98356	0.090582535
177	0xbe836ca3	-0.2566882
178	0x3d00bc5d	0.031429637
179	0x3e7e3c77	0.24827753
180	0xbeca3fc3	-0.3950177
181	0x3e7aba2b	0.2448508
182	0x3ea291fb	0.31752
183	0x3de9621b	0.11395665
184	0xbef42a95	-0.47688738
185	0x3d9b94f6	0.075967714
186	0xbebe8284	-0.3720895
187	0x3e955186	0.2916376
188	0xbf48081d	-0.7813738
189	0xbe39a308	-0.18128598
190	0xbf449102	-0.76783764
191	0x3e8e70e8	0.27820516
192	0xbc79b4f8	-0.0152409
193	0x3c9fc7e1	0.01950449
194	0xbe388058	-0.1801771
195	0xbebe3952	-0.37153107
196	0x3d59dd65	0.053189654
197	0x3dac0e14	0.08401123
198	0x3e4e74f2	0.20161799
199	0x3e95dbc0	0.29269218
200	0x3d4d2282	0.050081737
201	0xbdd7c358	-0.10535306
202	0xbed0a9fa	-0.40754682
203	0xbe871b7c	-0.26388156
204	0x3d894692	0.06702913
205	0x3d97975b	0.07401916
206	0x3e13594b	0.14389531
207	0x3e56033b	0.2089967
208	0x3e0cf94c	0.13766974
209	0x3cf95ed8	0.030440733
210	0xbe68cf60	-0.22735357
211	0x3f036c74	0.5133736
212	0x3e1c60bf	0.1527128
213	0x3d94faa5	0.07274369
214	0x3ebb5285	0.36586395
215	0x3db29636	0.08720057
216	0x3df9fa6d	0.12205968
217	0xbdde7863	-0.10862806
218	0x3e1f3062	0.155458
219	0x3e4704b1	0.19435383
220	0x3e73294b	0.23746221
221	0x3d86108f	0.06546127
222	0xbb40b1f2	-0.0029402939
223	0x3e472a54	0.1944974
224	0x3ec6a835	0.38800207
225	0x3d75b0b0	0.059982955
226	0x3eb82bcc	0.35970914
227	0x3c9db8e5	0.019253204
228	0xbe05439d	-0.13014074
229	0x3ec801d6	0.390639
230	0x3f055129	0.52076966
231	0xbee7d2ad	-0.4527792
232	0x3e8b766e	0.27238792
233	0x3f03afe2	0.5144025
234	0x3edc21d5	0.42994562
235	0xbf19877f	-0.59972376
236	0xbf54aa8b	-0.8307273
237	0xbcc48f8d	-0.023994232
238	0x3da0557d	0.078288056
239	0x3ebfbe36	0.37449807
240	0xbe998d69	-0.299907
241	0x3eb6f2bf	0.35732076
242	0xbed3986c	-0.41327226
243	0x3e556487	0.2083913
244	0xbe70dd36	-0.23521885
245	0xbd16b9a8	-0.03679815
246	0x3dfc37cd	0.12315331
247	0x3df1ed46	0.118128344
248	0x3e342b03	0.17594533
249	0xbcfeb5eb	-0.031092605
250	0xbe6cdb93	-0.23130636
251	0xbe43f62b	-0.19136874
252	0x3ed436e2	0.41448122
253	0xbed84f61	-0.4224806
254	0x3e6561be	0.22400567
255	0xbe97ee20	-0.29673862

fc2.bias f4 [128]
0	0xbe9d6f02	-0.30748755
1	0x3e281740	0.16415119
2	0xbe8e1592	-0.27750832
3	0x3e371e0e	0.17882559
4	0xbe849ff4	-0.25903285
5	0xbedfa38e	-0.4367947
6	0x3dbb248e	0.09137832
7	0xbd5b3670	-0.053518713
8	0x3e82493f	0.25446507
9	0xbd6cc4b5	-0.057804782
10	0xbd8b25e7	-0.06794339
11	0x3d4682bc	0.04846452
12	0x3bea3519	0.007147443
13	0x3db3d0b4	0.08780041
14	0x3ea06ef9	0.31334665
15	0xbe0b3a3b	-0.13596432
16	0x3c4b8cd9	0.012423717
17	0x3d85cc39	0.06533093
18	0x3c98d4e6	0.018656205
19	0xbeb79bfe	-0.358612
20	0xbde44ec3	-0.11147835
21	0xbe7de3b5	-0.24793895
22	0x3e1ab03f	0.15106295
23	0x3d9e3d47	0.077265315
24	0xbd7d8982	-0.061898716
25	0xbd1470ec	-0.036240503
26	0xbe372a4f	-0.17887233
27	0x3d00ab50	0.031413376
28	0x3eb5a284	0.35475552
29	0x3dca1b44	0.09868482
30	0x3e148d88	0.14507115
31	0x3e5a6767	0.21328507
32	0x3e1e3a31	0.15451886
33	0x3c8444a5	0.016146014
34	0x3e498438	0.19679344
35	0x3e03862e	0.12844154
36	0xbd6b7645	-0.057485837
37	0xbe6bdead	-0.23034163
38	0x3d66a8f3	0.056313466
39	0x3dcc765c	0.09983513
40	0x3e274ddb	0.16338293
41	0x3df13bac	0.1177896
42	0xbdaab1a1	-0.08334661
43	0x3e110872	0.14163378
44	0x3cd69acf	0.026196865
45	0x3df28da3	0.11843421
46	0x3e2a9527	0.1665846
47	0xbeaaa773	-0.3333088
48	0xbdd8e17f	-0.10589885
49	0xbebb4a8e	-0.36580318
50	0x3e9ecfc1	0.3101788
51	0x3ebbafa0	0.3665743
52	0xbe00de4c	-0.125848
53	0xbe845b8a	-0.2585109
54	0x3d455e85	0.048185844
55	0x3c886716	0.016650718
56	0xbed42b33	-0.41439208
57	0x3d204291	0.039125983
58	0xbe1da05c	-0.15393203
59	0x3ecd643d	0.40115538
60	0xbf0a9408	-0.5413213
61	0xbd52b010	-0.051437438
62	0x3da23274	0.079197794
63	0xbe4b1257	-0.19831215
64	0x3d643373	0.05571313
65	0x3e076c1b	0.13224833
66	0x3eaca813	0.3372198
67	0xbed1c85b	-0.40973172
68	0xbdc02f08	-0.093839705
69	0x3ec2fabb	0.38081917
70	0x3e8f0b59	0.27938345
71	0xbd1712ea	-0.036883272
72	0x3e188e22	0.1489797
73	0xbd989a90	-0.074513555
74	0xbe313f33	-0.17309265
75	0x3e4c23d8	0.19935548
76	0xbde8b361	-0.11362339
77	0xbdd997fc	-0.10624692
78	0xbece64e8	-0.4031136
79	0x3d469198	0.048478693
80	0xbe35ec5e	-0.17765948
81	0xbd033434	-0.032032207
82	0xbcbb13e3	-0.022836631
83	0x3e147333	0.1449707
84	0x3e48a955	0.19595845
85	0x3e255a15	0.16147645
86	0x3d854336	0.0650696
87	0x39b82580	0.00035123155
88	0x3e9323c0	0.28738213
89	0x3db9d4b7	0.09073775
90	0x3e22b345	0.15888698
91	0x3c7fbee2	0.015609475
92	0x3be84409	0.0070881885
93	0xbeccbb76	-0.3998677
94	0x3c9dc944	0.01926101
95	0x3dcae6b7	0.099072866
96	0xbe9be8f8	-0.3045118
97	0x3eb17a3f	0.3466358
98	0x3e7913fa	0.24324027
99	0x3e75ff5f	0.24023198
100	0xbd144677	-0.036200013
101	0x3db95b18	0.09050578
102	0xbe0b906b	-0.1362931
103	0x3e0f4c5e	0.13993976
104	0xbe57bd84	-0.21068388
105	0xbd8307b1	-0.063979514
106	0xbdccabe2	-0.099937215
107	0xbde8f15b	-0.1137416
108	0x3e22419a	0.15845338
109	0x3dc4f99a	0.0961792
110	0xbdb724fc	-0.08942601
111	0xbda6a2df	-0.08136534
112	0x3c2ddfbc	0.010612424
113	0x3a321fcd	0.00067949
114	0x3c0f7d5e	0.008757917
115	0x3eaea636	0.34111184
116	0x3d0c53c8	0.034259588
117	0x3e898894	0.26862013
118	0x3e2774e6	0.16353187
119	0x3e1af234	0.15131456
120	0x3e504835	0.20340045
121	0xbe95117b	-0.291149
122	0x3e7b29f1	0.24527718
123	0xbe48f2d9	-0.19623889
124	0x3e56690c	0.2093851
125	0x3f07828c	0.52933574
126	0x3e47ed6d	0.19524164
127	0xbe9936c7	-0.29924604

fc3.weight f4 [5, 192]
0	0x3f9bb8a8	1.2165728
1	0x3fef26d5	1.8683726
2	0x3f7c7b7c	0.9862592
3	0x3fc0dc22	1.5067179
4	0xbed62b33	-0.41829833
5	0xbeac9e96	-0.3371474
6	0xc120d5dd	-10.052213
7	0x3e9f6c3d	0.31137267
8	0xbf9d4c8c	-1.2288985
9	0x3f0ea7c3	0.55724734
10	0x3fdd3e25	1.728459
11	0xbe1da43a	-0.15394679
12	0x3ffbf687	1.9684609
13	0xbfce6b9a	-1.6126587
14	0x3efd8f8c	0.4952358
15	0x3fe8ba17	1.818179
16	0xc0146630	-2.318737
17	0xbd5e420d	-0.05426221
18	0xc08623f9	-4.191891
19	0xbe50ef34	-0.20403749
20	0x3e48194d	0.19540901
21	0xbf8c6bf0	-1.097044
22	0xbf230ec6	-0.6369442
23	0xbfbf4639	-1.4943305
24	0xbf964737	-1.1740483
25	0x4093d018	4.619152
26	0xbfb63123	-1.4233745
27	0xbf30eb3d	-0.69108945
28	0x405eba50	3.4801216
29	0x408bb368	4.36565
30	0x405316d1	3.2982676
31	0xbf57eea6	-0.84348524
32	0x3f5a7dae	0.8534802
33	0xc1256618	-10.337425
34	0xbfde9119	-1.738803
35	0x3e00bc8f	0.1257193
36	0xbf45f975	-0.77333766
37	0xc0bde126	-5.933734
38	0xbd869dda	-0.065730765
39	0x3fe069fa	1.7532341
40	0xc1017635	-8.091359
41	0x3faf01f0	1.3672466
42	0x3e87be76	0.26512498
43	0xbf9db543	-1.2320942
44	0x40a93185	5.287295
45	0xbfe8d977	-1.8191365
46	0xbf442156	-0.76613367
47	0x3f0462d5	0.51713306
48	0x401728fd	2.3618767
49	0x4086e071	4.2148976
50	0xc0d33f22	-6.6014566
51	0x3e970c38	0.2950151
52	0x3fe1b25c	1.7632556
53	0xc0857eb8	-4.1717186
54	0xc019860c	-2.3988066
55	0xbf2e36c1	-0.680523
56	0xc0757f62	-3.8358998
57	0x3fde4179	1.7363731
58	0x3f306cd9	0.6891609
59	0xbf3dda92	-0.74161637
60	0x40683132	3.6280026
61	0xc00f99bf	-2.243759
62	0xc002feb3	-2.0467956
63	0xc0dd9e65	-6.9255853
64	0xbef65106	-0.4810869
65	0xbf9db948	-1.2322168
66	0x3fe01b09	1.750825
67	0xbfa38dce	-1.277765
68	0xbece9985	-0.403515
69	0xbf378bef	-0.71697897
70	0xbf5e699f	-0.86879915
71	0xbd537c4a	-0.051632203
72	0xbf440a25	-0.7657798
73	0xbe9a8488	-0.30179238
74	0xbc0c9037	-0.008579305
75	0x3e5c6646	0.21523389
76	0x3e65ea2a	0.22452608
77	0xbd25bb21	-0.040461663
78	0x3f9fd131	1.2485715
79	0x3f626194	0.8843014
80	0xbf3ea8bb	-0.7447621
81	0xbf307a0f	-0.68936247
82	0x3f2eb6de	0.68247783
83	0xbf0827b7	-0.531856
84	0xbd8361b2	-0.06415118
85	0xbf121f51	-0.57079035
86	0xbf271c29	-0.65277344
87	0xbf95ab08	-1.169282
88	0x3f68144b	0.90655965
89	0x3f0c7b8d	0.54876024
90	0x3f4d1381	0.80107886
91	0xbf9f33d0	-1.2437687
92	0x3f27e1a6	0.6557869
93	0x3f48e51c	0.78474593
94	0xc00d5068	-2.2080326
95	0xbe03e428	-0.12880003
96	0xbf670795	-0.90245944
97	0x3fba8f9e	1.4575078
98	0x3eaf0283	0.34181604
99	0xbf0ffe46	-0.56247365
100	0x3fc4a815	1.5363795
101	0xbf4d49ed	-0.80190927
102	0x3f79ce44	0.9758036
103	0x3fbdbea3	1.4823803
104	0x3f0e56c5	0.5560115
105	0x3e1bc978	0.15213573
106	0x3d107e50	0.03527671
107	0xbf504a42	-0.8136331
108	0xbed592fd	-0.41713706
109	0xbfa24498	-1.2677183
110	0xbfe9550f	-1.8229083
111	0xbe8da616	-0.27665776
112	0x3e42837c	0.1899547
113	0xbe3779ce	-0.17917559
114	0xbf67449e	-0.90339077
115	0xbf5b4562	-0.85652745
116	0x3d099750	0.03359157
117	0xbda8233a	-0.08209844
118	0xbe256936	-0.16153416
119	0x3fa6133f	1.2974623
120	0x3f80b7fd	1.0056149
121	0x3c00b42b	0.007855455
122	0x3f1c3e31	0.61032397
123	0xbeeab485	-0.4584085
124	0xbed6eefd	-0.4197921
125	0xbe7d3677	-0.24727808
126	0xbd86a511	-0.06574453
127	0x3f6b9795	0.9202817
128	0x3fc2d061	1.5219842
129	0x3e1973e7	0.1498562
130	0xc0217dac	-2.5232954
131	0xbf48e56b	-0.78475064
132	0x3e751c1d	0.23936506
133	0xbf2c8a7e	-0.6739882
134	0xbe2d388b	-0.169161
135	0x3f37f0a1	0.71851546
136	0x3f0d7e27	0.5527062
137	0x3d9bc249	0.07605416
138	0xbec9a577	-0.39384052
139	0xbfddd5e2	-1.7330897
140	0xbc4ccf7d	-0.012500641
141	0x3e90d619	0.28288344
142	0x3e0a39e8	0.13498652
143	0x3f1d5c2e	0.6146878
144	0x3f7bda5c	0.98380065
145	0xbcbe76df	-0.023250042
146	0x3e8c343d	0.27383605
147	0x3f48e782	0.7847825
148	0x3f51657a	0.81795466
149	0xbfa07243	-1.253487
150	0xbfdd6089	-1.7295085
151	0xbf8f8d1d	-1.1214939
152	0x3dad78f7	0.08470338
153	0xbf6ca819	-0.92443997
154	0xbfb36b35	-1.4017092
155	0x3fe04d8d	1.7523667
156	0xbf5f9449	-0.8733564
157	0xbf0f9ee9	-0.5610185
158	0x3f06e434	0.5269196
159	0x3e49b88e	0.19699308
160	0xbebc0a24	-0.36726487
161	0xbeacd1af	-0.33753726
162	0x3f82fb30	1.0232906
163	0xbe37dbbc	-0.17954916
164	0x3e8eb2e2	0.27870852
165	0xbef784ff	-0.48343655
166	0x3d01574b	0.03157739
167	0xbe616be0	-0.22013807
168	0x3efd23c4	0.4944135
169	0x3fccf006	1.6010749
170	0x3efb28f6	0.49054688
171	0xbe41c3c4	-0.18922335
172	0x3f1bf49d	0.60920125
173	0xbe29caa0	-0.16581202
174	0xc0192e88	-2.393465
175	0xbda25971	-0.07927216
176	0x3f10bc57	0.56537384
177	0xbf4dade4	-0.8034346
178	0x3f6a7526	0.91585004
179	0x3e85aad9	0.2610691
180	0xbf4b2ff2	-0.79370034
181	0x3d0de726	0.03464427
182	0xbf23e053	-0.64014167
183	0xc07b0428	-3.9221287
184	0xbe21ba43	-0.1579371
185	0x4000c123	2.0117881
186	0x3f6661f7	0.8999323
187	0xbf3d78c6	-0.7401241
188	0xbf2fa7f4	-0.6861565
189	0xbfd23351	-1.642191
190	0xc0012cf7	-2.0183694
191	0x3eb37a90	0.35054445
192	0xbf3cee1d	-0.7380083
193	0xbe8c4ae1	-0.27400878
194	0xbe25ebca	-0.16203228
195	0xbf8e49ad	-1.1116234
196	0x3f0824ff	0.5318145
197	0x3f230066	0.6367248
198	0x41229236	10.160696
199	0x3e947962	0.28998858
200	0x3fe215da	1.7662919
201	0x3e5599c1	0.20859434
202	0xbfda6f0d	-1.706514
203	0x3dbb0222	0.09131266
204	0xbf8daf92	-1.1069205
205	0x3ff3f6ad	1.9059654
206	0xbee35894	-0.44403517
207	0xbfce5a49	-1.6121303
208	0x3ffd7cc9	1.9803706
209	0x3f74514f	0.9543657
210	0x4022e2fe	2.5451045
211	0x3e32a63b	0.17446224
212	0x3ec6015c	0.38672912
213	0x3fd9db08	1.7019968
214	0x3f4fc37d	0.81157666
215	0x3ff43c15	1.9080836
216	0x3f6d409f	0.9267673
217	0xc021211e	-2.5176463
218	0x3fc7083a	1.5549386
219	0x3f5b7c77	0.85736793
220	0xc019fe06	-2.4061294
221	0xc017a7ee	-2.3696246
222	0xc036adf1	-2.8543665
223	0x3f0d844a	0.5527998
224	0xbf33afbb	-0.7019002
225	0x41437927	12.217078
226	0x3ff33def	1.9003276
227	0x3d543513	0.051808428
228	0x3eb45415	0.352204
229	0x40b34e17	5.6032825
230	0x3d182274	0.037142232
231	0x3d854ae7	0.06508427
232	0x40f0b326	7.5218687
233	0xbf3e6df1	-0.7438651
234	0xbe673e11	-0.2258227
235	0x3ef07c2e	0.46969742
236	0xc09151d4	-4.541239
237	0x3fd0e8bd	1.6321026
238	0x3f204b71	0.62615114
239	0xbeb8d3f6	-0.36099213
240	0xbfcc1e59	-1.5946761
241	0xc01f6f35	-2.4911625
242	0x40bf7032	5.9824457
243	0xbdb5ab25	-0.08870534
244	0xc0334453	-2.8010452
245	0x40987dee	4.7653723
246	0x4013b702	2.308045
247	0x3f489da5	0.78365546
248	0x40a6e1cd	5.2150636
249	0xbfa7e96a	-1.3118107
250	0xbe3fdb9b	-0.18736117
251	0x3f5f364c	0.87192225
252	0xc021b501	-2.5266726
253	0x40154bb4	2.3327456
254	0x40342fde	2.8154216
255	0x40b19a20	5.550064

fc3.bias f4 [5]
0	0xc07f0b1b	-3.9850528
1	0x404ebcfc	3.2302847
2	0x3e319f81	0.17346002
3	0xbf0d275b	-0.55138177
4	0xc06b17a3	-3.6733177

fc4.weight f4 [4, 128]
0	0xbf27b8b0	-0.65516186
1	0xbf22d6c3	-0.6360895
2	0x3d93c73a	0.07215734
3	0xbe4e10bb	-0.2012357
4	0xbe872051	-0.26391843
5	0xbef4c7ae	-0.47808594
6	0x3e808465	0.2510101
7	0xbbd44712	-0.006478199
8	0x3ea49fd7	0.32153198
9	0xbe088b48	-0.13334382
10	0xbd9ba303	-0.075994514
11	0xbe858e95	-0.26085344
12	0xbd2c9767	-0.042136576
13	0x3f24e1a0	0.64406776
14	0x3fd2ffd9	1.6484329
15	0xbf2dda18	-0.6791091
16	0xbe6ec63b	-0.23317806
17	0xbe764357	-0.24049126
18	0xbe8979b2	-0.2685066
19	0x3ec9f8de	0.39447683
20	0x3c386e99	0.011256837
21	0x3f380d01	0.7189484
22	0xbf7defb6	-0.99193895
23	0xbe8cd933	-0.2750946
24	0xbea8136c	-0.32827318
25	0xbec92361	-0.39284804
26	0xbed14382	-0.40871817
27	0xbfb9f42b	-1.4527639
28	0x3f77b274	0.9675667
29	0x3f47ccb4	0.7804673
30	0x3f3e28b8	0.7428088
31	0x3f0e8541	0.5567208
32	0x3d11f9bd	0.03563856
33	0xbf320d41	-0.69551474
34	0xbf6d390b	-0.92665166
35	0xbe66eb28	-0.22550642
36	0xbf15812e	-0.5840024
37	0xbf452871	-0.77014834
38	0x3ee3edaa	0.4451726
39	0x3e60c861	0.21951438
40	0x3f4a7add	0.79093724
41	0xbf387493	-0.7205288
42	0x3b60c168	0.0034294967
43	0xbe3e3045	-0.18573101
44	0xbf2f3cf2	-0.6845237
45	0xbf503135	-0.81325084
46	0xbea2b808	-0.3178103
47	0xbf17c186	-0.5927967
48	0xbf0c925a	-0.54910815
49	0xbf61c78a	-0.881951
50	0x3f2a1004	0.6643069
51	0x3f493530	0.7859678
52	0x3d079e71	0.033110086
53	0x3e92ef7e	0.28698343
54	0x3ea077cf	0.31341407
55	0x3f1792a9	0.5920816
56	0xbf12d650	-0.57358265
57	0x3d9b1db4	0.07574025
58	0x3ebc8662	0.36821276
59	0x3efd7cbc	0.49509227
60	0xbf1dec9e	-0.61689174
61	0xbea9eea4	-0.3318988
62	0xbc06e49f	-0.008233218
63	0xbf001363	-0.5002958
64	0x3fb33711	1.400118
65	0xbe697acb	-0.22800748
66	0x3f6e7b89	0.9315725
67	0xbed74206	-0.4204256
68	0xbecd0fbd	-0.4005107
69	0x3edbaa50	0.42903376
70	0x3fa494ea	1.2857945
71	0xbecbabbf	-0.3977947
72	0xbe423893	-0.18966894
73	0xbd2c8638	-0.04212019
74	0xbf3ef5b4	-0.74593663
75	0xbe6097bd	-0.21932884
76	0x3d6cda25	0.057825226
77	0xbe853af8	-0.26021552
78	0xbf148c4c	-0.58026576
79	0x3f869298	1.0513487
80	0xbf513865	-0.81726676
81	0xbd837998	-0.064196765
82	0xbe84416d	-0.25831166
83	0x3f84afcd	1.036615
84	0xbf5a422f	-0.8525724
85	0xbea427c8	-0.320616
86	0x3cf072ab	0.029351553
87	0xbedab339	-0.4271486
88	0x3e8cc5b9	0.274946
89	0xbea327db	-0.31866345
90	0xbe9d8157	-0.3076274
91	0xbf04b6b6	-0.51841295
92	0xbe9ac313	-0.30226955
93	0xbf1408d1	-0.5782595
94	0xbe814e21	-0.2525492
95	0xbf168d0f	-0.5880899
96	0xbf1441be	-0.57912815
97	0x3f4df56e	0.8045262
98	0x3f802d64	1.0013852
99	0xbf574730	-0.84093
100	0xbeeb156c	-0.4591478
101	0xbe77ccd3	-0.24199228
102	0xbd98c6c7	-0.07459789
103	0xbe86b232	-0.26307827
104	0x3f277806	0.65417516
105	0xbf320117	-0.6953291
106	0xbe215aac	-0.15757245
107	0xbe134769	-0.1438271
108	0x3ffb25c1	1.9620897
109	0x3f1977e0	0.5994854
110	0x3fbfb48a	1.4976971
111	0x3cd3b362	0.025842372
112	0xbe44e7ef	-0.192291
113	0xbf047c07	-0.5175175
114	0xbef721c6	-0.48267955
115	0x3ec0a736	0.37627572
116	0xbe7779e5	-0.24167593
117	0x3ef75311	0.48305562
118	0xbffbf406	-1.9683845
119	0x3ef9e0e2	0.48804384
120	0xbf858a81	-1.0432893
121	0x403e42d2	2.9728284
122	0xbeb208a8	-0.3477223
123	0xbe8fb7f0	-0.2807002
124	0xbe60a739	-0.2193879
125	0x3fa9f4eb	1.3277868
126	0xbe9662be	-0.2937221
127	0x3f104d25	0.56367713
128	0xbe83ffa2	-0.2578097
129	0xbe4ea547	-0.20180236
130	0xbdd891a0	-0.10574651
131	0xbe1e533d	-0.1546144
132	0x3e49c727	0.19704877
133	0xbecf1f88	-0.40453744
134	0x3eb0ea7d	0.345539
135	0xbc9afa20	-0.018918097
136	0x3d2e35c0	0.04253173
137	0xbf0edc1e	-0.5580462
138	0xbf740399	-0.9531799
139	0xbe87cc9d	-0.26523295
140	0x3e90c81e	0.28277677
141	0x3eafd4d7	0.3434207
142	0x3f85986a	1.0437138
143	0xbf141640	-0.5784645
144	0xbe97244b	-0.29519877
145	0xbea998c8	-0.33124375
146	0xbed63dc3	-0.41843995
147	0xbf045e26	-0.5170616
148	0xbcc0fb52	-0.023557339
149	0x3e8af524	0.27140152
150	0xbf30de4c	-0.690892
151	0xbe759fcc	-0.23986739
152	0xbf269fe0	-0.650877
153	0xbe20b662	-0.15694574
154	0xbf0e7b76	-0.55657136
155	0xbf98a06e	-1.1923959
156	0x3f495e6f	0.7865972
157	0x3fce7423	1.6129192
158	0x3f9c9191	1.2231923
159	0x3e575ebb	0.2103223
160	0x3d598b90	0.053111613
161	0xbf085bd0	-0.53265095
162	0xbf072692	-0.5279323
163	0xbe252a65	-0.16129453
164	0xbf3539ba	-0.7079121
165	0xbe8560ce	-0.2605042
166	0x3e72aed7	0.23699509
167	0x3e0396a9	0.12850441
168	0x3fc04fe3	1.502438
169	0xbf18633f	-0.5952644
170	0xbd9357d1	-0.07194484
171	0xbe857b85	-0.260708
172	0xbf3b4435	-0.7315095
173	0xbeb59062	-0.35461718
174	0xbeca30e2	-0.3949042
175	0x3e7f9d07	0.24962245
176	0xbf0afdbc	-0.5429342
177	0xbf19fd4c	-0.60152125
178	0x3f5b1b34	0.85588384
179	0x3f635401	0.88800055
180	0xbd06245a	-0.03274951
181	0x3d1a27c0	0.037635565
182	0x3e4d6b20	0.20060396
183	0x3f89719b	1.0737795
184	0xbf1184f3	-0.5684349
185	0x3d8d2cdf	0.06893324
186	0x3c9cc624	0.01913745
187	0x3ea7a67f	0.32744214
188	0xbe489799	-0.1958908
189	0xbee8ad06	-0.45444506
190	0xbd4f57f2	-0.05062098
191	0xbf55fd96	-0.83590066
192	0x3e70d61f	0.2351918
193	0xbea0e381	-0.31423572
194	0x3faddbaa	1.3582661
195	0xbf1cdee5	-0.6127761
196	0xbf10688c	-0.56409526
197	0x3ec800a6	0.39062995
198	0x3f9e8629	1.2384692
199	0xbef9f380	-0.48818588
200	0xbf77a0f9	-0.9673
201	0xbe74c008	-0.23901379
202	0xbe80a313	-0.25124416
203	0xbef27ee2	-0.4736243
204	0x3d55e31e	0.05221855
205	0xbeb27e11	-0.34861806
206	0xbf12586b	-0.57166165
207	0x3edfc05a	0.4370144
208	0xbedb44a3	-0.42825803
209	0x3d0134b0	0.031544387
210	0xbe7ac915	-0.24490769
211	0x3ead8e07	0.3389742
212	0xbf6d77f6	-0.9276117
213	0xbeb36249	-0.35035923
214	0x3e737814	0.23776275
215	0xbce72379	-0.028215157
216	0x3ee4fdca	0.44724876
217	0xbec833fa	-0.39102155
218	0xbeb2c447	-0.34915373
219	0xbebb3dee	-0.36570686
220	0xbec32030	-0.38110495
221	0xbec6216a	-0.38697368
222	0xbf196719	-0.5992294
223	0xbf27fb99	-0.6561828
224	0x3cd0cbf5	0.02548788
225	0x3f2ad7a4	0.6673529
226	0x3ef148bc	0.47125804
227	0xbee8e6eb	-0.45488676
228	0xbef75b0a	-0.48311645
229	0xbe6f408e	-0.2336447
230	0xbc1a5a77	-0.009420983
231	0xbeb18bbf	-0.3467693
232	0x3d95c015	0.07312027
233	0xbf40107b	-0.7502515
234	0xbee00782	-0.43755728
235	0xbfb62f3d	-1.4233166
236	0x3ff539ed	1.9158303
237	0x3ebd6399	0.3699005
238	0x3fa6abb7	1.3021153
239	0xbd25e6c9	-0.040503297
240	0xbe3665b7	-0.17812239
241	0x3d4da9eb	0.050210875
242	0x39bd3280	0.00036086515
243	0x3ed6325e	0.41835302
244	0xbe8a2764	-0.26983178
245	0x3f6362ff	0.8882293
246	0xbfae0d7c	-1.3597865
247	0x3e8a423d	0.2700366
248	0xbef19d6f	-0.47190425
249	0x400d50f8	2.208067
250	0xbf5c4c82	-0.8605424
251	0xbeb6881d	-0.3565072
252	0xbe9c0d4d	-0.30478898
253	0x3fcd41cf	1.6035708
254	0xbe67297c	-0.22574419
255	0xbf23de0e	-0.64010704

fc4.bias f4 [4]
0	0x3d948853	0.07252564
1	0x3e1628ea	0.14664045
2	0x3eaaf6a7	0.33391306
3	0xbd8cfcf4	-0.068841845
