solved.pth (torch_old, 43958 bytes, 8 tensors)

fc1.weight f4 [64, 8]
-0.07720495 -1.6010966 -0.058042012 -0.6240745 0.12934226 0.3886342 0.31676528 0.39897755
0.4244902 -0.6529546 -0.08252332 0.34237185 -0.7479066 -0.44836566 -0.14668606 0.46000558
-0.16165687 0.22138895 -0.050993536 -0.3612114 0.4328583 0.75863934 -0.019259937 0.7402366
0.22429195 -0.076407485 0.44563502 -0.78568494 -0.95209813 -0.16838896 -0.09345611 0.25563785
-0.01794091 -1.8186644 -0.00965604 -0.70860064 0.12887959 0.42013133 0.43715033 0.3574407
0.45519426 -0.31349164 0.44870344 -0.91762686 -0.88059163 -0.42424217 0.22517866 -0.07942395
-0.16039924 -0.21841775 0.031234995 0.49802586 -0.37120703 0.4192143 0.6585115 -0.035309717
0.78962576 -0.6571534 0.52812076 -0.7789805 -0.09809623 0.13646612 0.05636944 0.034670617
0.97976047 -0.1390948 0.6009954 -0.40908936 0.111673094 0.47077855 -0.23452388 0.17022681
0.12822135 -0.17822288 0.9608185 1.3387902 -0.47402823 -0.5486503 0.39422032 0.5469245
-0.15523595 0.5368071 0.37490317 -0.7122763 0.78075755 -0.30382627 -0.12220738 -0.7134746
-0.34656572 -0.8320994 -0.49755442 -0.65118986 0.6721009 0.045927554 -0.8729696 -0.18694973
-0.30664328 0.23996264 0.14406715 0.035736922 0.0023121005 0.977961 0.11301071 -0.27672675
-0.6197706 -0.61884004 -0.22781968 -0.7346215 -0.23997949 0.1594778 0.11536193 0.48648366
0.05949485 0.517697 0.6614495 -0.95110154 0.49699757 -0.09090418 0.38344318 -0.16188498
1.1430116 0.44256008 0.26782382 0.84219414 -0.8964945 -0.5271439 -0.082189165 -0.26960036
0.17785104 -1.6332818 0.124533676 -0.5787086 0.102892704 0.008224144 0.4749996 -0.6154321
-0.81526583 0.0067124693 -0.20405722 0.051010735 0.6732383 0.546151 0.32992545 -0.22879602
-0.34111455 -0.09560774 -0.26248997 -0.34216872 -0.23567788 -1.1397719 -1.1925199 -0.056769133
0.21330069 0.5439879 0.68776125 -1.2353276 0.89947855 -0.5688285 -0.115152694 -0.1516733
-0.40033078 -1.4295108 -0.10307753 -0.93955576 0.40666246 0.62047017 0.18372498 0.18726426
0.521378 -0.39908344 0.64764977 -0.5877613 0.5032708 0.24220487 -0.08496115 0.4156171
0.57131404 -1.9311327 -0.32466438 0.31379464 0.20976213 -0.38924557 0.38715383 0.42075637
0.6217193 -0.25484955 0.35359618 -0.6463035 -0.4647942 0.13607295 0.67807543 0.10064712
-0.45116588 -2.024482 -0.5543703 -0.11353633 -0.37198445 0.54749066 -0.115750216 0.22986677
0.39021903 -0.59514165 0.13061072 -0.37306827 -0.2549345 0.67189604 0.10960017 0.28735563
-0.5868828 -1.9123735 -0.15207623 -0.3825861 0.88198584 -0.11342422 0.31169742 0.13901141
0.33383182 -1.6281747 0.90664136 -0.67725295 -0.32396457 0.28059968 0.38570368 -0.27276757
-0.7156903 -0.06235369 -0.391665 -0.6703469 -0.23103005 0.2447313 -0.02080368 0.6332106
0.8402558 0.38074467 0.9889468 0.27927604 0.82815385 -0.70572865 -0.18162398 0.032070436
0.21848485 0.5941774 -2.291088 -0.60367215 0.48000315 -0.9719554 0.34965527 -0.21229173
-0.5911447 -0.07375705 -0.57794225 -0.3590822 0.723111 -0.2300206 -0.63327587 -0.34787607
00000000: a11d 9ebd bcf0 ccbf 76bd 6dbd 59c3 1fbf
00000010: 4c72 043e 10fb c63e 0f2f a23e c946 cc3e
00000020: c856 d93e 0828 27bf fd01 a9bd 5d4b af3e
00000030: cf76 3fbf 2f90 e5be df34 16be da85 eb3e
00000040: 6189 25be c9b3 623e 99de 50bd b3f0 b8be
00000050: 9a9f dd3e 3036 423f 04c7 9dbc 2580 3d3f
00000060: caac 653e 877b 9cbd 462a e43e a622 49bf
00000070: b4bc 73bf 286e 2cbe eb65 bfbd f7e2 823e
00000080: d1f8 92bc ffc9 e8bf 5e34 1ebc da66 35bf
00000090: 03f9 033e 741b d73e 2bd2 df3e 7802 b73e
000000a0: 390f e93e fa81 a0be 75bc e53e 98e9 6abf
000000b0: 746e 61bf 4536 d9be 3c95 663e 06a9 a2bd
000000c0: b33f 24be e7a8 5fbe 88e0 ff3c 3ffd fe3e
000000d0: d90e bebe 42a3 d63e 3694 283f eca0 10bd
000000e0: ea24 4a3f 353b 28bf ec32 073f 446b 47bf
000000f0: ade6 c8bd c6bd 0b3e a4e3 663d c702 0e3d
00000100: 95d1 7a3f de6e 0ebe d6da 193f 2974 d1be
00000110: ddb4 e43d e309 f13e 0727 70be f04f 2e3e
00000120: 754c 033e 0f80 36be 34f8 753f 7a5d ab3f
00000130: d4b3 f2be 5974 0cbf 3fd7 c93e 3e03 0c3f
00000140: 2cf6 1ebe 316c 093f 4ff3 bf3e bd57 36bf
00000150: badf 473f 1e8f 9bbe dd47 fabd 45a6 36bf
00000160: 1071 b1be 7704 55bf 74bf febe 61b4 26bf
00000170: ce0e 2c3f 881e 3c3d f07a 5fbf c06f 3fbe
00000180: 5900 9dbe c4b8 753e 5786 133e e160 123d
00000190: 9c86 173b a75b 7a3f 2972 e73d 21af 8dbe
000001a0: 49a9 1ebf 4d6c 1ebf 9049 69be 2810 3cbf
000001b0: 2fbd 75be 264e 233e e042 ec3d 6314 f93e
000001c0: dfb0 733d ca87 043f c154 293f 647b 73bf
000001d0: 7776 fe3e f92b babd aa52 c43e 2dc5 25be
000001e0: 344e 923f 3c97 e23e 3420 893e 099a 573f
000001f0: aa80 65bf e7f2 06bf cb52 a8bd 0f09 8abe
00000200: 951e 363e 610f d1bf 830b ff3d 3f26 14bf
00000210: 69b9 d23d 8fbe 063c 2633 f33e f58c 1dbf
00000220: 43b5 50bf 46f4 db3b 60f4 50be a2f0 503d
00000230: 5859 2c3f 8dd0 0b3f fdeb a83e 8149 6abe
00000240: 91a6 aebe fecd c3bd 1665 86be bd30 afbe
00000250: 8b55 71be 0ce4 91bf 7ea4 98bf c086 68bd
00000260: 7f6b 5a3e ca42 0b3f 1f11 303f 371f 9ebf
00000270: 3a44 663f bf9e 11bf 2dd5 ebbd 3f50 1bbe
00000280: 28f8 ccbe 36fa b6bf 501a d3bd ba86 70bf
00000290: 1036 d03e 22d7 1e3f 6722 3c3e 34c2 3f3e
000002a0: 0779 053f aa54 ccbe 60cc 253f 8677 16bf
000002b0: 5bd6 003f 8e04 783e 1d00 aebd c4cb d43e
000002c0: a341 123f 5b2f f7bf 693a a6be b1a9 a03e
000002d0: e2cb 563e 324b c7be 0739 c63e 616d d73e
000002e0: ff28 1f3f a47b 82be 8f0a b53e 2574 25bf
000002f0: 81f9 edbe b556 0b3e 5a96 2d3f 1420 ce3d
00000300: 37ff e6be 1d91 01c0 36eb 0dbf bc85 e8bd
00000310: bf74 bebe 5928 0c3f 730e edbd 3262 6b3e
00000320: caca c73e 345b 18bf d1be 053e ce02 bfbe
00000330: c686 82be 6101 2c3f 0e76 e03d 4720 933e
00000340: f43d 16bf a8c8 f4bf dfb9 1bbe 53e2 c3be
00000350: d3c9 613f f54a e8bd ce96 9f3e 0259 0e3e
00000360: 01ec aa3e 0768 d0bf a619 683f 7360 2dbf
00000370: afde a5be c3aa 8f3e f47a c53e 31a8 8bbe
00000380: 7b37 37bf 9566 7fbd 5188 c8be db9b 2bbf
00000390: 2493 6cbe d89a 7a3e 7b6c aabc 171a 223f
000003a0: 011b 573f f7f0 c23e 9e2b 7d3f 45fd 8e3e
000003b0: e401 543f a2aa 34bf a3fb 39be 4a5c 033d
000003c0: 7eba 5f3e 031c 183f 30a1 12c0 428a 1abf
000003d0: f9c2 f53e 12d2 78bf 0406 b33e 0163 59be
000003e0: 4255 17bf f00d 97bd 06f4 13bf 9fd9 b7be
000003f0: cd1d 393f 858a 6bbe 5e1e 22bf d01c b2be

fc1.bias f4 [64]
-0.4623807 -0.3154173 0.17067558 -0.38616878 -0.55187327 -0.39883563 0.242923 -0.14063323
0.10042299 0.3560493 0.44878933 -0.284598 -0.38047692 -0.22207479 0.74106824 0.32674366
-0.3821028 -0.14613536 0.33020324 0.5367694 -0.38973913 -0.39048252 -0.5823318 -0.03854634
0.3063382 -0.62305075 -0.4409392 -0.19224711 -0.17134449 -0.50094783 0.2682008 -0.2570419
-0.06509343 0.80824435 0.040655423 -0.13980001 0.18535672 0.5551275 -0.33543846 -0.36870256
0.27654314 -0.46592826 0.26417306 0.66260034 0.46364275 0.2340711 0.9327261 0.15522395
-0.49285343 -0.105066545 0.0630146 0.5327913 -0.08108158 0.72860295 -0.40226156 -0.02266451
0.064762145 0.35255584 0.0016890734 0.24453278 -0.09618651 -0.44488516 0.5287705 0.5557358
00000000: 2abd ecbe 607e a1be 94c5 2e3e eab7 c5be
00000010: 9147 0dbf 2f34 ccbe cfc0 783e 2802 10be
00000020: 92aa cd3d 184c b63e b7c7 e53e d4b6 91be
00000030: dfcd c2be 9367 63be a6b6 3d3f f24a a73e
00000040: faa2 c3be 82a4 15be 6610 a93e b869 093f
00000050: e38b c7be 53ed c7be b213 15bf c4e2 1dbd
00000060: 5cd8 9c3e 4180 1fbf c8c2 e1be 6ddc 44be
00000070: ee74 2fbe 1e3e 00bf 9e51 893e ff9a 83be
00000080: b44f 85bd 1ae9 4e3f 4d86 263d bc27 0fbe
00000090: 27ce 3d3e d61c 0e3f 97be abbe 95c6 bcbe
000000a0: 1097 8d3e 268e eebe b141 873e 2da0 293f
000000b0: 9562 ed3e 56b0 6f3e 23c7 6e3f 07f3 1e3e
000000c0: 4957 fcbe 212d d7bd cc0d 813d 0365 083f
000000d0: 190e a6bd b985 3a3f 3af5 cdbe ecaa b9bc
000000e0: 04a2 843d 3382 b43e e663 dd3a cd66 7a3e
000000f0: 6ffd c4bd fdc7 e3be 815d 073f b444 0e3f

fc2.weight f4 [128, 69]
-0.92087644 -0.45653734 -1.2055964 0.08671172 -0.5744704 -0.27533805 0.23067339 -0.74350655
-0.8903397 0.35015792 0.3809743 0.06084778 -1.1304116 -0.75974995 0.19658913 -0.1391663
0.08844766 -0.48523477 0.51217276 0.23791796 -1.5383557 -1.0858064 0.0052608023 -0.2072262
0.009706291 -1.2087075 -0.39025328 -0.32521233 -0.92063814 0.9995378 0.10018222 0.4511241
-0.09295722 0.60939145 0.44299617 0.5893467 -0.17483175 0.23997532 0.04270266 -0.15773362
0.0011924191 -0.6588126 0.34678918 0.37125894 0.049985725 -0.26137403 0.074858375 0.81559396
0.545019 -0.5045003 0.44683912 0.4197438 -0.29494363 0.28320134 0.35431004 0.62816006
-0.50153434 0.08895858 0.40054756 0.28880838 -0.47608408 -0.056548428 0.77543 1.0121182
-0.106651306 -0.3889767 -0.24335547 0.11091251 -0.42758414 0.42997414 0.5889781 0.19124758
0.16773455 0.27675986 0.5413527 -0.016749866 0.6102282 0.27256718 -0.22654554 -0.1131619
0.21854103 0.3855186 0.26857448 -0.013215849 0.12076596 0.10649919 0.37791604 0.53002733
0.106566384 0.5478479 0.5004985 0.70834184 0.20810747 -0.28752276 0.106312454 0.8054773
0.4855323 0.3713206 -0.65894747 -0.22436126 -0.03009649 0.08494697 -0.22223209 -0.20245822
-0.4477136 0.6762597 -0.084222086 -0.0064660385 0.45123836 -0.080768794 0.114171915 -0.04015354
0.13983433 0.3605056 0.39082924 -0.055108603 -0.50359076 -0.45630097 0.47376496 -0.853899
-0.24763888 0.622154 -0.22204778 0.16572616 -0.74559253 0.26499966 -0.13545752 -0.13643086
-0.32635063 0.1535251 0.5537887 -0.14237258 -0.5709166 -0.14166567 -0.07371927 -0.11233379
-0.2514565 -0.25310436 -0.25635943 0.57410794 -0.9307816 0.22346282 0.0145802805 0.65309125
0.2426101 0.20960154 -0.027407026 0.018206306 0.11561184 0.3572167 -0.39202794 -0.3031215
0.14578529 0.35586977 0.8244826 0.084215894 -0.6018576 0.15832092 -0.6725147 0.32035652
0.6597204 0.2610174 -0.36491954 -0.5101549 0.46184835 0.60925394 -0.47038642 0.71948385
0.2899393 0.2500498 -0.14205138 -0.25951955 -0.2523936 0.042704683 -0.1672327 0.009137677
0.090582535 0.20316584 -0.7357126 0.0023946564 0.11722634 -0.55073017 -0.6810092 -0.32483464
-0.9697964 -1.1945274 -0.10718152 -0.12457357 0.07655752 -1.7400221 -0.061713543 -0.031754833
0.9578437 0.22483778 0.15785857 -0.09354997 -0.14846858 -0.068703406 -0.2480461 0.37246904
-0.09091489 -0.33533978 1.4465559 0.17849281 0.618553 0.5457143 -0.14681657 0.06503793
-0.24939223 0.0063188844 -0.010157095 -0.039016996 -0.061700325 0.14642514 0.30126628 0.30814427
-0.19035095 -0.10790908 0.10537139 -0.06943022 -0.042222794 -0.21777551 -0.23741859 0.054180104
0.05209543 -0.21043995 -0.017151099 0.112905 0.15800159 0.16646932 0.26735976 -0.29173675
0.25777638 0.3147196 0.27414235 0.005883282 -0.24417894 -0.25695616 -0.3501129 -0.32881847
-0.48716047 0.17795098 0.04915944 -0.35119617 -0.11955511 -0.03679815 0.09970097 -0.2088956
0.101673655 -0.2877773 0.015031359 -0.017095728 0.15171471 -0.2889739 0.09262795 0.3947333
00000000: 8fbe 6bbf 43bf e9be fc50 9abf ea95 b13d
00000010: 7e10 13bf 1cf9 8cbe a535 6c3e 7256 3ebf
00000020: 4ded 63bf e647 b33e 100f c33e 863b 793d
00000030: 54b1 90bf f97e 42bf a94e 493e 9c81 0ebe
00000040: 0c24 b53d b170 f8be c11d 033f c4a0 733e
00000050: d7e8 c4bf b4fb 8abf cf62 ac3b 1b33 54be
00000060: 2307 1f3c edb6 9abf 47cf c7be 3b82 a6be
00000070: f1ae 6bbf b6e1 7f3f 562c cd3d bdf9 e63e
00000080: 5b60 bebd 1401 1c3f 65d0 e23e 6ddf 163f
00000090: 1807 33be 17bc 753e fce8 2e3d ec84 21be
000000a0: f24a 9c3a f1a7 28bf 5a8e b13e a715 be3e
000000b0: d5bd 4c3d d1d2 85be 594f 993d c4ca 503f
000000c0: 5d86 0b3f ef26 01bf 19c8 e43e a9e8 d63e
000000d0: da02 97be c4ff 903e 2068 b53e 19cf 203f
000000e0: 8e64 00bf ea2f b63d 9214 cd3e b1de 933e
000000f0: 4bc1 f3be 539f 67bd 9582 463f 178d 813f
00000100: 006c dabd f427 c7be 2d32 79be 1926 e33d
00000110: 4fec dabe 9225 dc3e 45c7 163f 68d6 433e
00000120: 9bc2 2b3e 78b3 8d3e 1796 0a3f 0437 89bc
00000130: ea37 1c3f ed8d 8b3e 8efb 67be 6dc1 e7bd
00000140: 38c9 5f3e b262 c53e 9882 893e 4a87 58bc
00000150: 2554 f73d 3f1c da3d 367e c13e dfaf 073f
00000160: 7a3f da3d c33f 0c3f ab20 003f e455 353f
00000170: 201a 553e 2f36 93be 58ba d93d c333 4e3f
00000180: b197 f83e bc1d be3e c8b0 28bf f5be 65be
00000190: ea8c f6bc adf8 ad3d cf90 63be 3551 4fbe
000001a0: b83a e5be 5b1f 2d3f a17c acbd 10e1 d3bb
000001b0: b708 e73e 1c6a a5bd f7d2 e93d 0a78 24bd
000001c0: bb30 0f3e 3194 b83e c51a c83e 8fb9 61bd
000001d0: 53eb 00bf 48a0 e9be 5291 f23e 2099 5abf
000001e0: 0c95 7dbe 7c45 1f3f 7e60 63be 1eb4 293e
000001f0: 27df 3ebf 09ae 873e 60b5 0abe 88b4 0bbe
00000200: 6e17 a7be af35 1d3e 19c5 0d3f 1eca 11be
00000210: 9727 12bf ce10 11be 21fa 96bd 420f e6bd
00000220: e8be 80be e596 81be 8b41 83be bdf8 123f
00000230: b447 6ebf 70d3 643e 21e2 6e3c fd30 273f
00000240: c86e 783e c9a1 563e b384 e0bc 6425 953c
00000250: e6c5 ec3d 1be5 b63e e3b7 c8be be32 9bbe
00000260: bd48 153e 9034 b63e 4b11 533f 6279 ac3d
00000270: 5713 1abf e11e 223e ec29 2cbf c505 a43e
00000280: 70e3 283f 13a4 853e bcd6 babe 8399 02bf
00000290: 6377 ec3e 11f8 1b3f 7dd6 f0be 1830 383f
000002a0: ed72 943e 8706 803e eb75 11be bfdf 84be
000002b0: bc39 81be 1beb 2e3d 0d3f 2bbe 32b6 153c
000002c0: 5683 b93d b50a 503e a957 3cbf abef 1c3b
000002d0: 5d14 f03d a7fc 0cbf 9e56 2ebf ba50 a6be
000002e0: 9444 78bf 46e6 98bf fc81 dbbd 6e20 ffbd
000002f0: 30ca 9c3d 0bb9 debf 57c7 7cbd 5b11 02bd
00000300: 3f35 753f e03b 663e ada5 213e 2097 bfbd
00000310: 2608 18be 5fb4 8cbd ccff 7dbe 43b4 be3e
00000320: 9631 babd a8b1 abbe be28 b93f d2c6 363e
00000330: 7d59 1e3f efb3 0b3f 1557 16be 9b32 853d
00000340: ad60 7fbe a50e cf3b f269 26bc 49d0 1fbd
00000350: 7bb9 7cbd 79f0 153e 933f 9a3e 16c5 9d3e
00000360: 5ceb 42be 70ff dcbd f5cc d73d 6e31 8ebd
00000370: cff1 2cbd 8b00 5fbe dc1d 73be f5eb 5d3d
00000380: 0562 553d 927d 57be 7680 8cbc bd3a e73d
00000390: 2bcb 213e ef76 2a3e 61e3 883e 855e 95be
000003a0: 44fb 833e ed22 a13e 635c 8c3e 8cc8 c03b
000003b0: 0b0a 7abe c28f 83be ff41 b3be e55a a8be
000003c0: 196d f9be c838 363e 695b 493d fccf b3be
000003d0: 4fd9 f4bd a8b9 16bd 0630 cc3d bae8 55be
000003e0: 473a d03d 8c57 93be 1746 763c 570c 8cbc
000003f0: 1a5b 1b3e 63f4 93be b9b3 bd3d 7c1a ca3e

fc2.bias f4 [128]
0.43298262 0.0073123137 -0.4415706 -0.24015398 0.5359737 -0.21866365 -0.1317071 -0.101625435
0.32896104 0.26445162 0.010231499 0.26692167 0.41106072 0.1262883 0.22526029 -0.015377211
0.106070176 0.10174774 -0.08684216 0.05292543 -0.006094118 0.18004969 0.2458595 0.013114581
-0.21899274 0.36589175 0.35140657 0.329967 0.32415253 0.056813113 0.30187806 0.17814468
0.23882176 -0.018513286 0.67185855 -0.2939831 -0.11661452 -0.28171605 0.107692905 0.09761012
-0.2114826 0.06407365 -0.09250382 0.026475051 -0.25675774 0.008614367 0.4303713 0.047073595
-0.23602138 -0.15990882 -0.07280281 -0.13394141 -0.12793587 0.13814563 -0.16702434 -0.12939464
-0.33284435 -0.5302767 0.09791945 0.06918982 -0.109576695 -0.11083269 0.47645876 -0.119234145
0.38919547 0.16695553 0.129005 0.09801976 -0.6275637 -0.37570676 -0.27376354 -0.29889154
-0.15764336 -0.17116678 0.30764395 0.11413383 -0.12269711 0.3795638 0.2053192 -0.044163834
0.14065686 -0.03390799 -0.076356575 -0.07858064 0.04451538 0.32008508 0.060333114 0.49617195
-0.22686826 0.10170586 -0.058384832 0.08573007 -0.33111337 0.21357535 -0.21637115 0.14969309
-0.3006017 -0.1982647 -0.19830298 0.17345606 -0.16860156 0.055621628 -0.0937614 0.04828961
-0.19758396 0.010745876 -0.06278224 -0.04453753 -0.30488017 -0.05845563 -0.020861233 -0.069708884
-0.02455884 0.10171523 0.32651377 0.15391022 0.07508428 0.0024711795 -0.030452318 0.124018446
0.11771906 -0.3119886 0.5069512 -0.021626139 0.15492827 -0.23413615 0.119645976 0.082451545
00000000: e6af dd3e 229c ef3b 8b15 e2be edea 75be
00000010: 9335 093f 5de9 5fbe 3ade 06be ff20 d0bd
00000020: 956d a83e 3466 873e 04a2 273c f5a9 883e
00000030: 8d76 d23e b851 013e a2aa 663e b3f0 7bbc
00000040: 523b d93d 1e61 d03d 4dda b1bd 56c8 583d
00000050: 2bb1 c7bb f25e 383e 98c2 7b3e 8ade 563c
00000060: a23f 60be 2a56 bb3e 90eb b33e 6ff1 a83e
00000070: 52f7 a53e deb4 683d c38f 9a3e 8f6b 363e
00000080: b18d 743e 2da9 97bc ecfe 2b3f f484 96be
00000090: 98d3 eebd 163d 90be 198e dc3d d1e7 c73d
000000a0: e58e 58be 0c39 833d a572 bdbd 35e2 d83c
000000b0: c075 83be 4623 0d3c a159 dc3e 3ed0 403d
000000c0: 97af 71be 23bf 23be a419 95bd f027 09be
000000d0: 9f01 03be 0c76 0d3e 6e08 2bbe 0780 04be
000000e0: 936a aabe 37c0 07bf fe89 c83d 64b3 8d3d
000000f0: bf69 e0bd 40fc e2bd 67f2 f33e 0831 f4bd
00000100: a144 c73e 64f6 2a3e e319 043e 95be c83d
00000110: 04a8 20bf a35c c0be bc2a 8cbe 5008 99be
00000120: 436d 21be 5846 2fbe 8283 9d3e ffbe e93d
00000130: 9f48 fbbd 3056 c23e 323f 523e 23e5 34bd
00000140: 5a08 103e 1be3 0abd d660 9cbd e3ee a0bd
00000150: c255 363d 31e2 a33e db1f 773d 400a fe3e
00000160: 2750 68be 294b d03d ef24 6fbd 3f93 af3d
00000170: b187 a9be 7fb3 5a3e 6690 5dbe 2549 193e
00000180: 77e8 99be e705 4bbe f00f 4bbe 779e 313e
00000190: e3a5 2cbe 81d3 633d fa05 c0bd 53cb 453d
000001a0: 7353 4abe 780f 303c fa93 80bd fc6c 36bd
000001b0: 4119 9cbe 2c6f 6fbd 2de5 aabc 88c3 8ebd
000001c0: 9f2f c9bc 1350 d03d d02c a73e a49a 1d3e
000001d0: c9c5 993d 83f3 213b 2477 f9bc 62fd fd3d
000001e0: b116 f13d f8bc 9fbe 8ec7 013f 4d29 b1bc
000001f0: 84a5 1e3e 63c1 6fbe f308 f53d 5bdc a83d

fc3.weight f4 [5, 128]
0.028824747 -0.041324995 -0.07027885 -0.0678418 -0.08409439 -0.02014628 -0.075994104 0.068690695
-0.07384213 0.06750918 0.019198172 -0.06360085 0.07536558 0.029355884 -0.0071013123 0.07000417
-0.07429907 0.06365215 -0.007724412 0.0025434494 0.032307453 -0.036204163 -0.0011701733 0.06371694
0.035218462 0.042722367 0.07550251 -0.057061225 -0.016159557 0.07706728 -0.031422086 0.025164872
0.035032116 -0.080108285 0.0011673123 0.081669815 -0.014916815 -0.08651469 -0.08050342 0.01344382
-0.028053068 -0.05888786 0.071797095 -0.04993962 -0.06373752 0.060033344 0.06711816 0.030277044
0.08828 0.0022395477 0.066313155 -0.052419648 -0.07198461 0.0098847225 -0.058775812 -0.0024924278
-0.008875206 0.013602138 -0.02168297 -0.0063084736 -0.080252774 -0.03726284 0.04059293 0.07683567
0.07760837 0.016721569 -0.01712136 0.0676643 0.0039815083 -0.0016342327 0.0032146648 -0.05476495
-0.025932029 -0.0797091 -0.008282959 -0.085323185 0.01346872 -0.00015181303 0.03128513 -0.05514718
-0.0005885288 -0.024634242 -0.05277329 0.06892718 -0.08718098 0.06256113 -0.021881588 -0.04946808
-0.085824125 -0.08384685 -0.030487545 0.057027467 0.01752992 -0.0645619 0.074554585 0.072415255
0.036733203 0.08652558 0.058873408 0.012545936 0.061089374 -0.050363377 -0.01145038 -0.046069488
-0.015557088 -0.06995317 0.060086824 -0.03491805 0.027228326 0.081061535 0.029846646 0.0046749413
0.08778853 -0.08745471 0.08186399 -0.0766299 0.08761344 0.0070274174 -0.054246787 -0.030188955
-0.04538558 0.053000562 0.07593187 0.053449176 0.064631574 0.08521771 -0.07789914 0.037161253
0.0072351247 0.05327473 0.024943344 0.0024646074 0.0588165 -0.035747502 -0.06734263 -0.06335154
0.06343383 0.0018616766 -0.0718507 0.030563936 -0.0028714538 -0.052432533 0.07744602 0.051333047
0.07484198 -0.0143942535 -0.05464286 -0.074770086 0.010330327 -0.06194518 0.05272705 -0.08012789
-0.06290888 0.012837425 0.021629602 -0.011642322 -0.018403456 -0.044807833 -0.025565706 0.011464603
-0.07933772 -0.0153218955 -0.013969436 0.0019380376 0.06569291 -0.07409763 0.030535042 0.03276808
0.024535432 -0.025329411 0.05133731 -0.06254827 -0.035613842 -0.0023728162 -0.013000399 -0.08742166
0.047425143 0.052221812 -0.07847783 0.00016999245 -0.07439514 -0.01606682 0.010505736 0.076879136
0.062165014 0.0455667 0.011639729 -0.08155966 -0.028513532 0.078795634 0.007279195 -0.019918777
-0.030492391 0.042674042 0.05560375 -0.0077124834 0.025887586 0.065090306 0.05917745 0.04584647
0.060356595 0.0321666 0.024224006 -0.08697942 -0.0173598 -0.026372567 0.019817784 -0.025355347
-0.0806343 0.07396086 -0.03830825 -0.083935015 -0.036753453 0.018519 -0.030043304 -0.08828594
0.029409535 0.034073226 0.08228072 -0.08736119 -0.01674693 -0.033682548 -0.030624248 0.0019100234
0.08240873 -0.009241104 0.07567095 0.012238257 -0.0460393 -0.008504637 0.04548975 0.052262686
-0.029326126 -0.010812096 -0.07390573 -0.056286503 -0.023356684 0.05267193 0.005456418 0.046702735
-0.07376149 0.018085845 -0.07143032 -0.025849529 0.07215189 0.0036882833 -0.06617826 -0.087044455
-0.026717752 -0.034660123 -0.082056396 0.048368044 0.0017712116 -0.013568491 0.0682699 -0.083729774
00000000: e021 ec3c 6644 29bd 5cee 8fbd a4f0 8abd
00000010: ae39 acbd d009 a5bc cca2 9bbd b5ad 8c3d
00000020: 8b3a 97bd 4142 8a3d 7c45 9d3c 2a41 82bd
00000030: 4559 9a3d c07b f03c 20b2 e8bb 595e 8f3d
00000040: 1c2a 98bd 0f5c 823d 101d fdbb 00b0 263b
00000050: d254 043d d14a 14bd 8060 99ba 077e 823d
00000060: 3c41 103d a6fd 2e3d 0fa1 9a3d 08b9 69bd
00000070: 0c61 84bc 73d5 9d3d 72b4 00bd 9026 ce3c
00000080: d67d 0f3d d00f a4bd 8000 993a 8142 a73d
00000090: a865 74bc 9d2e b1bd fade a4bd 7843 5c3c
000000a0: 8ccf e5bc 6634 71bd 5b0a 933d 7d8d 4cbd
000000b0: d188 82bd 86e5 753d 3f75 893d 9007 f83c
000000c0: 25cc b43d 60c5 123b 31cf 873d fcb5 56bd
000000d0: ab6c 93bd 88f3 213c e8be 70bd 0058 23bb
000000e0: 5069 11bc 80db 5e3c 7ca0 b1bc 50b7 cebb
000000f0: 915b a4bd eba0 18bd c644 263d 055c 9d3d
00000100: 23f1 9e3d acfb 883c 1842 8cbc 9593 8a3d
00000110: 5077 823b c033 d6ba 20ad 523b 3651 60bd
00000120: 686f d4bc 863e a3bd 40b5 07bc ecbd aebd
00000130: e8ab 5c3c 0030 1fb9 d624 003d 02e2 61bd
00000140: 8047 1aba c0cd c9bc ce28 58bd b129 8d3d
00000150: f18b b2bd 0d20 803d 0441 b3bc 0b9f 4abd
00000160: 8fc4 afbd e6b7 abbd 04c1 f9bc a295 693d
00000170: e89a 8f3c 0839 84bd 13b0 983d 734e 943d
00000180: 8e75 163d 5334 b13d 3e25 713d 788d 4d3c
00000190: da38 7a3d d449 4ebd 609a 3bbc 5cb3 3cbd
000001a0: 28e3 7ebc 9c43 8fbd 9a1d 763d 3b06 0fbd
000001b0: f00d df3c 9703 a63d f480 f43c 4030 993b
000001c0: 79ca b33d 741b b3bd 4fa8 a73d 23f0 9cbd
000001d0: ad6e b33d 4046 e63b e131 5ebd d44e f7bc
000001e0: 3be6 39bd 1e17 593d 2b82 9b3d 86ed 5a3d
000001f0: 8f5d 843d 9f86 ae3d 9689 9fbd 6636 183d
00000200: a014 ed3b 9a36 5a3d fc55 cc3c 4085 213b
00000210: 92e9 703d f96b 12bd efea 89bd 74be 81bd
00000220: 99e9 813d 8003 f43a 7626 93bd 3861 fa3c
00000230: 002f 3cbb 7fc3 56bd 059c 9e3d 9a42 523d
00000240: c146 993d e0d5 6bbc 31d1 5fbd 0f21 99bd
00000250: 8840 293c 3bba 7dbd 52f8 573d 171a a4bd
00000260: 5fd6 80bd 1054 523c 9030 b13c 70bf 3ebc
00000270: d8c2 96bc 6b88 37bd 2c6f d1bc 08d6 3b3c
00000280: d17b a2bd b008 7bbc 10e0 64bc c005 fe3a
00000290: 018a 863d 80c0 97bd a024 fa3c d237 063d
000002a0: 88fe c83c a07f cfbc 1247 523d 4f19 80bd
000002b0: d2df 11bd 4081 1bbb a0ff 54bc 210a b3bd
000002c0: de40 423d 8ae6 553d fcb8 a0bd 0040 3239
000002d0: 7b5c 98bd 909e 83bc 4020 2c3c cf72 9d3d
000002e0: bea0 7e3d 26a4 3a3d 90b4 3e3c c008 a7bd
000002f0: 3695 e9bc 9b5f a13d 5086 ee3b b42c a3bc
00000300: 2ecb f9bc faca 2e3d c2c0 633d 00b9 fcbb
00000310: 3412 d43c 114e 853d 0e64 723d 82c9 3b3d
00000320: 7a38 773d 20c1 033d 6c71 c63c 4422 b2bd
00000330: 2436 8ebc 480b d8bc e858 a23c 04b6 cfbc
00000340: 9923 a5bd cb78 973d 1de9 1cbd 1fe6 abbd
00000350: ca8a 16bd 28b5 973c 601d f6bc 42cf b4bd
00000360: 44ec f03c 5e90 0b3d cb82 a83d 6cea b2bd
00000370: dc30 89bc b6f6 09bd b4df fabc c059 fa3a
00000380: e9c5 a83d 0068 17bc 5ff9 9a3d f882 483c
00000390: b493 3cbd 0857 0bbc 7653 3a3d 6611 563d
000003a0: 583d f0bc 3825 31bc e35b 97bd ad8c 66bd
000003b0: 8456 bfbc 86be 573d c0cb b23b 5e4b 3f3d
000003c0: 4410 97bd c428 943c 0f4a 92bd 64c2 d3bc
000003d0: 5fc4 933d 20b7 713b 7888 87bd 5d44 b2bd
000003e0: 30df dabc c6f7 0dbd 2f0d a8bd 921d 463d
000003f0: 0028 e83a 604e 5ebc 17d1 8b3d 847a abbd

fc3.bias f4 [5]
0.016527623 -0.062781595 -0.053816795 -0.0487758 -0.05994667
00000000: f064 873c a393 80bd 006f 5cbd 22c9 47bd
00000010: a48a 75bd

fc4.weight f4 [4, 128]
0.8827418 -0.20904577 -0.44515717 -0.23772058 1.4982274 -0.4071501 0.049219105 0.7679134
1.4390975 -0.7192579 -0.09691892 1.1955568 0.5241679 -0.44087267 -0.42151186 -0.52822304
0.40832472 -0.30563086 -0.06273174 -0.26085663 0.9962927 -0.7530697 0.10307582 -0.26750165
-0.8117841 -0.6411398 2.899108 -0.21429141 -0.71633726 -0.13498172 0.5144768 0.5501254
-0.38687515 0.29451695 2.7888944 -0.6937325 -0.41812438 -0.57151276 -0.5006829 -0.24375184
0.39580232 -0.294437 0.4584478 -0.15126762 -0.47523904 -0.25674123 0.45123577 -0.37371716
-0.65261024 -0.23411612 -0.21018918 0.020572515 0.07149322 0.2643649 -0.69384533 -0.019779585
-0.22775267 0.98507684 0.045153 0.037601635 -0.26355067 -0.8817109 -0.7539742 -0.46878535
-0.22895809 -0.4208499 -0.303132 -0.5184392 -0.1142043 0.24209662 0.111267425 -0.13578808
-0.57903576 -0.17950906 -0.11979998 -1.0667387 -0.055917826 0.8512196 -1.1708698 -0.29275137
-0.35453352 -0.039776824 -0.25696382 0.45585603 -0.2760571 0.7905372 0.7376258 0.4630735
-1.0598065 -0.33892664 -0.8833397 -0.3467 -0.004651527 1.5600773 -0.2507073 -0.2635034
0.591367 0.3054266 -0.6482411 -0.35719094 -0.876699 -0.42927662 0.109095655 0.76707876
0.78208417 -0.08010136 -0.6438249 -0.26467863 -0.3160404 -0.24391668 -0.5208806 -0.067055374
-0.16391331 -0.11769585 0.32299986 -0.07884267 -0.35591695 -0.38733625 -0.24101683 0.91462183
-0.4283378 -0.2523754 -0.21501064 -0.659785 0.5432919 0.014739205 -0.13472685 1.4511293
1.0586556 -0.42350912 0.63254935 0.035627794 1.376137 0.862295 0.07166649 0.14753178
1.8490753 -0.58483195 -0.13066953 0.6753889 0.7608826 -1.0020974 -0.328277 -0.50644386
0.35144436 -0.33047214 -0.44387197 -0.42511803 0.2176348 -0.94876546 0.21981265 -0.41644943
0.025831368 -0.56696296 3.100437 0.755531 -0.32764795 -0.1974008 0.7142774 0.98819155
-0.39549935 0.63135844 2.4859657 0.09368152 -0.7132357 0.15387803 -1.0692194 -0.3168915
0.14341971 -0.48934472 0.871806 -0.5940064 -0.8661499 -0.4915549 0.58825594 -0.37114286
-0.37896132 0.22920944 -0.38833207 -0.015648793 0.041391343 -0.9339927 -0.5028577 1.6491663
-0.18177299 -0.6740007 -0.25925326 0.032333788 -0.44167045 0.12932706 -0.22440463 -1.2099988
-1.1965873 -0.31875217 -0.41732392 -0.43100494 -0.8869337 -0.4623714 -0.36891818 -0.8521792
-0.60627085 1.0873699 0.11287708 -0.70768476 -0.39074352 0.75642216 -0.97587705 -0.48730218
-0.5006408 0.028579913 -0.39861375 1.3550566 -0.7895932 0.5662036 1.1341243 1.0097373
-0.7223953 -0.425098 -0.3934902 -0.42940462 -1.1049868 1.6943452 0.56732666 -0.39963505
-0.6048168 -0.8322557 -0.45407274 -0.27517378 -0.5048344 -0.4358219 -0.095703304 0.54486364
0.89905787 -0.15229696 -0.57677376 -0.46048376 -0.10573175 -0.4434043 0.14700738 -0.015783561
-0.22300448 1.0906644 1.0290341 -0.41906452 -0.39952996 -0.47037017 -0.5596534 0.5175924
-0.5253315 -0.54316986 -1.2522795 -0.3943309 0.3598788 -1.1192988 -0.46241024 1.5083293
00000000: 5efb 613f 1810 56be a4eb e3be 066d 73be
00000010: eac5 bf3f fa75 d0be f999 493d f995 443f
00000020: 5934 b83f 4921 38bf 6d7d c6bd 0108 993f
00000030: de2f 063f 10ba e1be 67d0 d7be a039 07bf
00000040: f00f d13e a67b 9cbe 8079 80bd 008f 85be
00000050: 0a0d 7f3f 2dc9 40bf 6a19 d33d faf5 88be
00000060: 15d1 4fbf bd21 24bf fc8a 3940 356f 5bbe
00000070: e161 37bf a638 0abe c0b4 033f 05d5 0c3f
00000080: 8014 c6be edca 963e 3f7d 3240 7498 31bf
00000090: 6614 d6be a94e 12bf c12c 00bf 159a 79be
000000a0: 9aa6 ca3e 72c0 96be acb9 ea3e e6e5 1abe
000000b0: 8852 f3be 9673 83be 6008 e73e db57 bfbe
000000c0: 7711 27bf 23bc 6fbe d53b 57be b187 a83c
000000d0: 0a6b 923d d65a 873e d99f 31bf cc08 a2bc
000000e0: ff37 69be ff2d 7c3f 5af2 383d 2c04 1a3d
000000f0: 1df0 86be ceb7 61bf 7404 41bf a204 f0be
00000100: fd73 6abe a379 d7be 1e34 9bbe 6eb8 04bf
00000110: f2e3 e9bd 2de8 773e 2de0 e33d 080c 0bbe
00000120: b03b 14bf 39d1 37be b159 f5bd e58a 88bf
00000130: 170a 65bd 87e9 593f 10df 95bf 82e3 95be
00000140: 6b85 b5be 06ed 22bd c390 83be f665 e93e
00000150: 5b57 8dbe a560 4a3f 0bd5 3c3f f817 ed3e
00000160: bda7 87bf cb87 adbe 8d22 62bf aa82 b1be
00000170: d66b 98bb 9db0 c73f b55c 80be ebe9 86be
00000180: d463 173f e060 9c3e 21f3 25bf bbe1 b6be
00000190: 586f 60bf 25ca dbbe 8b6d df3d 465f 443f
000001a0: ab36 483f 2f0c a4bd b5d1 24bf f583 87be
000001b0: 0cd0 a1be 4bc5 79be 6e58 05bf 5454 89bd
000001c0: e4d8 27be 860a f1bd 3d60 a53e 4478 a1bd
000001d0: bf3a b6be f050 c6be 1ecd 76be a824 6a3f
000001e0: 184f dbbe 5937 81be c02b 5cbe abe7 28bf
000001f0: 2e15 0b3f b57c 713c d6f5 09be 9bbe b93f
00000200: 0782 873f 30d6 d8be c1ee 213f 73ee 113d
00000210: 4225 b03f 5dbf 5c3f e1c5 923d 9212 173e
00000220: 80ae ec3f 8cb7 15bf 3cce 05be 49e6 2c3f
00000230: 34c9 423f ba44 80bf ec13 a8be 4ea6 01bf
00000240: 84f0 b33e a533 a9be 3043 e3be 12a9 d9be
00000250: a8db 5e3e 4be2 72bf 9116 613e dc38 d5be
00000260: 4e9c d33c 7c24 11bf 8f6d 4640 7b6a 413f
00000270: 79c1 a7be 6f23 4abe e2da 363f 1ffa 7c3f
00000280: e47e cabe b5a0 213f 101a 1f40 19dc bf3d
00000290: 9d96 36bf 3492 1d3e 2edc 88bf 9a3f a2be
000002a0: 9edc 123e 648b fabe ae2e 5f3f ce10 18bf
000002b0: 00bc 5dbf 15ad fbbe f197 163f 7006 bebe
000002c0: 3807 c2be e1b5 6a3e 76d3 c6be e631 80bc
000002d0: f889 293d 251a 6fbf 48bb 00bf e217 d33f
000002e0: b322 3abe 4f8b 2cbf d8bc 84be 6f70 043d
000002f0: a122 e2be 506e 043e 54ca 65be 3ee1 9abf
00000300: c629 99bf 7c33 a3be 7bab d5be aeac dcbe
00000310: 160e 63bf f2bb ecbe d8e2 bcbe 6b28 5abf
00000320: 9134 1bbf f02e 8b3f 192c e73d d42a 35bf
00000330: 890f c8be e2a4 413f 14d3 79bf ac7f f9be
00000340: ff29 00bf 6c20 ea3c 1a17 ccbe 7f72 ad3f
00000350: c822 4abf b8f2 103f fc2a 913f 123f 813f
00000360: e6ee 38bf 72a6 d9be 8c77 c9be ecda dbbe
00000370: 3570 8dbf 4ee0 d83f 523c 113f f79c ccbe
00000380: 46d5 1abf b60e 55bf 397c e8be 94e3 8cbe
00000390: d43c 01bf 0c24 dfbe 1800 c4bd 2f7c 0b3f
000003a0: a828 663f bcf3 1bbe 72a7 13bf 87c4 ebbe
000003b0: e389 d8bd e305 e3be 1a89 163e 874c 81bc
000003c0: 495b 64be e49a 8b3f 64b7 833f a08f d6be
000003d0: 318f ccbe 5cd4 f0be 7245 0fbf ef80 043f
000003e0: 207c 06bf 2e0d 0bbf b24a a0bf bde5 c9be
000003f0: 0942 b83e 2f45 8fbf 09c1 ecbe ef10 c13f

fc4.bias f4 [4]
0.014207622 0.24791306 0.41823745 -0.11847933
00000000: 16c7 683c ecdc 7d3e 3823 d63e 4aa5 f2bd
