solved.pth (torch_old, 45238 bytes, 8 tensors)

fc1.weight f4 [64, 8]
0.17046203 -0.2775963 -0.08696881 -0.36086696 0.12027908 0.5005184 0.09209431 0.5454274
0.16071744 0.18203707 -0.19110161 -0.057884157 -0.31452534 -0.94946253 -0.20929922 0.41555625
0.111288704 0.1310297 -0.19877484 0.14758217 0.3530045 0.47656024 0.011659688 0.5956766
-0.058814466 -0.05609059 2.0026824 -1.3340738 -0.029764317 -0.11924972 0.14719824 0.30599374
0.13032062 -0.7687327 -0.22225969 -0.6993734 -0.19580802 0.7447106 0.09811479 -0.012606556
0.67619437 -0.8607346 0.3133872 -0.79813194 -0.09218804 -0.31464255 0.4494344 0.14329848
-0.7885542 -2.2785838 0.25074872 0.1541218 -0.30332506 0.0955031 0.27152044 -0.51212066
0.28374305 -0.32118878 -0.08906112 -0.9178178 0.04213238 0.21773146 -0.21669503 0.05593579
0.70962816 0.024173038 0.3593867 -0.032008346 0.1981371 0.86563337 -0.28697622 -0.39932033
0.28512442 0.23370135 2.800634 0.625756 -0.53522897 -0.44043276 0.0024035466 0.10793854
-0.90136045 0.6525393 0.30134663 -0.6563731 -0.001666543 0.14974344 -0.15998387 -0.9167989
-0.31884545 -0.8573562 -0.03990374 0.29292026 0.15633035 0.20866074 -0.34992424 -0.3918849
-0.18117796 0.23463756 0.06969799 0.16776663 0.22590968 0.67282367 0.11155329 -0.5564794
-1.0273949 -0.31505233 -0.61684924 0.32463288 0.31208566 0.011210255 -0.06744599 0.4282482
-0.2033857 0.40915912 0.66541785 -1.3272809 -0.18754828 0.01484691 0.29521006 -0.24914207
0.5905102 0.45923904 0.24359672 0.3557396 -0.33857667 -0.41608477 -0.48415175 -1.2621832
0.09898482 -0.57434094 -0.32171783 0.098160595 0.16952978 0.0401599 0.5495126 0.35778567
0.0012021043 -0.15775897 0.08096003 0.051370148 -0.06143333 0.86754996 0.46546698 -0.2831186
-0.14545153 -0.112608805 -0.20806718 0.28308597 0.14232917 -0.78932214 -0.48169246 0.24678315
0.23512709 0.20385635 0.504606 -2.1099746 0.52770454 -0.8799006 -0.008469965 -0.37358657
-0.65047544 -0.36748642 -0.68675524 -0.43079287 0.033598315 -0.32819313 -0.63746375 -0.36301297
-0.16373552 -1.1952375 0.47306353 -0.32143572 0.52240914 0.2112946 -0.25825018 0.0732417
0.26111853 -0.686428 0.22005858 -0.8231185 0.26939622 -0.18112822 0.5137619 0.2539764
0.93732345 -0.49099353 0.24041833 -0.44972235 -0.24141927 0.19594616 0.5853101 0.18888772
-0.16886817 -1.5983576 -0.3713464 -0.633088 -0.6739497 -0.0574379 -0.2896026 0.21118271
0.21468538 0.26122728 -0.3716694 -0.44569558 0.15537378 0.4063229 0.111662604 0.6818582
-0.34535962 -1.654993 -0.43978932 -0.6485759 0.40868053 0.19332783 0.3188559 0.061504696
0.09414965 -1.1181201 0.14111787 -0.5153863 0.108297065 0.7071196 0.08415497 0.028199527
0.071221925 0.096480615 -1.063794 -0.7446281 0.79585975 -0.57044834 0.16040927 0.20898774
-0.10955675 0.1796591 0.8204785 0.08762908 2.476528 0.10211761 -0.18398525 -0.070328146
-0.2646177 0.30167472 -0.84543276 0.4933444 0.63682175 -0.81046003 0.5566161 -0.19827662
-0.5069474 0.08701984 -0.43563086 0.33721063 0.83064604 0.3231275 -0.64223385 -0.922496
00000000: 998d 2e3e 1a21 8ebe b41c b2bd 8ec3 b8be
00000010: e154 f63d f921 003f f19b bc3d 21a1 0b3f
00000020: 1d93 243e ed67 3a3e 24b0 43be f017 6dbd
00000030: 7709 a1be fa0f 73bf 8952 56be cac3 d43e
00000040: 55eb e33d a62c 063e a28b 4bbe c81f 173e
00000050: 01bd b43e b4ff f33e 4708 3f3c 437e 183f
00000060: 70e7 70bd 3fbf 65bd f32b 0040 eec2 aabf
00000070: 4cd4 f3bc 3239 f4bd 23bb 163e 36ab 9c3e
00000080: c572 053e abcb 44bf 0b98 63be 230a 33bf
00000090: e681 48be 5ba5 3e3f 68f0 c83d ba8b 4ebc
000000a0: 131b 2d3f 1a59 5cbf 4974 a03e 6052 4cbf
000000b0: 15cd bcbd d418 a1be 441c e63e d6bc 123e
000000c0: b0de 49bf 51d4 11c0 2362 803e 1bd2 1d3e
000000d0: 6c4d 9bbe 2197 c33d ba04 8b3e 571a 03bf
000000e0: c546 913e db72 a4be ad65 b6bd 1bf6 6abf
000000f0: 0193 2c3d fff4 5e3e 4de5 5dbe ed1c 653d
00000100: 31aa 353f 8906 c63c 8901 b83e 2f1b 03bd
00000110: 74e4 4a3e 269a 5d3f 8cee 92be b773 ccbe
00000120: d4fb 913e 684f 6f3e 963d 3340 8c31 203f
00000130: c404 09bf 6780 e1be d284 1d3b e20e dd3d
00000140: 8fbf 66bf d10c 273f 1b4a 9a3e 1108 28bf
00000150: e76f daba 5856 193e d0d2 23be 55b3 6abf
00000160: b63f a3be b27b 5bbf 1b72 23bd a5f9 953e
00000170: 1015 203e 29ab 553e 4529 b3be 23a5 c8be
00000180: b786 39be d444 703e d2bd 8e3d 04cb 2b3e
00000190: de54 673e 2c3e 2c3f 0d76 e43d 6f75 0ebf
000001a0: ad81 83bf 8a4e a1be d5e9 1dbf 4836 a63e
000001b0: b1c9 9f3e 38ab 373c 2021 8abd 5943 db3e
000001c0: 5744 50be 4e7d d13e d358 2a3f 57e4 a9bf
000001d0: a80c 40be 7440 733c c625 973e 191f 7fbe
000001e0: ad2b 173f 6121 eb3e 6b71 793e 8023 b63e
000001f0: ec59 adbe 1009 d5be bde2 f7be 388f a1bf
00000200: 8eb8 ca3d 0208 13bf 33b8 a4be 6c08 c93d
00000210: 3799 2d3e b57e 243d dcac 0c3f af2f b73e
00000220: ed8f 9d3a 918b 21be 5fce a53d 8169 523d
00000230: 84a1 7bbd c117 5e3f b051 ee3e ecf4 90be
00000240: 3ff1 14be 729f e6bd 900f 55be a5f0 903e
00000250: bdbe 113e 0411 4abf 65a0 f6be b9b4 7c3e
00000260: 28c5 703e b8bf 503e dc2d 013f d309 07c0
00000270: a517 073f 2a41 61bf 9cc5 0abc bd46 bfbe
00000280: 8f85 26bf 2e27 bcbe 31cf 2fbf e290 dcbe
00000290: 639e 093d ee08 a8be d330 23bf d6dc b9be
000002a0: 49aa 27be 8bfd 98bf 6235 f23e 3993 a4be
000002b0: 9bbc 053f 9d5d 583e 5e39 84be bfff 953d
000002c0: 54b1 853e bfb9 2fbf 0957 613e e5b7 52bf
000002d0: 4dee 893e ad79 39be e685 033f 3209 823e
000002e0: 6ef4 6f3f 8163 fbbe 3930 763e 0242 e6be
000002f0: 9d36 77be 1ca6 483e e2d6 153f c86b 413e
00000300: c7eb 2cbe fb96 ccbf 1e21 bebe 0e12 22bf
00000310: f887 2cbf 0144 6bbd cb46 94be 4840 583e
00000320: 7cd6 5b3e 95bf 853e 744b bebe 3632 e4be
00000330: 4e1a 1f3e 8e09 d03e 5daf e43d 428e 2e3f
00000340: fad2 b0be d0d6 d3bf 112c e1be 1209 26bf
00000350: 933e d13e bbf7 453e 1541 a33e 59ec 7b3d
00000360: 88d1 c03d 8f1e 8fbf 3481 103e 5bf0 03bf
00000370: daca dd3d ca05 353f 7159 ac3d b202 e73c
00000380: cddc 913d a197 c53d 672a 88bf f29f 3ebf
00000390: 77bd 4b3f e708 12bf 5442 243e e200 563e
000003a0: 4a5f e0bd 8ef8 373e e10a 523f e076 b33d
000003b0: 6f7f 1e40 0a23 d13d a166 3cbe 3408 90bd
000003c0: f97b 87be 1c75 9a3e 486e 58bf a397 fc3e
000003d0: c006 233f 4f7a 4fbf 657e 0e3f 0709 4bbe
000003e0: 4ec7 01bf 7537 b23d 020b dfbe dfa6 ac3e
000003f0: 38a5 543f f870 a53e 7069 24bf b328 6cbf

fc1.bias f4 [64]
-0.458583 -0.20380199 -0.23046327 -0.007235155 -0.5892302 -0.30248836 0.31536523 -0.29934928
-0.014474194 0.33387488 0.38386914 -0.40079013 -0.4262933 -0.33915696 0.45091447 0.031180128
-0.13063098 0.112864986 0.32253683 0.5984238 -0.46698272 -0.5804694 -0.34833163 -0.15171534
-0.077954315 -0.3691353 -0.42902577 -0.5923847 -0.16280584 -0.07156403 0.14019434 0.3534861
0.03461445 0.61077434 -0.5758357 -0.275106 0.33773807 0.27304062 -0.33543846 -0.20731172
0.39515465 -0.41903242 0.10579981 0.24311031 0.22021012 0.20893446 0.55646735 0.66129833
0.29460445 -0.4786908 0.25200287 0.39282992 0.008109665 0.09892839 -0.39692768 -0.114605755
0.37819406 0.24994671 0.14864124 0.045493226 -0.4779491 -0.43478447 -0.02948967 0.16538477
00000000: 64cb eabe 78b1 50be 90fe 6bbe e114 edbb
00000010: cad7 16bf c1df 9abe 8d77 a13e 4f44 99be
00000020: 2b25 6dbc a6f1 aa3e 7f8a c43e 5d34 cdbe
00000030: 1e43 dabe fba5 adbe 43de e63e 786d ff3c
00000040: 21c4 05be c225 e73d 8c23 a53e 4d32 193f
00000050: 5c18 efbe a599 14bf 8658 b2be 445b 1bbe
00000060: 83a6 9fbd 4dff bcbe 44a9 dbbe 86a6 17bf
00000070: 93b6 26be 2a90 92bd 1b8f 0f3e 21fc b43e
00000080: e2c7 0d3d b55b 1c3f f869 13bf b2da 8cbe
00000090: 01ec ac3e fbcb 8b3e 97be abbe 8649 54be
000000a0: b651 ca3e 6b8b d6be 92ad d83d e9f1 783e
000000b0: c37e 613e eaf2 553e a574 0e3f d94a 293f
000000c0: 65d6 963e f616 f5be 8506 813e 0121 c93e
000000d0: 66de 043c f89a ca3d 1b3a cbbe 6cb6 eabd
000000e0: a7a2 c13e 08f2 7f3e 6935 183e 1b57 3a3d
000000f0: bfb5 f4be 129c debe 5294 f1bc a05a 293e

fc2.weight f4 [128, 69]
0.26692352 0.13708045 0.18496355 0.19877294 0.6426204 0.10758106 -0.20896308 0.3659085
0.28603935 -0.64785165 -0.1340202 0.28894192 0.34572187 0.06189683 -0.10393362 -0.34133643
-0.010255417 0.30148125 0.16871332 0.06903973 -0.25488007 0.46495983 0.53695464 0.41988057
0.022695255 0.35187465 0.37606102 0.6270413 -0.21197465 -0.052260216 0.064059265 -0.041478623
-0.052696053 -0.6855227 -0.17425323 0.091928616 -0.17025532 -0.06018688 0.04270266 0.044480827
-0.31149852 0.34747654 -0.28225407 -0.27885795 0.25089434 0.27743417 -0.7103136 -0.5676676
-0.78178525 -0.45179993 -1.3574494 -0.49958324 -0.049546983 0.1864799 0.34153688 0.4843384
-0.2103811 -0.14331196 0.039659645 0.04891566 0.21982352 0.1250778 -0.04883493 0.1110178
0.029417133 -0.37616205 -0.106515475 -0.13050042 -0.23283984 0.46061265 0.23747243 0.31360522
-0.90899795 0.5729199 0.17622767 -0.14295146 0.3762396 0.36628604 -0.71214414 -0.21625262
0.31088609 0.4241573 0.5099549 0.076077215 -0.64138687 0.13300289 0.5001445 0.09525112
0.09775054 0.45301822 0.44262734 0.50776726 0.04515066 0.579614 0.29460725 0.99522406
0.41297776 0.032991238 -1.1673149 0.26154137 0.5066431 0.34560555 -0.058663208 0.08006898
-0.053105813 0.50006497 -1.1615659 -0.0064660385 -0.44550946 0.34583285 0.19221467 -0.19401425
-0.15080607 0.5191497 0.52327186 -0.28285798 0.34937808 -0.24211949 -0.033686433 -0.6715387
0.026998911 -0.2019759 -0.069990784 0.29917845 0.039488465 -0.118791394 -0.3275375 -0.06329132
-0.77652526 0.21591584 0.3366474 -0.15381625 -0.0048157624 0.10000302 0.05998033 0.20283015
0.16002654 -0.46083537 0.6415212 0.01817725 0.19338717 0.14428948 0.4634367 0.32182956
0.00911587 0.28536558 0.17660396 -0.431466 0.0021917033 0.2648033 0.3386721 0.49704647
0.113813326 -0.70539916 0.11711461 0.33717543 -0.12300481 -0.2975714 0.62777925 0.2863536
0.46886432 0.004067378 0.52325875 0.32114607 0.9011275 0.24301666 -0.0552183 -0.8476239
-0.083560616 0.31248274 0.39925385 -0.3854797 0.46796358 -0.047213133 0.10033105 -0.03404132
0.090582535 -0.24693283 0.029625706 0.31728128 -0.48595935 0.26703885 0.31931338 0.11891797
-0.51412034 0.065461725 -0.47427437 0.2916376 -0.8269196 -0.1928526 -0.76721764 0.28983036
0.032712553 0.038454324 -0.12948391 -0.38399747 0.06146379 0.09065495 0.20283946 0.33629498
0.054999806 -0.10269548 -0.40754682 -0.2602789 0.06679436 0.12856792 0.15201117 0.1662393
0.16974524 -0.017929982 -0.27950582 0.55790335 0.11302535 0.031498346 0.40034443 0.12373976
0.10770522 -0.093954675 0.155458 0.20517941 0.312823 0.034355756 -0.00878277 0.14828682
0.34357256 0.024845347 0.3328816 0.025463823 -0.13014074 0.34686637 0.4705287 -0.53479177
0.22401072 0.62058276 0.48412335 -0.6242194 -0.7935081 -0.050071124 0.11843455 0.3348353
-0.32989013 0.34147713 -0.47544354 0.21909843 -0.40285268 -0.03679815 0.08278456 0.06896064
0.23168784 -0.06438277 -0.27197653 -0.13836429 0.41386047 -0.4438925 0.18906394 -0.20766175
00000000: 33aa 883e d15e 0c3e 1667 3d3e 228b 4b3e
00000010: c582 243f 7553 dc3d 6bfa 55be 5c58 bb3e
00000020: c073 923e 9bd9 25bf 973c 09be 32f0 933e
00000030: 7502 b13e 8887 7d3d 26db d4bd a6c3 aebe
00000040: 5606 28bc c05b 9a3e 2fc3 2c3e b464 8d3d
00000050: a47f 82be 370f ee3e dc75 093f 96fa d63e
00000060: 66eb b93c ea28 b43e 128b c03e c785 203f
00000070: e20f 59be cf0e 56bd 8131 833d 7de5 29bd
00000080: d1d7 57bd 6a7e 2fbf 706f 32be 1245 bc3d
00000090: 6957 2ebe 8586 76bd fce8 2e3d 8731 363d
000000a0: bc7c 9fbe 72e8 b13e 9b83 90be 78c6 8ebe
000000b0: 3975 803e da0b 8e3e 1dd7 35bf aa52 11bf
000000c0: 1423 48bf 5252 e7be e7c0 adbf 60c9 ffbe
000000d0: c7f1 4abd 96f4 3e3e ecdd ae3e 34fb f73e
000000e0: 256e 57be 5fc0 12be 2772 223d c95b 483d
000000f0: 6b19 613e 6514 003e 2307 48bd 4d5d e33d
00000100: 33fc f03c 5098 c0be c924 dabd e7a1 05be
00000110: 916d 6ebe 6cd5 eb3e f92b 733e dd90 a03e
00000120: 17b4 68bf e1aa 123f 0775 343e de61 12be
00000130: 7aa2 c03e d889 bb3e 144f 36bf 5471 5dbe
00000140: 762c 9f3e 252b d93e 688c 023f 5fce 9b3d
00000150: ee31 24bf e931 083e 7809 003f 0513 c33d
00000160: 6f31 c83d 01f2 e73e 0da0 e23e 09fd 013f
00000170: e6ef 383d 9561 143f c3d6 963e 01c7 7e3f
00000180: d271 d33e d221 073d 936a 95bf c0e8 853e
00000190: 5db3 013f 36f3 b03e d548 70bd 35fb a33d
000001a0: 7b85 59bd 4204 003f 31ae 94bf 10e1 d3bb
000001b0: d119 e4be 0111 b13e ecd3 443e acab 46be
000001c0: e86c 1abe ffe6 043f 25f5 053f c3d2 90be
000001d0: afe1 b23e 2cee 77be c9fa 09bd f6e9 2bbf
000001e0: d22c dd3c c5d2 4ebe 5457 8fbd eb2d 993e
000001f0: a8be 213d e748 f3bd ffb2 a7be e19e 81bd
00000200: 5cca 46bf 0b19 5d3e 0c5d ac3e 0282 1dbe
00000210: 8bcd 9dbb 62ce cc3d efad 753d b5b2 4f3e
00000220: ffdd 233e 9df2 ebbe bc3a 243f 75e8 943c
00000230: 4907 463e 9fc0 133e 9347 ed3e d8c6 a43e
00000240: bb5a 153c 701b 923e abd7 343e 1de9 dcbe
00000250: aea2 0f3b 4c94 873e 6e66 ad3e e07c fe3e
00000260: f616 e93d 0a95 34bf c9d9 ef3d 42a2 ac3e
00000270: f2e9 fbbd 475b 98be 24b6 203f f09c 923e
00000280: fc0e f03e a447 853b 49f4 053f 426d a43e
00000290: 4bb0 663f 5cd9 783e 962c 62bd e1fd 58bf
000002a0: d421 abbd bdfd 9f3e 006b cc3e 985d c5be
000002b0: ec98 ef3e 8f62 41bd 5e7a cd3d e96e 0bbd
000002c0: 5683 b93d f6db 7cbe 9cb1 f23c b172 a23e
000002d0: aacf f8be 51b9 883e 0b7d a33e 448b f33d
000002e0: 649d 03bf cc10 863d 17d4 f2be 8651 953e
000002f0: 01b1 53bf 277b 45be 6068 44bf a564 943e
00000300: 99fd 053d 4882 1d3d 6e97 04be 519b c4be
00000310: 74c1 7b3d 4da9 b93d 26b5 4f3e db2e ac3e
00000320: 7a47 613d 0252 d2bd faa9 d0be 4743 85be
00000330: 7bcb 883d 4fa7 033e d1a8 1b3e a33a 2a3e
00000340: b2d1 2d3e e6e1 92bc 631b 8fbe c1d2 0e3f
00000350: d679 e73d 6904 013d f2f9 cc3e 456b fd3d
00000360: 8e94 dc3d 4f6b c0bd 6230 1f3e 8d1a 523e
00000370: 562a a03e 9fb8 0c3d 9be5 0fbc 80d8 173e
00000380: bee8 af3e 7888 cb3c 756f aa3e 8299 d03c
00000390: 9d43 05be 7898 b13e 23e9 f03e 1de8 08bf
000003a0: 1163 653e 83de 1e3f 04df f73e d8cc 1fbf
000003b0: 5923 4bbf 6117 4dbd d08d f23d 886f ab3e
000003c0: 5ce7 a8be 17d6 ae3e 566d f3be 575b 603e
000003d0: b542 cebe a8b9 16bd f48a a93d 3c3b 8d3d
000003e0: 943f 6d3e 1ddb 83bd 8240 8bbe 5eaf 0dbe
000003f0: 85e5 d33e e145 e3be fa99 413e 48a5 54be

fc2.bias f4 [128]
-0.3295933 0.17656586 -0.27390566 0.13353696 -0.1557679 -0.44888473 0.09262956 -0.053518713
0.25628704 -0.04902342 -0.07359575 0.034225263 0.014896485 0.08383755 0.31433114 -0.13253258
0.004913354 0.056950536 0.018469984 -0.358612 -0.11147835 -0.2505801 0.1504433 0.064448744
-0.053865027 -0.044070072 -0.15789126 0.04293614 0.36692888 0.086636566 0.13392496 0.2278169
0.16828474 0.002124389 0.19999625 0.13006365 -0.04480938 -0.2576819 0.07423705 0.055969227
0.15345463 0.1363818 -0.08334661 0.14598052 0.024187405 0.11983747 0.15717159 -0.35754028
-0.11513723 -0.31959444 0.31808013 0.3679636 -0.125848 -0.2585109 0.059741557 0.006354078
-0.4349868 0.039125983 -0.15492482 0.40701196 -0.5572037 -0.037791714 0.079197794 -0.18269692
0.052512806 0.117636636 0.33094615 -0.4337887 -0.079950616 0.38510796 0.28948084 -0.015145242
0.1566746 -0.08051511 -0.15614118 0.1939696 -0.11362339 -0.105511226 -0.41361877 0.044758935
-0.16974454 -0.032032207 -0.017448882 0.16953914 0.21346778 0.13728419 0.08326228 -0.00295752
0.28478456 0.07407547 0.15641516 0.019802481 0.03427105 -0.41575035 0.031748723 0.10387939
-0.33222288 0.35674185 0.24945614 0.23558225 -0.017204946 0.09400679 -0.1362931 0.13466296
-0.19177985 -0.050968878 -0.08248376 -0.100963995 0.2141811 0.10712385 -0.07998958 -0.08136534
0.0071756393 0.011031453 0.019456472 0.3434687 0.02348608 0.27594262 0.17818362 0.14428632
0.19858202 -0.29302484 0.2471725 -0.23261 0.19323067 0.5390576 0.17777498 -0.30767938
00000000: 74c0 a8be aecd 343e 5d3d 8cbe eabd 083e
00000010: 9f81 1fbe 38d4 e5be 91b4 bd3d 7036 5bbd
00000020: 0e38 833e c8cc 48bd 5eb9 96bd ca2f 0c3d
00000030: 6310 743c 05b3 ab3d 03f0 a03e 9fb6 07be
00000040: 3300 a13b f744 693d 5d4e 973c fe9b b7be
00000050: c34e e4bd 094c 80be cf0d 1a3e b4fd 833d
00000060: 93a1 5cbd d282 34bd 3fae 21be cedd 2f3d
00000070: 1ade bb3e 836e b13d a023 093e d548 693e
00000080: d652 2c3e 5539 0b3b d1cb 4c3e 682f 053e
00000090: 0a8a 37bd e2ee 83be 9809 983d fd3f 653d
000000a0: 3623 1d3e aca7 0b3e a1b1 aabd eb7b 153e
000000b0: aa24 c63c 596d f53d 97f1 203e 850f b7be
000000c0: 11cd ebbd e2a1 a3be 66db a23e ba65 bc3e
000000d0: 4cde 00be 8a5b 84be 90b3 743d df35 d03b
000000e0: 97b6 debe 9142 203d 9da4 1ebe df63 d03e
000000f0: e7a4 0ebf 7ccb 1abd 7432 a23d e714 3bbe
00000100: ab17 573d 7aeb f03d c671 a93e 8d19 debe
00000110: 26bd a3bd df2c c53e d536 943e c023 78bc
00000120: 4e6f 203e 1be5 a4bd 79e3 1fbe f89f 463e
00000130: 61b3 e8bd 4516 d8bd d7c5 d3be 2555 373d
00000140: 83d1 2dbe 3434 03bd f5f0 8ebc ab9b 2d3e
00000150: 4c97 5a3e 3a94 0c3e 6a85 aa3d f4d2 41bb
00000160: 48cf 913e e1b4 973d 4c2b 203e d038 a23c
00000170: cd5f 0c3d 3bdd d4be f30a 023d b8be d43d
00000180: 1e19 aabe dea6 b63e 6e71 7f3e 793c 713e
00000190: 63f1 8cbc a286 c03d 6b90 0bbe 16e5 093e
000001a0: f061 44be bec4 50bd 3fed a8bd 36c6 cebd
000001b0: 4a52 5b3e c063 db3d 94d1 a3bd dfa2 a6bd
000001c0: a021 eb3b 44bd 343c 2e63 9f3c 21db af3e
000001d0: e165 c03c 5a48 8d3e c475 363e cbbf 133e
000001e0: 1659 4b3e 5a07 96be ca1a 7d3e 5131 6ebe
000001f0: 43de 453e aeff 093f a50a 363e 2788 9dbe

fc3.weight f4 [5, 192]
1.2165728 2.0232139 1.0281467 1.3881825 -0.41829833 -0.12682992 -10.34736 0.50292075
-0.71335185 0.35738727 1.7250481 -0.15394679 1.9684626 -1.6126587 0.46932536 2.185061
-2.318737 -0.764066 -4.601969 -0.23923135 0.19588356 -1.097044 -0.43089637 -1.1846459
-1.1748688 5.2617564 -1.4233745 -0.69108945 3.9210806 4.0640173 3.4816668 -1.0196376
1.2842547 -10.691525 -1.738803 0.1257193 -1.0181172 -5.933734 -0.065730765 1.7121352
-8.12714 1.538973 0.5369535 -1.4954948 5.5054984 -2.04736 -0.7178438 0.48457262
2.4274302 5.104119 -6.6394405 0.38604683 2.1273463 -4.3535423 -2.398835 -0.680523
-3.8358998 1.91511 0.7598278 -0.8201475 3.628421 -2.243759 -1.7516458 -6.540238
-0.4810869 -1.4968941 1.750825 -1.2603593 -0.403515 -0.71697897 -0.8418537 -0.051632203
-0.72939414 -0.110861786 -0.008580031 0.23674823 0.24847491 0.55624235 1.2615542 0.9212027
-1.1887167 -1.0052078 0.5217833 -0.531856 -0.06415118 -0.52571565 -0.68718195 -1.2431744
0.9220205 1.0795401 0.715718 -1.4033043 0.61051404 0.8377684 -1.899968 -0.12587193
-0.83389616 1.5275058 0.52324116 -0.5820739 1.5344408 -0.80190927 1.2128799 1.5579973
0.590883 0.1456447 0.03527671 -0.9071303 -0.34228247 -1.401449 -1.9942428 -0.27665776
0.17175913 0.0023208943 -0.8941088 -0.8785784 0.03359157 -0.08209844 -0.1461896 1.7438334
1.0056149 0.007855455 0.6046281 -0.4539719 -0.4197921 -0.07023001 -0.06574453 0.9097979
1.6715791 0.1481256 -2.1079645 -0.78475064 0.29935053 -0.6394626 -0.18732396 0.712826
0.057121526 0.1946043 -0.31529415 -1.8968405 -0.012500641 0.19872898 0.13498652 0.9766357
1.1611259 -0.023250042 0.109338544 0.7955656 0.4449876 -1.2724475 -1.8159049 -1.3409061
0.15872604 -1.2844249 -1.5578111 1.7573432 -1.0461079 -0.5610185 0.3981207 0.23061568
-0.36726487 -0.31951186 1.0401306 -0.07877797 0.19391741 -0.6156518 0.03157739 -0.31862068
0.4944135 1.0834323 0.5501955 0.008997011 0.9029761 -0.12893608 -1.6420591 -0.07927216
0.28708714 -1.3976283 0.79099876 0.30581555 -1.0516384 0.015652796 -0.8512145 -4.15534
-0.21964309 2.2314646 0.75048965 -0.7401241 -0.7496104 -1.6974636 -2.1420288 0.35054445
-0.7380083 -0.42723757 -0.28919548 -1.1347901 0.5318145 0.3843401 10.633425 0.09254728
1.4844351 0.37980548 -1.718956 0.09131266 -1.107027 1.9059654 -0.4127278 -1.7984332
1.9803706 1.5621779 2.9112935 0.23626433 0.38672575 1.7019968 0.5851757 1.5171402
0.926805 -2.6948733 1.5549386 0.85736793 -2.3685176 -2.2485871 -2.912153 0.6764548
-0.9720085 12.994861 1.9003276 0.051808428 0.47316304 5.6032825 0.037142232 0.013948831
7.9412727 -0.9288565 -0.33357212 0.579009 -4.667369 1.7767347 0.6643136 -0.31392467
-1.5871419 -2.785102 6.451365 -0.13794772 -2.9396358 4.8555555 2.308045 0.78365546
5.2150636 -1.3432547 -0.20927078 0.93695825 -2.5521965 2.3327456 2.9292328 5.522924
00000000: a8b8 9b3f 567c 0140 509a 833f f7af b13f
00000010: 332b d6be b4df 01be c98e 25c1 6abf 003f
00000020: 3a9e 36bf 77fb b63e 60ce dc3f 3aa4 1dbe
00000030: 95f6 fb3f 9a6b cebf 6a4b f03e 0ad8 0b40
00000040: 3066 14c0 d499 43bf 5443 93c0 10f9 74be
00000050: b395 483e f06b 8cbf 739e dcbe 7aa2 97bf
00000060: 1a62 96bf 4f60 a840 2331 b6bf 3deb 30bf
00000070: fcf2 7a40 6e0c 8240 a1d3 5e40 7c83 82bf
00000080: 7562 a43f 7d10 2bc1 1991 debf 8fbc 003e
00000090: aa51 82bf 26e1 bdc0 da9d 86bd 3f27 db3f
000000a0: c408 02c1 11fd c43f c975 093f 606c bfbf
000000b0: 0b2d b040 f207 03c0 9cc4 37bf e719 f83e
000000c0: 045b 1b40 f154 a340 4c76 d4c0 eea7 c53e
000000d0: 7126 0840 3850 8bc0 8386 19c0 c136 2ebf
000000e0: 627f 75c0 5322 f53f 1384 423f 30f5 51bf
000000f0: 0d38 6840 bf99 0fc0 ee35 e0bf a149 d1c0
00000100: 0651 f6be 3a9a bfbf 091b e03f 7453 a1bf
00000110: 8599 cebe ef8b 37bf b983 57bf 4a7c 53bd
00000120: 93b9 3abf 810b e3bd 4293 0cbc 216e 723e
00000130: 3570 7e3e e665 0e3f 9c7a a13f f1d3 6b3f
00000140: de27 98bf a6aa 80bf 9793 053f b727 08bf
00000150: b261 83bd 4d95 06bf 28eb 2fbf 5720 9fbf
00000160: 8909 6c3f 5f2e 8a3f 4b39 373f 7a9f b3bf
00000170: a64a 1c3f fd77 563f 2732 f3bf 92e4 00be
00000180: 387a 55bf 4f85 c33f 22f3 053f cc02 15bf
00000190: 8e68 c43f ed49 4dbf a63f 9b3f 756c c73f
000001a0: 1c44 173f e223 153e 507e 103d b139 68bf
000001b0: a63f afbe ae62 b3bf 5943 ffbf 16a6 8dbe
000001c0: a0e1 2f3e 251a 183b 50e4 64bf 84ea 60bf
000001d0: 5097 093d 3a23 a8bd bab2 15be ef35 df3f
000001e0: fdb7 803f 2bb4 003c e8c8 1a3f 016f e8be
000001f0: fdee d6be c0d4 8fbd 11a5 86bd 84e8 683f
00000200: 4ef6 d53f 3dae 173e e4e8 06c0 6be5 48bf
00000210: 7944 993e d2b3 23bf dad1 3fbe c47b 363f
00000220: 43f8 693d 5a46 473e 3c6e a1be abcb f2bf
00000230: 7dcf 4cbc 9c7f 4b3e e839 0a3e cc04 7a3f
00000240: c69f 943f df76 bebc e3ec df3d 30aa 4b3f
00000250: 6ad5 e33e 8fdf a2bf 926f e8bf d0a2 abbf
00000260: 1489 223e 0968 a4bf 5b66 c7bf 9ff0 e03f
00000270: dde6 85bf e99e 0fbf 7ad6 cb3e 8426 6c3e
00000280: 240a bcbe 0f97 a3be 0023 853f 5856 a1bd
00000290: 4992 463e 5b9b 1dbf 4b57 013d 4022 a3be
000002a0: c423 fd3e e9ad 8a3f 9dd9 0c3f 3368 133c
000002b0: 7129 673f d207 04be fe2e d2bf 7159 a2bd
000002c0: 16fd 923e 7ce5 b2bf e57e 4a3f db93 9c3e
000002d0: 169c 86bf 4b3a 803c 32e9 59bf 8cf8 84c0
000002e0: 1eea 60be 51d0 0e40 1720 403f c678 3dbf
000002f0: 78e6 3fbf 7d46 d9bf 0017 09c0 907a b33e
00000300: 1dee 3cbf e2be dabe 6e11 94be cd40 91bf
00000310: ff24 083f 3ac8 c43e 8222 2a41 6e89 bd3d
00000320: f801 be3f dd75 c23e c006 dcbf 2202 bb3d
00000330: 10b3 8dbf adf6 f33f 0f51 d3be 0f33 e6bf
00000340: c97c fd3f 72f5 c73f a252 3a40 47ef 713e
00000350: eb00 c63e 08db d93f 13ce 153f a631 c23f
00000360: 1843 6d3f ce78 2cc0 3a08 c73f 777c 5b3f
00000370: cb95 17c0 dae8 0fc0 b760 3ac0 242c 2d3f
00000380: 8dd5 78bf f3ea 4f41 ef3d f33f 1335 543d
00000390: 6d42 f23e 174e b340 7422 183d a389 643c
000003a0: e81e fe40 8ac9 6dbf f7c9 aabe ef39 143f
000003b0: 165b 95c0 0b6c e33f 7510 2a3f bcba a0be
000003c0: 7727 cbbf 1c3f 32c0 9571 ce40 2b42 0dbe
000003d0: fe22 3cc0 b660 9b40 02b7 1340 a59d 483f
000003e0: cde1 a640 c5ef abbf 144b 56be 7fdc 6f3f
000003f0: 3057 23c0 b44b 1540 8d78 3b40 cbbb b040

fc3.bias f4 [5]
-4.157638 3.4200976 0.19205442 -0.60443276 -3.8538935
00000000: 5f0b 85c0 e1e2 5a40 eaa9 443e 1bbc 1abf
00000010: 31a6 76c0

fc4.weight f4 [4, 128]
-0.5786925 -0.8142451 0.14738658 -0.18408531 -0.115150236 -0.3779683 0.25955534 -0.006478199
0.3332253 -0.0743759 -0.11468133 -0.24676156 -0.03844959 0.6442966 1.6888746 -0.80359364
-0.21797787 -0.22664155 -0.26366928 0.39447683 0.011256837 0.74412817 -1.1469789 -0.24943753
-0.29344875 -0.39173383 -0.38084945 -1.639281 0.98349565 0.78688186 0.737336 0.5620832
-0.12177865 -0.7337972 -1.0498495 -0.21056314 -0.66105795 -0.77014834 0.44922274 0.24139838
0.81883377 -0.71104586 0.0034294967 -0.19618207 -0.637725 -0.9596982 -0.29747784 -0.5927967
-0.48256058 -0.92714506 0.6750196 0.8055416 0.033110086 0.28698343 0.3183467 0.6364024
-0.47966763 0.07574025 0.35872215 0.5051052 -0.61689174 -0.3397593 -0.008233218 -0.48882943
1.4072762 -0.2060886 0.9311832 -0.32256123 -0.35584918 0.43911216 1.303801 -0.3580507
-0.2444712 -0.035991095 -0.67909706 -0.19880058 0.057825226 -0.25318202 -0.48829556 1.0377747
-0.84965676 -0.064196765 -0.25265396 1.061255 -1.0296631 -0.31040862 0.032045864 -0.40355015
0.29495844 -0.30231795 -0.29467562 -0.67697126 -0.45857066 -0.5782595 -0.2779354 -0.685319
-0.4960589 0.8077671 1.0051782 -0.8559277 -0.44189173 -0.22367358 -0.07459789 -0.2993541
0.6506336 -0.8521219 -0.096842654 -0.16139074 2.0498114 0.60157657 1.528527 0.025842372
-0.18154874 -0.6860477 -0.66167223 0.3853448 -0.22988546 0.49159542 -2.1832583 0.48356056
-0.9967866 3.1731951 -0.4122574 -0.22147605 -0.19763196 1.3469579 -0.27016085 0.5657835
-0.30458155 -0.120898746 -0.1673937 -0.16771547 0.14627796 -0.46217728 0.356046 -0.018918097
0.0714579 -0.625188 -0.9739542 -0.27171957 0.2646593 0.314788 1.0917026 -0.6538351
-0.28943008 -0.32865402 -0.4826029 -0.5170616 -0.023557339 0.3013126 -0.75503665 -0.24451143
-0.67087406 -0.21870273 -0.56764674 -1.309127 0.7853737 1.6717901 1.2404256 0.2092102
0.009320988 -0.62959343 -0.5933709 -0.17268582 -0.7510254 -0.32137647 0.19650969 0.19474398
1.5397213 -0.6396953 -0.07194484 -0.33006462 -0.7517201 -0.42343232 -0.39285895 0.19888644
-0.579441 -0.65004253 0.8610892 0.8892209 -0.03274951 0.037635565 0.20147085 1.1121134
-0.6304692 0.06893324 -0.06524544 0.33734664 -0.1958908 -0.4792154 -0.05062098 -0.87912273
0.09902352 -0.3170821 1.3675609 -0.67467517 -0.571383 0.3960063 1.2476134 -0.5729496
-1.0343251 -0.2659796 -0.31243312 -0.4706119 0.05221855 -0.362354 -0.63402706 0.45476103
-0.4932154 0.031544387 -0.25795427 0.32947642 -1.0386689 -0.35782936 0.19853564 -0.050503384
0.4486245 -0.37529466 -0.3602414 -0.42533663 -0.5943284 -0.38697368 -0.6398301 -0.6785906
-0.034732055 0.6703226 0.52550346 -0.47517908 -0.43973428 -0.25970626 -0.009420983 -0.40499213
0.057555187 -0.84664667 -0.48239022 -1.4665239 2.1081192 0.37212884 1.4323759 -0.040503297
-0.18045183 0.187455 -0.02016394 0.41882426 -0.26081523 0.8876942 -1.3435074 0.30443934
-0.5684794 2.437969 -0.96113324 -0.42132023 -0.3128523 1.6111318 -0.22286607 -0.64010704
00000000: 3125 14bf 5e72 50bf 82ec 163e dc80 3cbe
00000010: e3d3 ebbd 1085 c1be 70e4 843e 1247 d4bb
00000020: 829c aa3e 6452 98bd 0cde eabd 10af 7cbe
00000030: 517d 1dbd 9ff0 243f 0b2d d83f 50b8 4dbf
00000040: 9735 5fbe b914 68be a9ff 86be def8 c93e
00000050: 996e 383c 2f7f 3e3f 34d0 92bf 8d6c 7fbe
00000060: ea3e 96be 5691 c8be b3fe c2be f6d3 d1bf
00000070: 5fc6 7b3f 1771 493f 0dc2 3c3f afe4 0f3f
00000080: 1667 f9bd 22da 3bbf 7861 86bf dd9d 57be
00000090: 183b 29bf 7128 45bf 8600 e63e 2331 773e
000000a0: 179f 513f 1a07 36bf 68c1 603b f4e3 48be
000000b0: f241 23bf c8ae 75bf 044f 98be 86c1 17bf
000000c0: 2e12 f7be 6159 6dbf 16ce 2c3f f937 4e3f
000000d0: 719e 073d 7eef 923e 57fe a23e 45eb 223f
000000e0: ff96 f5be b41d 9b3d 6eaa b73e 934e 013f
000000f0: 9eec 1dbf eef4 adbe 9fe4 06bc da47 fabe
00000100: a021 b43f e408 53be 0662 6e3f bf26 a5be
00000110: dd31 b6be 4fd3 e03e f3e2 a63f 6c52 b7be
00000120: a956 7abe 666b 13bd 4ed9 2dbf 6192 4bbe
00000130: 25da 6c3d 13a1 81be e001 fabe cdd5 843f
00000140: 1b83 59bf 9879 83bd dc5b 81be 34d7 873f
00000150: 00cc 83bf e1ed 9ebe 8642 033d 209e cebe
00000160: cb04 973e 6bc9 9abe b9df 96be fd4d 2dbf
00000170: c6c9 eabe d108 14bf 8c4d 8ebe 1171 2fbf
00000180: 6ffb fdbe d3c9 4e3f aea9 803f 141e 5bbf
00000190: a23f e2be b00a 65be c7c6 98bd f144 99be
000001a0: ec8f 263f a924 5abf 7155 c6bd 9d43 25be
000001b0: 1c30 0340 ec00 1a3f c6a6 c33f 62b3 d33c
000001c0: eae7 39be d2a0 2fbf 5a63 29bf ea4b c53e
000001d0: 1867 6bbe 65b2 fb3e 81ba 0bc0 4095 f73e
000001e0: 682d 7fbf a115 4b40 6713 d3be 9eca 62be
000001f0: 0860 4abe 1e69 ac3f 8652 8abe 30d7 103f
00000200: 1df2 9bbe c399 f7bd 4169 2bbe 9bbd 2bbe
00000210: e4c9 153e 80a2 ecbe a94b b63e 20fa 9abc
00000220: 8558 923d 520c 20bf 1055 79bf d41e 8bbe
00000230: 6c81 873e e52b a13e e9bc 8b3f bd61 27bf
00000240: 2e30 94be 5745 a8be ba17 f7be 265e 04bf
00000250: 52fb c0bc a545 9a3e 154a 41bf 3461 7abe
00000260: 67be 2bbf 9cf3 5fbe 4c51 11bf 7991 a7bf
00000270: 400e 493f 38fd d53f 44c6 9e3f 333b 563e
00000280: 0fb7 183c 092d 21bf 28e7 17bf 8dd4 30be
00000290: 3343 40bf 758b a4be d639 493e f76a 473e
000002a0: 9615 c53f 12c3 23bf d157 93bd 3bfe a8be
000002b0: ba70 40bf 1fcc d8be cf24 c9be e3a8 4b3e
000002c0: 3f56 14bf 3069 26bf 5870 5c3f fba3 633f
000002d0: 5a24 06bd c027 1a3d 604e 4e3e bb59 8e3f
000002e0: 6e66 21bf df2c 8d3d 679f 85bd b3b8 ac3e
000002f0: 9997 48be b95b f5be f257 4fbd 300e 61bf
00000300: d8cc ca3d 9658 a2be 3c0c af3f 83b7 2cbf
00000310: 2846 12bf 56c1 ca3e ccb1 9f3f d3ac 12bf
00000320: c464 84bf 7a2e 88be 3cf7 9fbe 0bf4 f0be
00000330: 1ee3 553d 7786 b9be 994f 22bf 70d6 e83e
00000340: bb86 fcbe b034 013d 9512 84be 22b1 a83e
00000350: 1af3 84bf 6935 b7be ed4c 4b3e a3dc 4ebd
00000360: 1cb2 e53e 9f26 c0be 9071 b8be b9c5 d9be
00000370: e825 18bf 6a21 c6be e8cb 23bf 1db8 2dbf
00000380: 3343 0ebd 439a 2b3f 6587 063f ac4a f3be
00000390: da24 e1be 38f8 84be 775a 1abc 215b cfbe
000003a0: fdbe 6b3d d6bd 58bf dafb f6be 0eb7 bbbf
000003b0: 6deb 0640 ac87 be3e 1858 b73f c9e6 25bd
000003c0: 5dc8 38be 34f4 3f3e d92e a5bc 2270 d63e
000003d0: 9389 85be ed3f 633f 0df8 abbf 79df 9b3e
000003e0: de87 11bf af07 1c40 d40c 76bf 49b7 d7be
000003f0: 2d2e a0be 9139 ce3f 0137 64be 0ede 23bf

fc4.bias f4 [4]
0.08729331 0.14696182 0.32409555 -0.05919495
00000000: d6c6 b23d 297d 163e daef a53e 6776 72bd
