solved.pth (torch_old, 43958 bytes, 8 tensors)

fc1.weight f4 [64, 8]
00000000: 9074 b2be 1873 c5bf 1d05 69be eec0 9abf
00000010: a5d6 11bf db9c b63d 5aa0 743e dd71 e33e
00000020: de24 373e fee2 17bf e74c a6be 6ee1 953e
00000030: c455 87bf 3944 a5be 7bfd 01be b16b ee3d
00000040: 94b2 403d d7cb 1cbe 4930 ba3d 6ac3 b5be
00000050: cea4 7c3e 969a 8f3f 69fd dc3d 832d 673f
00000060: 6ab4 523e 663f fc3e e78e 3cbd 0a8c 30bf
00000070: e252 98bf eeb8 4cbe d3c6 2dbd 4751 443f
00000080: a96e f4be 12e9 06c0 cf9e 03be 3062 97bf
00000090: f822 f1be a4bb 293e 4822 ea3e 51d8 ea3e
000000a0: 4794 673e f821 fdbc 379d 0c3f 5840 35bf
000000b0: ce69 6cbf 315e 79bf 59b7 cd3d 723f a13e
000000c0: 86ca 59bf f303 29bf c407 a8be 7009 1d3f
000000d0: ce48 f1be fff9 0e3f 0d93 023f 0ea2 a33e
000000e0: 9c6f 4c3f 0f96 67bf d44d 213f b841 3cbf
000000f0: cb17 bdbe 4bce fdbd 5331 6d3e f98a ac3d
00000100: 2538 623f e146 82b9 5838 733f d4c7 47bd
00000110: 93b3 1e3e e41b db3e 940f 86be 7697 693e
00000120: 710c e9bc fc74 c6be c65f ab3e d4d2 0140
00000130: cfc2 1e3e e172 68bf 0738 b13c 6d32 7e3f
00000140: a613 43be d4c2 283f 6b2f 043f 4974 0ebf
00000150: a755 413f 9141 9c3e 458e 14bf 053c 83bf
00000160: b087 fcbe 3376 95bf 64fd c4be a90c 93bf
00000170: fc92 d5bd b6ca 8a3d 4cc9 38bf 674c 29be
00000180: 2386 f8bd 16dc 983e 06ee 1a3e d40c 31be
00000190: 1187 a63e 31fb a93f cd4d 253e 5349 02bf
000001a0: 5e0c 70bf d1e6 7abf 180c b5be b034 62bf
000001b0: 8562 1fbf 25f5 853b d433 733e 698a d43e
000001c0: f28b 3abe c6df 243f b735 343f a9ec 7dbf
000001d0: 809d 033f d450 253e 3d47 993e 816d 8cbe
000001e0: ced5 353f 6fac 0c3f 66b8 153e ce91 743f
000001f0: 86e7 69bf 3947 97bf b854 d2be 87fb 12bf
00000200: f32a eebd 294a e6bf d83f 243e 28c5 3ebf
00000210: 5122 c43e 7624 d4bd 82ef 0e3f 3535 debd
00000220: 5415 6ebf c243 d4be 6f38 47bd 7b05 05bf
00000230: 64f3 303f 41a0 163f c4cc 1a3f 29db 42be
00000240: 1817 40bf ca77 abbd 8cdd 25bf 52d0 59be
00000250: ca6c 1a3f c12c a0bf 299d a4bf 40c4 f8be
00000260: 0e73 81be ebbd 1a3f 4052 313f a357 adbf
00000270: ad6b 603f 1f0a 2ebf ab30 883e 0b35 23be
00000280: 5c43 17bf 305a 55bf d492 90be 38ee a8bf
00000290: e4c4 483e b5c5 003f 1dfa 3e3e 3f03 933e
000002a0: cf1a 143f 8f1c 62bf b467 693f 2ef7 28bf
000002b0: 1c18 a33e 8194 b0bc f79b 593e 1fe3 9f3e
000002c0: 6667 113f e813 e1bf 2148 40bc 752f 803e
000002d0: 5ca9 913b c8b2 bdbe 2b46 3d3f f723 803e
000002e0: 0c4a 563f c80b 01be 4dcd 1e3f 3dbe bcbe
000002f0: ab3c 87be 124f 00bd 4bed 403f 92c9 713b
00000300: f9ff 90be 93dd e1bf 94a1 4abf 9412 fcbd
00000310: 4a8b 5abe e8cc f73e 026d 99be 007f 2a3c
00000320: 78f0 68be 6f81 27bf 4bbd 943e 7367 dabe
00000330: 0fd7 0dbf fd33 3c3f bd8b a9bd e982 07bd
00000340: 9038 efbe 3b0f e3bf 140e 08bf 314a 2bbf
00000350: 9343 8f3f 6ebf a9be bb9f ba3e 9949 9fbd
00000360: c65e 18bd 8771 96bf e711 923f b56e f2be
00000370: 5f3b 2abf 536c bd3e fe09 d93e 3475 2cbe
00000380: 72bf 97bf 314e fe3d 0137 20bf d915 01bf
00000390: 2e60 6bbe fcc1 333d 3482 a33d 2590 3a3f
000003a0: 200b 2e3f ec9f bd3e 86cd a23f fbcc 213f
000003b0: 53bc d43e acb7 dcbe 507b fdbd ba73 d83d
000003c0: 01b3 803e 1624 a53e a78b 0ec0 cbd7 6cbf
000003d0: 9371 81be 9c38 7cbf a9ff f73e 3c7c 2bbf
000003e0: 3e95 373e 8bfb b63d 14ab 1abf 774d 76be
000003f0: 9094 ad3f d42f a13e 829f 60bf 4346 56bf
-0.34854555 -1.5425749 -0.22755857 -1.2090127 -0.56968147 0.089166366 0.23889294 0.44422808
0.17885157 -0.5933074 -0.32480547 0.29273552 -1.0573049 -0.32278612 -0.12694351 0.11641634
0.047045305 -0.15312134 0.09091241 -0.35500652 0.24672243 1.1219051 0.10790522 0.9030382
0.20576635 0.4926712 -0.04603472 -0.6896368 -1.1900294 -0.1999242 -0.04242594 0.7668652
-0.47740677 -2.1079755 -0.1285355 -1.182684 -0.47096992 0.16575485 0.4572928 0.4586816
0.22615157 -0.030899987 0.5492739 -0.70801306 -0.92348945 -0.9740935 0.100447364 0.31493717
-0.8507465 -0.6602165 -0.32818425 0.61342525 -0.47125858 0.55850214 0.5100563 0.31959575
0.798578 -0.90463346 0.6300938 -0.7353778 -0.36932215 -0.12392863 0.23163347 0.084249444
0.8836692 -0.0002484834 0.9500785 -0.048774555 0.1549819 0.42794716 -0.2618376 0.22811684
-0.028448315 -0.38761127 0.33471507 2.028493 0.15504001 -0.9080029 0.021633161 0.99295694
-0.19050464 0.65922284 0.51634854 -0.5564619 0.7552132 0.30518773 -0.58029586 -1.0252692
-0.4932227 -1.1676697 -0.38474572 -1.1488239 -0.10428426 0.06776945 -0.72182155 -0.16533051
-0.121349595 0.29855412 0.15129861 -0.1729005 0.32524922 1.3279783 0.1614296 -0.50893134
-0.9376887 -0.9800845 -0.3536079 -0.88361645 -0.62259704 0.0040880614 0.2375024 0.4151185
-0.18217447 0.6440395 0.7039446 -0.9918924 0.514122 0.16144115 0.29937163 -0.27427295
0.71029365 0.5495061 0.14621124 0.9553498 -0.913689 -1.181861 -0.4108026 -0.5741505
-0.11629286 -1.7991382 0.1603998 -0.74519587 0.3830743 -0.10358517 0.5583421 -0.10849992
-0.93001294 -0.41457945 -0.048637804 -0.5196149 0.69121385 0.5883828 0.604687 -0.19028915
-0.7503524 -0.08372457 -0.6479118 -0.21270874 0.6032225 -1.2513658 -1.2860461 -0.48587227
-0.25283092 0.6044604 0.6926613 -1.354237 0.876643 -0.67984194 0.2659963 -0.15938203
-0.5908716 -0.8334074 -0.2823702 -1.3197699 0.19606358 0.50301677 0.18650098 0.28713414
0.57853407 -0.88324827 0.91173863 -0.66002166 0.31854331 -0.021555187 0.21250902 0.31227967
0.567984 -1.75842 -0.011735947 0.25036207 0.004445238 -0.37050462 0.7393519 0.2502744
0.83706737 -0.1260215 0.62032014 -0.3686389 -0.26413473 -0.031325407 0.7536208 0.0036893827
-0.28320292 -1.7645744 -0.791528 -0.12308231 -0.21342197 0.4839852 -0.2996598 0.010406256
-0.22747982 -0.65431875 0.2905067 -0.4265705 -0.5540628 0.7351683 -0.08278606 -0.03308383
-0.4672284 -1.7739023 -0.5314648 -0.6691008 1.1192497 -0.33153862 0.3644999 -0.077777095
-0.037199758 -1.1753396 1.1411713 -0.47350088 -0.66496843 0.36996707 0.42390436 -0.16841584
-1.18553 0.124172576 -0.6258393 -0.5042396 -0.22985908 0.04388617 0.07983819 0.728762
0.67985725 0.37036073 1.2718971 0.632034 0.4154993 -0.4310888 -0.123770356 0.10568948
0.2513657 0.32254094 -2.2272737 -0.92516774 -0.25281963 -0.9852388 0.4843724 -0.6698644
0.17928025 0.08934697 -0.60417295 -0.24052988 1.3560963 0.31481802 -0.8774339 -0.8370096

fc1.bias f4 [64]
00000000: 1135 c2be a346 f6be 765a 703d 2438 c3be
00000010: 6bc6 23bf bd82 e5be 63bc 653e 0ec2 f7bd
00000020: ac43 7c3e dc56 7f3e 7892 2d3e af5a 603e
00000030: 8ade 93be 2240 f6be fab5 223f fbb5 633e
00000040: 0a8a ffbe ced7 403e c987 a93e c427 d33e
00000050: 922c cabe 2004 0bbf d1a5 1ebf 1165 a9bd
00000060: 0f4c 793e 1b57 4ebf fbbf b5be 920e 74be
00000070: 8ece d2bd 9325 02bf ce54 a93d a29d 58be
00000080: 0b60 e2bd 5c89 013f 25ea 50bd 9629 86bd
00000090: 4853 c93e 7eba fd3e 97be abbe f76f 7ebe
000000a0: 8aba b73e 3e30 d0be af25 b83e 669e 803f
000000b0: 4d7d 153f d0a2 103f 11f3 873f e7f1 913e
000000c0: 80af dbbe be3d 21be 0eb2 54be 8e25 123f
000000d0: 48d8 363e 474b 473f 7acd 0abf 2bef 23bc
000000e0: 2348 af3e a8dc 433e a6cf f63c ec57 f73d
000000f0: 115c 85be 9be1 23bf e50b fa3e 07aa 333f
-0.3793111 -0.48100767 0.05868002 -0.3812877 -0.63974637 -0.44826308 0.22435145 -0.1209756
0.2463519 0.24935478 0.16950405 0.21909593 -0.2888072 -0.48095804 0.63558924 0.22237389
-0.49910003 0.18832323 0.33111408 0.41241276 -0.3948713 -0.5430317 -0.61971766 -0.0827123
0.2434542 -0.8060166 -0.35498032 -0.23833683 -0.102933034 -0.50838584 0.08268128 -0.21153882
-0.11053475 0.5060022 -0.051004548 -0.06550901 0.3932135 0.49556345 -0.33543846 -0.24847399
0.35884506 -0.40661806 0.3596625 1.0048339 0.5839432 0.5649843 1.0621053 0.2850487
-0.42907333 -0.15746209 -0.20771047 0.57088554 0.17855942 0.7784924 -0.5421978 -0.010005753
0.34234723 0.19127142 0.030128311 0.12077317 -0.26046804 -0.6401612 0.488372 0.70181316

fc2.weight f4 [128, 69]
00000000: 295e 98bf 271f 33bf 1c9b e0bf 061c 313e
00000010: 3b86 60bf f377 a9be 3253 78bf 65ba 33bf
00000020: 7918 41bf 1d20 303e 2a9c 273f 6a64 0e3e
00000030: 6f24 d0bf 812b 80bf d3d9 503e 2229 d9be
00000040: 7a94 43be 5511 7fbf bc49 133f f946 9c3e
00000050: 9ce3 12c0 0fda 92bf 0ee8 bbbe ebe8 a7be
00000060: b574 8dbe 5939 9fbf e0e7 2bbf 2708 43bf
00000070: a9eb 99bf 01c7 1a3f 5563 e7bb 17e2 743f
00000080: a7ac acbe e344 923e 330a 203f 1812 fe3d
00000090: c190 5a3e 624d 023e fce8 2e3d 3a2d 41bf
000000a0: 3212 5abf f634 93be 8eb7 703e ee3d ef3e
000000b0: 1e9b 7abe d8a7 75bf 58f8 d63d b88e e23e
000000c0: 42d0 3abe a15e 01bf 6980 1b3f 107f 0a3f
000000d0: 8d74 d3bc 03b4 c8bb 1416 fd3e 4a4c 733f
000000e0: 6569 d3be 7a42 aa3d 7467 163f f5f0 393f
000000f0: 810c 4fbf 161f 0abf b26a 6f3c 637d 4d3f
00000100: 1a33 893e 8747 b8be adc2 7fbe eded 2e3f
00000110: e31d 39bf ce80 c43e 0b33 fe3e 6f7e 35be
00000120: 544f 833e 24dc 7d3e ce3d 123f d54b ebbe
00000130: 7756 013f 9288 03be c910 e4be a9f5 10bd
00000140: 13b2 293e d6a9 c73e 3a9a 793e 5598 0fbd
00000150: ff2b 8abe 067e e93d 06b3 863e 41a6 683e
00000160: 089f 4b3e 0613 ed3e f91f d23e 0b15 3b3f
00000170: 6b81 233d 0db1 bfbe 0b4a 363e 10e4 803f
00000180: 7fae 9d3e 93cc e43e 8ad2 25bf aee9 c9be
00000190: 636c 9abe cba9 b43d 5f4c 16bf e4b4 53be
000001a0: 18fa 2d3f 9923 1ebe 0bb1 87be 10e1 d3bb
000001b0: 4454 3a3e 7a7d 66bf ded3 7f3e 13da 54be
000001c0: 7be1 7e3e f557 51be 3e52 b43e 6303 5fbe
000001d0: 11e0 babf 887d 543c 9736 9a3e a389 8fbf
000001e0: aa5b 1bbd 9718 413f 79a6 9bbe b923 b7bc
000001f0: fd76 6abf b4bf 65be a84f 40be 87c1 b5bd
00000200: 459a a6be fcb1 babe 992d c63e 63c2 96be
00000210: 64d0 4dbf 2f31 f8be 16c8 f43e 9b1b d73c
00000220: 1911 103e b783 b9be 7a60 36be dfee c03e
00000230: 8231 30bf cec8 d53d 9dda f13d b0ed fd3e
00000240: 62c1 1abf c0ea b73e 7b5d 933e d0e8 b5be
00000250: 865b ea3e bdb5 633f 7a48 28bf c43d 8dbe
00000260: 4c41 543e db16 0e3d 4188 753f f0ee 523e
00000270: 7737 c9be 7f93 8c3e 48d4 0dbe 4d52 143f
00000280: 8b86 023f 6bee 823e 1010 9bbe 8d2c 70be
00000290: a986 043f fd01 393f d41c 2cbf 5e55 353f
000002a0: 5002 a53e 7d40 f33e fff0 23be 5e92 2bbf
000002b0: 8610 6f3e 1e43 b1bd cc05 3c3d 9054 e0bd
000002c0: 5683 b93d 7346 cbbc 225c 34bf 71b1 fdbc
000002d0: a398 0cbe dbc7 26bf 8cd7 09bf 95a2 10bf
000002e0: 4089 74bf 33e7 80bf 5327 36be 69d3 d93e
000002f0: c6d8 1a3d 4e60 6fbf c762 80be 5673 f1bd
00000300: 562e 533f 6cac aebd 7fc4 ad3e 9071 3dbe
00000310: 1aa8 14be 992a 59be f35e 01bf 157e fc3e
00000320: 34c0 cbbe 3a31 23bf 83fa 0240 195a 9ebe
00000330: 3554 c83e 0410 323f d6ef ddbe 3eda 66be
00000340: f1b0 c2be d6d8 013d 52ae 1fbe 9d7c a2be
00000350: 1442 6bbe 9d17 3a3e b05b ad3c ec11 003e
00000360: 57df 073e d86b bdbe 765c aebe 2bfe 6dbe
00000370: 04c3 84be 5737 c9be 34f2 f3be 6950 80be
00000380: 2162 60bb 23e8 26bf d235 c2bd 0808 9bbc
00000390: aa89 07bc 9fd9 293e 96a9 123d c4d8 b5be
000003a0: 66d1 ee3c 10c9 8c3e b03b bb3c cadb 0cbe
000003b0: f5f3 c9be a26a 1abf d5a4 cebe 374f d8be
000003c0: 3d6b 24bf d2b0 1abe 4e57 b1be 6764 33bf
000003d0: c108 b9be a8b9 16bd 73ec aebd 2bef a8be
000003e0: 6d25 26be 91d5 ddbe 94f8 56be 7fa2 4dbe
000003f0: a044 3fbd 2d3c 05bf 8ecc 923e 8710 e53e
-1.1903735 -0.6996941 -1.7547336 0.17295846 -0.8770482 -0.33099326 -0.97001946 -0.7020629
-0.7542797 0.1719975 0.6547266 0.13905492 -1.6261119 -1.0013276 0.20395593 -0.42414194
-0.19099608 -0.9963582 0.57534385 0.30522898 -2.2951422 -1.1472796 -0.3670048 -0.3279489
-0.27628103 -1.2439376 -0.6715069 -0.76184314 -1.2025043 0.60459906 -0.007061402 0.95657486
-0.33725473 0.2856818 0.6251556 0.12405795 0.21344282 0.12724832 0.04270266 -0.75459635
-0.85184014 -0.28751343 0.2350752 0.46726936 -0.24473235 -0.95959234 0.104965866 0.4424951
-0.18243507 -0.5053502 0.60742813 0.5410013 -0.025812412 -0.0061249747 0.49430907 0.9503828
-0.41291347 0.08313461 0.58751607 0.72633296 -0.80878454 -0.53953683 0.0146128405 0.8026945
0.267968 -0.3599207 -0.24976607 0.68331796 -0.7231123 0.3837952 0.49648318 -0.17724012
0.2564646 0.24791008 0.57125556 -0.45956293 0.5052256 -0.12845066 -0.44544056 -0.03539053
0.16571836 0.38996762 0.24375239 -0.035057385 -0.2698669 0.1140099 0.2630846 0.22719671
0.19884884 0.46303576 0.41040018 0.73078984 0.039918344 -0.37439767 0.17801683 1.0069599
0.30797192 0.44687328 -0.6477438 -0.39436096 -0.30160818 0.08821448 -0.58710283 -0.20674473
0.6795974 -0.15443267 -0.2650226 -0.0064660385 0.18196207 -0.9003521 0.24983165 -0.20786314
0.24890701 -0.20443709 0.35218996 -0.21778636 -1.459963 0.012969382 0.30119774 -1.1213878
-0.037929215 0.75428146 -0.30400446 -0.022355901 -0.9158781 -0.2243641 -0.18780386 -0.08874803
-0.32539573 -0.36463916 0.38706663 -0.2944518 -0.80396104 -0.48475024 0.47808903 0.02625828
0.14069022 -0.36233303 -0.1781024 0.37682244 -0.6882554 0.10438691 0.11809275 0.49595404
-0.6045133 0.35921288 0.28782257 -0.35529184 0.45772952 0.88949186 -0.6573559 -0.27586186
0.20728034 0.034689765 0.9591103 0.2059896 -0.3930013 0.2745628 -0.1385051 0.5793808
0.50986546 0.25572523 -0.30285692 -0.23454495 0.51767975 0.7226866 -0.6723149 0.70833385
0.32228327 0.47510138 -0.16009901 -0.67020214 0.23346147 -0.0865538 0.045903966 -0.10953629
0.090582535 -0.024813866 -0.70453084 -0.0309684 -0.13730101 -0.65148705 -0.53844523 -0.5649808
-0.95521927 -1.0070556 -0.17788438 0.42544106 0.037804388 -0.93506324 -0.2507536 -0.11789577
0.8249258 -0.085289806 0.33938977 -0.18500352 -0.1451725 -0.21207656 -0.50535506 0.49314943
-0.39795077 -0.6374699 2.04654 -0.30928114 0.39126745 0.6955569 -0.43347043 -0.2254419
-0.3802562 0.03170093 -0.15593842 -0.31735697 -0.22974426 0.1817307 0.021161884 0.12506837
0.13268791 -0.3699634 -0.34054917 -0.23241489 -0.25930035 -0.39300033 -0.47645724 -0.25061348
-0.0034238177 -0.6519796 -0.09482922 -0.018924728 -0.008272568 0.16586922 0.03580626 -0.35516942
0.029152583 0.2749715 0.02285561 -0.13755718 -0.39443937 -0.6031896 -0.40360132 -0.42247936
-0.6422613 -0.15106514 -0.3463692 -0.70075077 -0.3613949 -0.03679815 -0.08541193 -0.3299497
-0.16225214 -0.43327 -0.20993263 -0.20081519 -0.046696305 -0.52044946 0.28671688 0.44739172

fc2.bias f4 [128]
00000000: 7c0d 9c3e ca67 0ebe 9f44 09bf 3927 dbbe
00000010: 2448 db3e 783b 9bbe 3ade 06be 64b7 233c
00000020: 0c39 623e 0e8c cf3e 274f 873d 41d1 723e
00000030: 1175 7f3e 35b8 433e eca3 9b3e b263 f9bc
00000040: b4d6 f1bd 51bc 6d3e 1989 8abe 7593 b4bd
00000050: 4633 483e eae4 573e d129 c73d 47df 7dbd
00000060: 61fd c9be dea6 a53e 5888 8a3e 388e 543e
00000070: 96e9 ed3e 85ee c13d 4cca 58bd 9311 053e
00000080: 4409 883e 7ce3 6dbd 401f 203f 30d6 a3be
00000090: 3db6 f4bd 45ed 05bf eab6 cd3c 4160 243d
000000a0: b8c0 16be e58d 633e 838c 7abe bc1d d5bd
000000b0: ce1a ddbd a0e8 99bd 201b ab3e ffae d4bd
000000c0: a436 9dbe bfc8 06be f56e 42bd 2266 8c3c
000000d0: c044 13be e231 c13d 9394 8abe 2e03 45be
000000e0: c19d 9fbe 42ac babe 505c 6f3d 7f8e 003d
000000f0: 1137 29be 4c93 11bd a895 f43e ec99 a8be
00000100: 1bfc 083f ac4e ee3d 267f 6b3d 9e88 373e
00000110: 2032 63bf 9715 26bf 2b29 73be 61ba cbbe
00000120: abce aabd 02ee 02bf c0d8 9a3e ba82 593d
00000130: ddda 1ebe 866e 843e 8593 ccbc 6cfc fdbb
00000140: f105 3e3e 1be3 0abd a71e b6bd cb0d 68be
00000150: ca2b 37be bfe7 8f3e 6a9f 173c fb9e fc3e
00000160: e5e5 81be f306 6a3d ae76 4ebe b76e 0bbd
00000170: c1c2 c6be a51e 9d3e 4f63 cabe 2017 373e
00000180: cce4 08bf 700e a3be 2290 b9bd 794e 763e
00000190: 5601 a8bd d0c4 023e c98e 6d3c 37b5 603d
000001a0: 9d20 1abe 8b26 003e e669 40bc c8d6 c73c
000001b0: 7b69 bfbd 75f5 21bd c930 9dbd 88c3 8ebd
000001c0: 467e a9bd d8ec 593d b35b 7f3e a1a0 713e
000001d0: 8b84 193d 7b54 9fbd 62ba 0cbb 3f1f 21be
000001e0: 43a1 913d f83c e9be a9dc 1d3f a29a 8dbe
000001f0: a0fa 5bbd 8ca2 93be de76 423e 6d63 153d
0.30479038 -0.1390678 -0.5362033 -0.42803362 0.42828476 -0.3031881 -0.1317071 0.009992454
0.22092074 0.4053654 0.06606894 0.23712637 0.24947001 0.19113238 0.303985 -0.030443046
-0.118085295 0.23216368 -0.27057722 -0.08817188 0.1955081 0.21083418 0.09724773 -0.061980512
-0.39451125 0.32353872 0.27057147 0.20757377 0.46467274 0.09469322 -0.0529273 0.12994985
0.2656957 -0.058078274 0.62547684 -0.3199935 -0.11948822 -0.5231517 0.025111634 0.040130857
-0.14721954 0.22222097 -0.24467663 -0.10406062 -0.10796128 -0.07515073 0.33419132 -0.1038494
-0.3070575 -0.13162516 -0.047469098 0.017138544 -0.14381695 0.094333425 -0.27066478 -0.19239494
-0.31175044 -0.36459547 0.058437645 0.031385895 -0.16524912 -0.035540864 0.4777043 -0.32929933
0.5350968 0.11636099 0.057494305 0.17923209 -0.8874836 -0.64876693 -0.23746173 -0.39790633
-0.083402 -0.5114442 0.30243492 0.053103186 -0.15513177 0.25865573 -0.024972687 -0.0077510383
0.18556954 -0.03390799 -0.08892565 -0.22661512 -0.17887798 0.28106496 0.009254316 0.49340042
-0.25370708 0.057135534 -0.2016246 -0.034041133 -0.3882046 0.30687442 -0.3952889 0.17879915
-0.53474116 -0.31846952 -0.09060694 0.24053372 -0.0820338 0.1277039 0.014499375 0.05486032
-0.15051503 0.12514703 -0.011743998 0.024394408 -0.09346291 -0.039540727 -0.07675321 -0.069708884
-0.08276038 0.053204387 0.24937324 0.23596431 0.03747992 -0.07779785 -0.0021473398 -0.15734576
0.07110836 -0.45554328 0.61664826 -0.27657038 -0.05370581 -0.2883495 0.18990657 0.036471773

fc3.weight f4 [5, 128]
00000000: e021 ec3c 6644 29bd 5cee 8fbd a4f0 8abd
00000010: ae39 acbd d009 a5bc cca2 9bbd b5ad 8c3d
00000020: 8b3a 97bd 4142 8a3d 7c45 9d3c 2a41 82bd
00000030: 4559 9a3d c07b f03c 20b2 e8bb 595e 8f3d
00000040: 1c2a 98bd 0f5c 823d 101d fdbb 00b0 263b
00000050: d254 043d d14a 14bd 8060 99ba 077e 823d
00000060: 3c41 103d a6fd 2e3d 0fa1 9a3d 08b9 69bd
00000070: 0c61 84bc 73d5 9d3d 72b4 00bd 9026 ce3c
00000080: d67d 0f3d d00f a4bd 8000 993a 8142 a73d
00000090: a865 74bc 9d2e b1bd fade a4bd 7843 5c3c
000000a0: 8ccf e5bc 6634 71bd 5b0a 933d 7d8d 4cbd
000000b0: d188 82bd 86e5 753d 3f75 893d 9007 f83c
000000c0: 25cc b43d 60c5 123b 31cf 873d fcb5 56bd
000000d0: ab6c 93bd 88f3 213c e8be 70bd 0058 23bb
000000e0: 5069 11bc 80db 5e3c 7ca0 b1bc 50b7 cebb
000000f0: 915b a4bd eba0 18bd c644 263d 055c 9d3d
00000100: 23f1 9e3d acfb 883c 1842 8cbc 9593 8a3d
00000110: 5077 823b c033 d6ba 20ad 523b 3651 60bd
00000120: 686f d4bc 863e a3bd 40b5 07bc ecbd aebd
00000130: e8ab 5c3c 0030 1fb9 d624 003d 02e2 61bd
00000140: 8047 1aba c0cd c9bc ce28 58bd b129 8d3d
00000150: f18b b2bd 0d20 803d 0441 b3bc 0b9f 4abd
00000160: 8fc4 afbd e6b7 abbd 04c1 f9bc a295 693d
00000170: e89a 8f3c 0839 84bd 13b0 983d 734e 943d
00000180: 8e75 163d 5334 b13d 3e25 713d 788d 4d3c
00000190: da38 7a3d d449 4ebd 609a 3bbc 5cb3 3cbd
000001a0: 28e3 7ebc 9c43 8fbd 9a1d 763d 3b06 0fbd
000001b0: f00d df3c 9703 a63d f480 f43c 4030 993b
000001c0: 79ca b33d 741b b3bd 4fa8 a73d 23f0 9cbd
000001d0: ad6e b33d 4046 e63b e131 5ebd d44e f7bc
000001e0: 3be6 39bd 1e17 593d 2b82 9b3d 86ed 5a3d
000001f0: 8f5d 843d 9f86 ae3d 9689 9fbd 6636 183d
00000200: a014 ed3b 9a36 5a3d fc55 cc3c 4085 213b
00000210: 92e9 703d f96b 12bd efea 89bd 74be 81bd
00000220: 99e9 813d 8003 f43a 7626 93bd 3861 fa3c
00000230: 002f 3cbb 7fc3 56bd 059c 9e3d 9a42 523d
00000240: c146 993d e0d5 6bbc 31d1 5fbd 0f21 99bd
00000250: 8840 293c 3bba 7dbd 52f8 573d 171a a4bd
00000260: 5fd6 80bd 1054 523c 9030 b13c 70bf 3ebc
00000270: d8c2 96bc 6b88 37bd 2c6f d1bc 08d6 3b3c
00000280: d17b a2bd b008 7bbc 10e0 64bc c005 fe3a
00000290: 018a 863d 80c0 97bd a024 fa3c d237 063d
000002a0: 88fe c83c a07f cfbc 1247 523d 4f19 80bd
000002b0: d2df 11bd 4081 1bbb a0ff 54bc 210a b3bd
000002c0: de40 423d 8ae6 553d fcb8 a0bd 0040 3239
000002d0: 7b5c 98bd 909e 83bc 4020 2c3c cf72 9d3d
000002e0: bea0 7e3d 26a4 3a3d 90b4 3e3c c008 a7bd
000002f0: 3695 e9bc 9b5f a13d 5086 ee3b b42c a3bc
00000300: 2ecb f9bc faca 2e3d c2c0 633d 00b9 fcbb
00000310: 3412 d43c 114e 853d 0e64 723d 82c9 3b3d
00000320: 7a38 773d 20c1 033d 6c71 c63c 4422 b2bd
00000330: 2436 8ebc 480b d8bc e858 a23c 04b6 cfbc
00000340: 9923 a5bd cb78 973d 1de9 1cbd 1fe6 abbd
00000350: ca8a 16bd 28b5 973c 601d f6bc 42cf b4bd
00000360: 44ec f03c 5e90 0b3d cb82 a83d 6cea b2bd
00000370: dc30 89bc b6f6 09bd b4df fabc c059 fa3a
00000380: e9c5 a83d 0068 17bc 5ff9 9a3d f882 483c
00000390: b493 3cbd 0857 0bbc 7653 3a3d 6611 563d
000003a0: 583d f0bc 3825 31bc e35b 97bd ad8c 66bd
000003b0: 8456 bfbc 86be 573d c0cb b23b 5e4b 3f3d
000003c0: 4410 97bd c428 943c 0f4a 92bd 64c2 d3bc
000003d0: 5fc4 933d 20b7 713b 7888 87bd 5d44 b2bd
000003e0: 30df dabc c6f7 0dbd 2f0d a8bd 921d 463d
000003f0: 0028 e83a 604e 5ebc 17d1 8b3d 847a abbd
0.028824747 -0.041324995 -0.07027885 -0.0678418 -0.08409439 -0.02014628 -0.075994104 0.068690695
-0.07384213 0.06750918 0.019198172 -0.06360085 0.07536558 0.029355884 -0.0071013123 0.07000417
-0.07429907 0.06365215 -0.007724412 0.0025434494 0.032307453 -0.036204163 -0.0011701733 0.06371694
0.035218462 0.042722367 0.07550251 -0.057061225 -0.016159557 0.07706728 -0.031422086 0.025164872
0.035032116 -0.080108285 0.0011673123 0.081669815 -0.014916815 -0.08651469 -0.08050342 0.01344382
-0.028053068 -0.05888786 0.071797095 -0.04993962 -0.06373752 0.060033344 0.06711816 0.030277044
0.08828 0.0022395477 0.066313155 -0.052419648 -0.07198461 0.0098847225 -0.058775812 -0.0024924278
-0.008875206 0.013602138 -0.02168297 -0.0063084736 -0.080252774 -0.03726284 0.04059293 0.07683567
0.07760837 0.016721569 -0.01712136 0.0676643 0.0039815083 -0.0016342327 0.0032146648 -0.05476495
-0.025932029 -0.0797091 -0.008282959 -0.085323185 0.01346872 -0.00015181303 0.03128513 -0.05514718
-0.0005885288 -0.024634242 -0.05277329 0.06892718 -0.08718098 0.06256113 -0.021881588 -0.04946808
-0.085824125 -0.08384685 -0.030487545 0.057027467 0.01752992 -0.0645619 0.074554585 0.072415255
0.036733203 0.08652558 0.058873408 0.012545936 0.061089374 -0.050363377 -0.01145038 -0.046069488
-0.015557088 -0.06995317 0.060086824 -0.03491805 0.027228326 0.081061535 0.029846646 0.0046749413
0.08778853 -0.08745471 0.08186399 -0.0766299 0.08761344 0.0070274174 -0.054246787 -0.030188955
-0.04538558 0.053000562 0.07593187 0.053449176 0.064631574 0.08521771 -0.07789914 0.037161253
0.0072351247 0.05327473 0.024943344 0.0024646074 0.0588165 -0.035747502 -0.06734263 -0.06335154
0.06343383 0.0018616766 -0.0718507 0.030563936 -0.0028714538 -0.052432533 0.07744602 0.051333047
0.07484198 -0.0143942535 -0.05464286 -0.074770086 0.010330327 -0.06194518 0.05272705 -0.08012789
-0.06290888 0.012837425 0.021629602 -0.011642322 -0.018403456 -0.044807833 -0.025565706 0.011464603
-0.07933772 -0.0153218955 -0.013969436 0.0019380376 0.06569291 -0.07409763 0.030535042 0.03276808
0.024535432 -0.025329411 0.05133731 -0.06254827 -0.035613842 -0.0023728162 -0.013000399 -0.08742166
0.047425143 0.052221812 -0.07847783 0.00016999245 -0.07439514 -0.01606682 0.010505736 0.076879136
0.062165014 0.0455667 0.011639729 -0.08155966 -0.028513532 0.078795634 0.007279195 -0.019918777
-0.030492391 0.042674042 0.05560375 -0.0077124834 0.025887586 0.065090306 0.05917745 0.04584647
0.060356595 0.0321666 0.024224006 -0.08697942 -0.0173598 -0.026372567 0.019817784 -0.025355347
-0.0806343 0.07396086 -0.03830825 -0.083935015 -0.036753453 0.018519 -0.030043304 -0.08828594
0.029409535 0.034073226 0.08228072 -0.08736119 -0.01674693 -0.033682548 -0.030624248 0.0019100234
0.08240873 -0.009241104 0.07567095 0.012238257 -0.0460393 -0.008504637 0.04548975 0.052262686
-0.029326126 -0.010812096 -0.07390573 -0.056286503 -0.023356684 0.05267193 0.005456418 0.046702735
-0.07376149 0.018085845 -0.07143032 -0.025849529 0.07215189 0.0036882833 -0.06617826 -0.087044455
-0.026717752 -0.034660123 -0.082056396 0.048368044 0.0017712116 -0.013568491 0.0682699 -0.083729774

fc3.bias f4 [5]
00000000: f064 873c a393 80bd 006f 5cbd 22c9 47bd
00000010: a48a 75bd
0.016527623 -0.062781595 -0.053816795 -0.0487758 -0.05994667

fc4.weight f4 [4, 128]
00000000: da2a c33f 4fae 9cbe 0853 6e3e cb12 9dbe
00000010: bdd8 cb3f 0135 913e f999 493d 2318 543f
00000020: 5d17 e73f df8e 62bf bd72 43bf f7af ac3f
00000030: 622d 553f 63b0 5cbf 8ba7 f8be 1040 43bf
00000040: 69bb e63e 595c 14bf 00cd 09bd 7269 dabe
00000050: a824 793f d4b5 9abf 6bb8 f53d 7020 d6bd
00000060: 185b 9cbf 9ac5 91bf e9dd 2e40 043a 993e
00000070: f502 4bbf 71ee a8be 9c61 253f c5eb dd3e
00000080: 4b26 14bf f6f5 573f 079d 2440 1a10 14bf
00000090: 5e5e 3ebf 3a0c 4cbf 789d 85bc 244d 7abe
000000a0: d2c4 673d 19ca 69be bf30 6d3f d08d 76be
000000b0: 938e 3dbf 4cc1 45be 9bac 7e3f 04d6 c5be
000000c0: 3c1d 68bf 5fe6 713e e3a6 55be b0f0 383f
000000d0: 0a6b 923d c570 633e a4e2 5bbf 28df 2b3e
000000e0: 8208 e7be 2d71 aa3f a1c6 0cbd 8349 c33e
000000f0: 6f22 09bf a372 00bf 3283 35bf 0392 d5be
00000100: f84c 3dbd 8025 e5be 030d 9fbe 2044 fdbe
00000110: 0831 1bbd 97f4 b13e a665 a63d a2ef bcbc
00000120: 7fc1 37bf 9a6e 693e 65e9 3c3e f328 97bf
00000130: 6751 c0bd cb6c 5d3f f9fd ffbf bd9b e1be
00000140: 88ed 08bf 06ed 22bd cc71 96be fd4b 1d3f
00000150: 2e96 28bf 986b 533f 3487 4f3f 62a2 d23e
00000160: a926 24bf 2a71 0bbe de90 3abf 1b1d 07bf
00000170: 1cec a4be d9da ea3f 5dca 113e 57b7 9abe
00000180: 186c a63f 9a2d df3e 664d 28bf a731 e8be
00000190: 47c7 a6bf ed54 ddbe 2afb 81be 48b2 923f
000001a0: a346 2f3f 7bef 8cbf f2bf c6be 82be 5ebe
000001b0: 6e50 82be 9219 4cbe d211 28bf 5454 89bd
000001c0: 3f2b 17bf fd78 6fbe 53d9 f83e a606 aebd
000001d0: 9443 cfbe f7c9 0cbf dc75 1abe ef4f b43f
000001e0: 3fd1 56bf 4b86 2abf 4442 53bf 73a9 45bf
000001f0: a2fe c53e 71c7 af3e a96a a3bd da99 d73f
00000200: 7887 8b3f a0f1 99be 1def 773f a3b5 8a3d
00000210: 0b40 ae3f febb 363f e1c5 923d 40fa 1b3f
00000220: f31a bd3f 6669 7cbf a0a8 b7be 07cf 9e3f
00000230: b0e3 623f 7bb3 9abf 6c98 d5be c342 33bf
00000240: 3415 233f 1d0a f1be 32f8 163d 0159 9dbe
00000250: 295b 613f 6e08 a7bf ac9e bf3e a530 81be
00000260: 7f93 cfbe c614 83bf c41f 2d40 fa5c 803f
00000270: 0e0e a4be 81e6 15be bf19 6e3f b456 5a3f
00000280: f583 31bf 5eef 5f3f 9a77 2740 138b 523e
00000290: d1b4 5ebf 23f6 13be 1a35 c0bf 2e5c afbe
000002a0: 1ba3 253d 119f d9be aaba 8a3f 5a62 2cbf
000002b0: da49 83bf d831 9ebe a653 643f c753 0fbe
000002c0: f5f7 1fbf 970a 753f ccf4 1ebd 0965 893d
000002d0: e410 de3c 1ffe 83bf 5587 edbe 6bd2 f83f
000002e0: 7986 99be 1fbe f9be accf 56be 1ea7 2abe
000002f0: a7fc 83bf ba10 643d 3b68 8ebe e9eb 9cbf
00000300: 3917 54bf db34 32be 5ec5 b0be 540b f0be
00000310: 8324 19bf 0f9c d1be d622 d1be 5aef 51bf
00000320: 7832 07bf d521 a23f 7b48 5c3e 2ac6 0bbf
00000330: c212 20bf 9340 3d3f 48c9 c8bf 6ec2 eabe
00000340: 2d49 27bf 6c20 ea3c 494a dcbe 014a ad3f
00000350: e5d3 49bf d93f f83e 59d7 8e3f 16d4 6b3f
00000360: b4b4 08bf f2c0 2bbf b8e0 a6be 2014 25bf
00000370: d60e 8bbf 1281 e33f 6705 bb3f 6eb4 febe
00000380: 477a 17bf e414 23bf 5411 cdbe 9f65 59be
00000390: ba5a 06bf fb1b a6be c92f 96bf baed 3b3f
000003a0: 1fed 8e3f cb5e 31bf a19a 22bf 173b 87be
000003b0: 3196 12be f888 b6be 503d 103e 874c 81bc
000003c0: ed68 20be dc3d 823f b5ff 963f 1df2 40bf
000003d0: 6085 96be 9372 26bf 4609 d7be ffa2 013f
000003e0: 832c debe 7c1d d3be f0b9 c0bf 9e49 bcbe
000003f0: 646d 693e 9396 89bf 01b3 1cbf 319c c63f
1.5247452 -0.30601737 0.23273861 -0.306784 1.5925518 0.2836075 0.049219105 0.8284933
1.8054005 -0.88499254 -0.7634695 1.34912 0.83272374 -0.86206645 -0.48565325 -0.76269627
0.45064858 -0.5795341 -0.03364277 -0.42658573 0.9732156 -1.208674 0.119980656 -0.10455406
-1.22153 -1.1388428 2.7322943 0.29927075 -0.7930139 -0.32994416 0.64602065 0.4334394
-0.5787093 0.8435968 2.5720842 -0.5783707 -0.7436274 -0.79706156 -0.016310439 -0.2444349
0.056584187 -0.22831 0.92652506 -0.24077535 -0.74045676 -0.19312018 0.99482125 -0.38639843
-0.9066961 0.23623036 -0.20864443 0.7224226 0.07149322 0.22210987 -0.858927 0.16784346
-0.45123678 1.3315789 -0.034369115 0.38142022 -0.53568166 -0.5017492 -0.70903313 -0.4171296
-0.04621598 -0.44755173 -0.31064615 -0.49466038 -0.037888557 0.3475692 0.08124857 -0.023063485
-0.71779627 0.22796097 0.18448408 -1.1809372 -0.09390526 0.8649413 -1.9999381 -0.4406413
-0.53487444 -0.039776824 -0.29383695 0.61444074 -0.65854156 0.8258605 0.8106568 0.41139513
-0.6412149 -0.13617387 -0.728773 -0.52778786 -0.32211387 1.8348037 0.14237352 -0.30218002
1.3001738 0.4358948 -0.657431 -0.45350382 -1.3029565 -0.43228856 -0.25386935 1.1460657
0.6846716 -1.1010584 -0.38818318 -0.2175236 -0.25451988 -0.1993163 -0.6565219 -0.067055374
-0.59050363 -0.23385997 0.48603305 -0.08497362 -0.40481246 -0.54995674 -0.15084022 1.4086894
-0.83913034 -0.66611165 -0.8252299 -0.77211684 0.38670832 0.3433185 -0.07979328 1.6843827
1.0900717 -0.30067158 0.9684923 0.06772926 1.3613294 0.71380603 0.07166649 0.60928726
1.4773849 -0.98598325 -0.35870838 1.240693 0.88628674 -1.2086023 -0.4171785 -0.70023745
0.6370423 -0.47078028 0.03685779 -0.30731967 0.88029724 -1.3049448 0.37425745 -0.25232425
-0.40542218 -1.0240715 2.7050638 1.0028374 -0.32041973 -0.14638712 0.93008035 0.8528855
-0.69341975 0.8747462 2.616675 0.20560865 -0.86994654 -0.14449362 -1.5016205 -0.34250015
0.040438753 -0.4250417 1.0838215 -0.6733757 -1.0256913 -0.30897403 0.8919014 -0.13996802
-0.6248773 0.95719284 -0.038807675 0.06708724 0.027107663 -1.0311927 -0.46392313 1.9439214
-0.29985407 -0.48777863 -0.20977658 -0.16665313 -1.0311478 0.055680014 -0.27813897 -1.2259494
-0.82847935 -0.17402975 -0.3452558 -0.46883643 -0.5982134 -0.40939376 -0.4084689 -0.82005847
-0.52811384 1.2666575 0.21512024 -0.5459925 -0.6252862 0.7392666 -1.5686426 -0.45851463
-0.6534603 0.028579913 -0.43025425 1.3538209 -0.7883895 0.48486212 1.1159469 0.9212049
-0.5340073 -0.67091286 -0.32593322 -0.64483833 -1.0863903 1.7773764 1.4611024 -0.49747032
-0.59170955 -0.6370375 -0.40052283 -0.21230172 -0.5248219 -0.32443222 -1.1733333 0.73409617
1.1166114 -0.6928527 -0.63517195 -0.2641227 -0.14315106 -0.35651374 0.14085889 -0.015783561
-0.15665026 1.0175128 1.1796786 -0.75369436 -0.29398632 -0.65018576 -0.41999263 0.5063934
-0.43393335 -0.41233432 -1.5056744 -0.36774915 0.22795635 -1.0749077 -0.6121064 1.5516416

fc4.bias f4 [4]
00000000: b746 2ebc 65bf 6f3e e23c fd3e 5f70 60be
-0.010636977 0.23412855 0.49460512 -0.21917866
