models/trained_model.pth (torch_old, 45238 bytes, 8 tensors)

fc1.weight f4 [64, 8]
0	0x3dfd5074	0.12368861
1	0xbef85445	-0.48501793
2	0xbf8f3649	-1.1188442
3	0xbf73924b	-0.951451
4	0xbf2ecbd2	-0.68279755
5	0xbea371d9	-0.31922796
6	0x3eb00bdf	0.34384057
7	0x3ebc2d7b	0.3675345
8	0xbe96f31e	-0.2948236
9	0xbc59d986	-0.013296491
10	0xbf308312	-0.6895
11	0xbe64d556	-0.22347006
12	0xbddfe689	-0.10932643
13	0xbf3f479a	-0.7471863
14	0xbf339ebd	-0.7016409
15	0x3ef80234	0.4843918
16	0x3ce42cc8	0.027853385
17	0xbcaa9c35	-0.020826438
18	0xbf25ede1	-0.648161
19	0xbe0d6d0c	-0.1381113
20	0x3f47b959	0.78017193
21	0xbcb1b02b	-0.021690449
22	0x3e3932e7	0.18085824
23	0x3f034dc4	0.51290536
24	0xbf05c32d	-0.5225094
25	0x3e6552cc	0.22394866
26	0x3f31adc6	0.6940578
27	0xbfb4ef89	-1.41356
28	0x3e8ece5a	0.2789181
29	0xbdc96aeb	-0.09834846
30	0x3e09652e	0.13417503
31	0x3ed51301	0.4161606
32	0xbec2a38b	-0.38015398
33	0xbe9e11e4	-0.30873024
34	0xbf18ebe8	-0.59734964
35	0xbe0f6c15	-0.14006074
36	0x3e345032	0.17608717
37	0x3f2ef505	0.6834262
38	0x3ee79833	0.45233306
39	0xbf3cc49f	-0.7373752
40	0x3e413abf	0.18870066
41	0xbf57ea43	-0.8434183
42	0x3f249049	0.6428266
43	0xbf66eab7	-0.90201896
44	0xbe270798	-0.1631149
45	0x3d84b110	0.064790845
46	0x3ec0a039	0.3762224
47	0x3e9877eb	0.2977899
48	0xbe59cdd6	-0.21269926
49	0xbffbeb8a	-1.9681256
50	0xbe3c58fc	-0.1839332
51	0xbef2b234	-0.47401583
52	0xbe0b2231	-0.13587262
53	0x3e649e94	0.22326118
54	0x3ecacb3d	0.39608184
55	0xbe8931d6	-0.26795834
56	0xbdfd5d8a	-0.12371357
57	0xbfc49854	-1.5358987
58	0xbe7c3da1	-0.24632885
59	0xbfb9dc80	-1.4520416
60	0xbdf71f6d	-0.12066541
61	0x3f0c94fa	0.5491482
62	0x3e5614bb	0.20906346
63	0xbefc266e	-0.4924807
64	0x3ebc5ac3	0.36787996
65	0x3d9badd7	0.07601517
66	0x3f11a708	0.56895494
67	0x3eb1d41b	0.34732136
68	0xbf994efb	-1.1977228
69	0x3ebe4217	0.37159798
70	0x3ed15d43	0.40891466
71	0xbe932b93	-0.28744182
72	0xbb6f3c75	-0.003650454
73	0xbe0d6a55	-0.13810094
74	0x3fb47ef8	1.4101248
75	0x400f9fff	2.2441404
76	0xbe67d02e	-0.22638008
77	0xbe3ca912	-0.1842387
78	0xbe4bdfe1	-0.19909622
79	0xbe38cc25	-0.18046625
80	0xbf0fb680	-0.5613785
81	0x3eea262f	0.45732257
82	0x3f3ae38f	0.73003477
83	0xbf6a14d8	-0.91438055
84	0x3e0497fe	0.12948605
85	0x3ea35145	0.3189794
86	0x3d44ffa4	0.04809536
87	0xbf76f4f6	-0.9646753
88	0xbdb38871	-0.087662585
89	0xbfdfd35b	-1.7486376
90	0xbdfaa216	-0.12237947
91	0x3e85a804	0.26104748
92	0x3f874aac	1.0569663
93	0x3e9d123c	0.30677974
94	0xbeb79b09	-0.3586047
95	0xbd50c6af	-0.05097073
96	0x3d85d7b3	0.06535282
97	0x3d345ce9	0.04403392
98	0x3ebf02ac	0.37306726
99	0x3f12aa1c	0.57290816
100	0xbe8b188a	-0.2716716
101	0x3f353fe4	0.70800614
102	0x3ee8bd41	0.4545689
103	0xbea802c2	-0.32814604
104	0xbf50f74c	-0.81627345
105	0x3b672fe7	0.0035276355
106	0xbf8ab6d9	-1.0837051
107	0xbf82f74a	-1.0231717
108	0x3e04355f	0.12910984
109	0xbd1e78a5	-0.038689274
110	0x3e2d4696	0.16921458
111	0x3be06b64	0.0068487395
112	0xbdd33dc7	-0.103145175
113	0x3f020471	0.5078803
114	0x3f4a7bd9	0.79095227
115	0xbfac2d13	-1.3451256
116	0x3d8b0ebb	0.06789919
117	0x3d3d6e42	0.04624773
118	0x3e586f65	0.21136244
119	0xbdc4b15d	-0.09604142
120	0x3f129d79	0.57271534
121	0x3e1d2ceb	0.15349166
122	0xbe902bc7	-0.281584
123	0x3f03b0d8	0.5144172
124	0xbee4c33f	-0.4468021
125	0xbf18fd4d	-0.59761506
126	0xbf82b533	-1.0211548
127	0xbfa76feb	-1.308103
128	0xbeb859b9	-0.36005953
129	0xbfd2b1ad	-1.6460472
130	0xbf023b86	-0.50872076
131	0x3f6b3762	0.9188138
132	0x3e43c14d	0.19116707
133	0x3df3e3fc	0.11908719
134	0x3ec24ce4	0.37949288
135	0x3eb336ef	0.35002849
136	0xbdf17b76	-0.117911264
137	0x3cd7811b	0.02630668
138	0x3f82a182	1.0205538
139	0x3f33060d	0.6993111
140	0xbe4d3739	-0.20040597
141	0x3f641683	0.8909685
142	0x3f208faf	0.62719244
143	0xbe972729	-0.29522064
144	0xbf04706f	-0.5173406
145	0x3c10bb40	0.008833706
146	0xbf22b818	-0.63562155
147	0xbc8701b1	-0.016480299
148	0xbd038b1d	-0.03211509
149	0xbf1cd642	-0.6126443
150	0xbf2590a1	-0.6467381
151	0x3962b93e	0.00021622048
152	0x3eb83923	0.35981092
153	0x3ecafc16	0.3964545
154	0x3e8a764c	0.27043378
155	0xbfac59cb	-1.3464903
156	0x3f0f4e28	0.5597863
157	0xbf271b8d	-0.65276414
158	0xbeaea3ec	-0.34109437
159	0xbee87877	-0.45404407
160	0xbf85e82b	-1.0461477
161	0xbe840361	-0.25783828
162	0xbf8d0417	-1.1016873
163	0xbf76520a	-0.9621893
164	0x3e847b2a	0.25875217
165	0xbe40f363	-0.18842845
166	0x3ee1e0f1	0.4411693
167	0x3c8c371b	0.01711612
168	0xbe3eafd0	-0.18621755
169	0xc0039eb9	-2.0565627
170	0x3da34aa9	0.07973225
171	0x3e665c9f	0.2249627
172	0x3fa06e0f	1.2533587
173	0x3e289314	0.16462356
174	0xbebf4501	-0.37357333
175	0xbde42ce8	-0.11141378
176	0xbc37faaa	-0.011229197
177	0xbf49fc8c	-0.7890098
178	0x3de699cc	0.11259803
179	0xbee72087	-0.45142004
180	0x3c3d6890	0.011560574
181	0xbf109251	-0.5647326
182	0x3f0aa3cc	0.54156184
183	0x3ed82673	0.42216834
184	0x3f1a9157	0.6037802
185	0xbdfea89c	-0.124345034
186	0x3ef9bd42	0.48777205
187	0xbe776049	-0.24157824
188	0xbf1b434b	-0.60649556
189	0x3ea5705e	0.32312292
190	0x3ef92f63	0.48668966
191	0xbd8b282b	-0.06794771
192	0xbf9e1cac	-1.23525
193	0xbcb87505	-0.022516737
194	0xbf609cd9	-0.8773933
195	0xbedb9f83	-0.42895135
196	0xbf340c97	-0.7033171
197	0xbb6cdd09	-0.003614249
198	0xbc73e86e	-0.0148869585
199	0xbd05c497	-0.032658186
200	0x3e84bdd0	0.25926065
201	0xbe7fbc1d	-0.24974103
202	0xbf07b27f	-0.5300674
203	0xbf10cfc6	-0.5656704
204	0xbf2a2dfc	-0.66476417
205	0xbe335f38	-0.17516792
206	0x3e269900	0.16269302
207	0x3ee0acb0	0.4388175
208	0xbe1eea87	-0.15519153
209	0xbf8b33f9	-1.0875236
210	0xbeb7821c	-0.35841453
211	0x3ec2d2ed	0.3805155
212	0xbdaf65f8	-0.08564371
213	0xbeb5255d	-0.35380068
214	0x3f05a955	0.52211505
215	0x3e40b12a	0.18817583
216	0xbe9ee157	-0.31031296
217	0xbfae75a4	-1.3629651
218	0x3d9a8afe	0.07546042
219	0xbfb1d4ae	-1.389303
220	0x3e2371ac	0.15961331
221	0x3f64d28e	0.8938378
222	0x3ec2270b	0.37920412
223	0xbc25bbd1	-0.01011558
224	0xbee0ee1f	-0.43931672
225	0x3f5ffda6	0.8749641
226	0xbf5bf8b2	-0.85926354
227	0xbf14b345	-0.58086044
228	0x3f57cbaf	0.8429517
229	0x3e6d8838	0.23196495
230	0xbf44dbdc	-0.7689798
231	0x3d9f8119	0.07788295
232	0x3ebcaa6b	0.3684877
233	0x3f232d37	0.6374087
234	0x3f09509d	0.5363863
235	0xbf6ac071	-0.9169989
236	0x3f5ff3fd	0.8748167
237	0xbef21481	-0.47281268
238	0xbeadacbb	-0.33920845
239	0x3f0708a7	0.5274758
240	0xbe936fe1	-0.28796294
241	0x3f448f9e	0.7678164
242	0xbf65b74a	-0.897328
243	0xbd11c296	-0.035585962
244	0x3f14829f	0.5801181
245	0xbf6fddbb	-0.9369771
246	0xbec091e6	-0.37611312
247	0xbf763351	-0.9617205
248	0xbcae2964	-0.021259971
249	0x3eb3d78b	0.35125384
250	0xbeaf1229	-0.34193543
251	0x3efe3870	0.49652433
252	0x3f0d43f0	0.5518179
253	0x3f2ddd1b	0.67915505
254	0x3e1c96d4	0.15291911
255	0xbf2c222b	-0.67239636

fc1.bias f4 [64]
0	0xbe86a09a	-0.26294404
1	0xbe987622	-0.29777628
2	0xbe0fa9a7	-0.14029561
3	0xbe329051	-0.17437865
4	0xbf23739e	-0.6384829
5	0xbec3be0c	-0.38230932
6	0x3f25fe9a	0.64841616
7	0x3e4ff579	0.20308484
8	0xbdc0c737	-0.09412997
9	0xba136b12	-0.00056235597
10	0x3ecd6eaf	0.40123507
11	0xbf1b456a	-0.6065279
12	0xbeb520cd	-0.35376588
13	0xbe9485a8	-0.29008222
14	0x3f2646e8	0.64951944
15	0x3e3adff0	0.18249488
16	0xbeae6e36	-0.3406846
17	0xbeaefb86	-0.34176272
18	0x3ee7effe	0.45300287
19	0x3f69ab3f	0.91276926
20	0xbe76d5e0	-0.24105024
21	0xbf09685b	-0.5367486
22	0xbf01455c	-0.5049646
23	0xbf135e4b	-0.57565755
24	0xbd7d7621	-0.061880235
25	0xbf25cacb	-0.6476256
26	0xbef3e22a	-0.47633487
27	0xbe7164ac	-0.2357356
28	0xbe5d2a25	-0.21598108
29	0x3e0b5282	0.13605693
30	0xbc967887	-0.018368019
31	0x3e1061c3	0.14099793
32	0xbe3eb45a	-0.18623486
33	0x3f2f0664	0.68369126
34	0x3c27929a	0.010227824
35	0xbd93a64a	-0.072094515
36	0x3e4e3770	0.20138335
37	0xbe469e13	-0.19396238
38	0xbe57b32a	-0.2106444
39	0xbef3429c	-0.47511756
40	0x3e9c3ab8	0.3051355
41	0xbe138205	-0.14405067
42	0x3e9cd8e7	0.30634233
43	0x3e48e7df	0.19619702
44	0x3ecee68c	0.40410268
45	0x3db51919	0.088426776
46	0x3f2d64cc	0.6773193
47	0x3f2c24c8	0.67243624
48	0x3e4bddeb	0.19908874
49	0xbe1bbae8	-0.15208018
50	0x3eae0142	0.33985335
51	0x3ed5f4a8	0.4178822
52	0x3d9b7fab	0.0759271
53	0x3f05900c	0.52172923
54	0xbf0e2ee9	-0.5554033
55	0xbe8708ce	-0.26373905
56	0xbe55cbd7	-0.2087854
57	0x3f4ea60a	0.80722106
58	0xbd950f61	-0.07278324
59	0xbadb6ce8	-0.0016740831
60	0xbeadd25c	-0.33949554
61	0xbf0296ed	-0.51011544
62	0x3c70b369	0.014691212
63	0xbe6fe2cb	-0.23426358

fc2.weight f4 [128, 69]
0	0x3e87b46e	0.26504844
1	0x3e0630ef	0.13104604
2	0x3e38c061	0.18042137
3	0x3e17200f	0.14758323
4	0x3f14bf4d	0.581044
5	0x3d08fd32	0.03344459
6	0xbe95801d	-0.29199305
7	0x3e7cfadd	0.24705072
8	0xbe2b220a	-0.16712204
9	0xbf44ad1c	-0.76826644
10	0xbe66a3a9	-0.22523369
11	0x3f0282c6	0.50980794
12	0x3e0d7582	0.13814357
13	0x3e8f9057	0.2803981
14	0xbe0e0bd5	-0.13871701
15	0xbdb3cc05	-0.08779148
16	0x3e435d2b	0.1907851
17	0x3e3ffa51	0.18747832
18	0x3d906c49	0.07051904
19	0x3db3ff17	0.08788889
20	0xbea68362	-0.32522112
21	0x3eb1f5da	0.34757882
22	0x3f059a84	0.521889
23	0x3e2f21fd	0.17102809
24	0x3df4fe4b	0.11962565
25	0x3e87e90a	0.26544982
26	0x3ed4ceb9	0.41563967
27	0x3ed47c2d	0.4150099
28	0xbe948c8b	-0.29013476
29	0xbe126596	-0.14296564
30	0x3e593236	0.2121056
31	0xbe38089e	-0.17972037
32	0x3e5bef51	0.2147801
33	0xbeada8a9	-0.3391774
34	0xbdb185f5	-0.086681284
35	0xbe7557a0	-0.23959208
36	0xbd852145	-0.06500486
37	0xbc3a474d	-0.0113695385
38	0x3be34971	0.006936245
39	0xbd31f47a	-0.04344604
40	0xbd329be6	-0.043605708
41	0x3e62e615	0.22158082
42	0xbcc0835b	-0.023500135
43	0xbee7cf72	-0.45275456
44	0x3cc307fa	0.023807514
45	0x3e588734	0.21145326
46	0xbf325442	-0.6965982
47	0xbf19c9d0	-0.60073566
48	0xbefe2b20	-0.49642277
49	0xbe6ab947	-0.2292224
50	0xbf9859a0	-1.1902351
51	0xbedb2a8b	-0.42805895
52	0xbcd83451	-0.026392134
53	0x3e0e3b6e	0.13889858
54	0x3f126989	0.57192284
55	0x3e9b6ecb	0.30357966
56	0xbd793f38	-0.060851306
57	0x3d885b96	0.06658094
58	0x3d2ff3e8	0.042957217
59	0xbdd9cef5	-0.10635177
60	0x3d8d8c57	0.06911533
61	0x3e948edd	0.29015246
62	0xbc79395b	-0.0152114285
63	0xbd00e7f2	-0.0314712
64	0xbdc633f9	-0.09677882
65	0xbe8a62c8	-0.2702849
66	0xbe46b79d	-0.1940598
67	0xbec1bd16	-0.37839574
68	0xbd9f8c17	-0.07790392
69	0x3e915223	0.28382978
70	0x3f3993bc	0.7249105
71	0x3f381427	0.7190575
72	0x3d677a7e	0.056513302
73	0x3f5784ed	0.84187204
74	0xbe4f3b15	-0.20237382
75	0xbd0d7dcf	-0.03454381
76	0xbf048b57	-0.51775116
77	0xbd7c9c64	-0.061672583
78	0xbf53e078	-0.8276439
79	0xbdbf7659	-0.09348745
80	0x3f3ede66	0.74558103
81	0x3ee501ad	0.4472784
82	0x3f437ec4	0.76365304
83	0x3db748a8	0.08949405
84	0xbf9b6778	-1.2140951
85	0x3ed7e87e	0.42169565
86	0x3f31f4cf	0.69514173
87	0x3f0a6543	0.54060763
88	0x3cdbe1ae	0.02684101
89	0x3f3b14a3	0.73078364
90	0x3f227113	0.6345379
91	0x3f0e9585	0.556969
92	0xbf380545	-0.7188304
93	0x3f563a61	0.8368283
94	0x3d7bf21a	0.061510183
95	0x3f39138f	0.7229547
96	0x3ddfa538	0.10920185
97	0xbec8fb0c	-0.39254034
98	0xbe1d49f6	-0.15360245
99	0xbe1ba538	-0.15199745
100	0x3e6516c5	0.22371967
101	0x3f09bf57	0.53807586
102	0x3dc1cfb2	0.09463443
103	0xbe82d212	-0.25550896
104	0xbec1bbb3	-0.37838516
105	0x3defd132	0.11709823
106	0xbf3b9aa0	-0.73282814
107	0xbf525b01	-0.8217011
108	0xbf3a7e9d	-0.72849447
109	0x3e4d7798	0.20065153
110	0xbf22ef91	-0.636468
111	0xbec0af51	-0.37633756
112	0x3e2bb7cc	0.16769332
113	0x3f0ecba9	0.5577951
114	0x3e458551	0.19289137
115	0xbe262c9a	-0.16227952
116	0x3e8127e8	0.2522576
117	0xbeac1e5f	-0.3361692
118	0x3eb71b6e	0.35763115
119	0xbf5401c3	-0.8281519
120	0x3df4dd37	0.11956256
121	0x3e4ec10b	0.20190828
122	0xbf1155a3	-0.56771296
123	0xbf4ad9f9	-0.7923885
124	0xbf66aabe	-0.9010428
125	0xbeb481b1	-0.35255197
126	0xbebdece9	-0.3709481
127	0xbe826ade	-0.25472158
128	0xc00da822	-2.213387
129	0xbe484984	-0.19559294
130	0x3f3e6888	0.7437825
131	0xbe3f6f59	-0.1869482
132	0xbfc6b762	-1.5524714
133	0x3f91763f	1.1364211
134	0x3d987924	0.07444981
135	0xbe547605	-0.20748146
136	0x3dc84b90	0.097800374
137	0x3da43526	0.0801795
138	0x3ee74ba7	0.45174906
139	0x3f5fcd68	0.874228
140	0x3f3f0f8b	0.7463309
141	0x3cf50f83	0.029914623
142	0x3ef9552e	0.486978
143	0xbe95268f	-0.2913098
144	0x3e06ef25	0.13177164
145	0xbf2e4ae0	-0.68083
146	0xbe7d1a58	-0.2471708
147	0xbfa5bfec	-1.2949195
148	0xbe82693a	-0.25470906
149	0x3f372289	0.7153707
150	0x3eb9aeb5	0.36266103
151	0x3f4bf245	0.7966655
152	0xbc01530c	-0.007893335
153	0xbf32ffb9	-0.6992145
154	0x3edc0524	0.42972672
155	0x3e8c7326	0.274316
156	0x3e84c78e	0.25933498
157	0x3d8aa4e4	0.06769732
158	0x3f280090	0.6562586
159	0x3f396c93	0.72431296
160	0x3eb77ffd	0.35839835
161	0xbf8f4e9f	-1.1195868
162	0x3f14ed88	0.58174944
163	0x3d900b9d	0.07033465
164	0x3f20b983	0.6278307
165	0xbe57e532	-0.21083525
166	0xbe34ee6c	-0.17669076
167	0xbd8d6396	-0.0690376
168	0xbc800d7a	-0.015631426
169	0x3e60e8c5	0.21963795
170	0x3f068743	0.52550143
171	0xbe9f5551	-0.3111978
172	0x3e893fd8	0.2680652
173	0xbe110378	-0.1416148
174	0x3e79ae73	0.24382953
175	0xbfa8bcb8	-1.3182592
176	0xbf9b2489	-1.2120525
177	0xbf98d27e	-1.1939237
178	0xbd9e637e	-0.077338204
179	0xbf14d91b	-0.58143777
180	0xbe1acf91	-0.15118243
181	0x3d635d76	0.055509053
182	0xbe294e30	-0.16533732
183	0xbde21763	-0.11039617
184	0xbec06592	-0.37577492
185	0x3e02cc1d	0.12773176
186	0xbf1b7d8a	-0.6073843
187	0x3ee305a3	0.44340238
188	0xbe88fd07	-0.26755545
189	0xbd0c1479	-0.03419921
190	0x3df411ab	0.119174324
191	0xbe89cf1d	-0.26915827
192	0xbf680eec	-0.9064777
193	0xbfb0556e	-1.3776071
194	0xbf936567	-1.151532
195	0xbe2b1755	-0.16708119
196	0x3d167fbe	0.03674292
197	0xbf68bcb7	-0.90912956
198	0xbf3d74e7	-0.74006504
199	0x3f15920e	0.58425987
200	0xbeeb2e13	-0.4593359
201	0xbffb67e7	-1.9641083
202	0x3e7f9c66	0.24962005
203	0xbf500554	-0.8125813
204	0xbee32652	-0.44365174
205	0xbcb200a3	-0.02172882
206	0xbe45bc0a	-0.19310012
207	0xbed88922	-0.42292124
208	0xbf6f02bd	-0.93363553
209	0x3df4f4bd	0.119607426
210	0xbe836592	-0.2566343
211	0x3f61d0a1	0.8820897
212	0xbe6b8b3e	-0.23002335
213	0xbbda3bed	-0.0066599757
214	0xbf7fac66	-0.99872434
215	0x3db19105	0.086702384
216	0xbf1fd708	-0.62437487
217	0x3e900e57	0.2813594
218	0x3dae0135	0.08496324
219	0x3eec799f	0.4618654
220	0x3f1cf1be	0.6130637
221	0x3dd52eae	0.10409294
222	0xbe251212	-0.16120175
223	0x3e7377b6	0.23776135
224	0x3f28a7a0	0.65880775
225	0x3ed1a5fb	0.40946946
226	0x3e38e760	0.18057013
227	0xbcd2ba00	-0.025723457
228	0x3e99e0ff	0.3005447
229	0xbea15228	-0.31507993
230	0x3f079c5d	0.52972966
231	0x3e5b9096	0.21441874
232	0xbebd7bb7	-0.3700845
233	0x3edbb3cf	0.4291062
234	0xbe56ee5e	-0.20989367
235	0xbf3d7602	-0.7400819
236	0xbe75ae5a	-0.23992291
237	0xbef04a61	-0.46931747
238	0xbd8795c6	-0.06620364
239	0xbdfbe167	-0.122988515
240	0x3d9a3b4c	0.07530841
241	0xc047a4a0	-3.119423
242	0xbf5a1160	-0.8518276
243	0xbe6ab755	-0.22921498
244	0x3ec419fa	0.3830107
245	0xbf132856	-0.5748342
246	0x3e86002c	0.26172006
247	0x3ee52714	0.44756377
248	0xbf2fef1c	-0.68724227
249	0xbe94cc53	-0.29062137
250	0xbe22b108	-0.15887845
251	0x3ebb567d	0.36589423
252	0x3eed65f2	0.4636684
253	0xbe823414	-0.25430357
254	0x3eee43df	0.46536157
255	0xbed2d598	-0.41178584

fc2.bias f4 [128]
0	0xbe634e2d	-0.2219779
1	0x3e9193ef	0.28433177
2	0xbe13d88e	-0.14438078
3	0x3ef35125	0.47522846
4	0xbe4aded5	-0.19811566
5	0xbeb9a701	-0.36260226
6	0x3ea25606	0.31706256
7	0xbd8e2253	-0.069401406
8	0x3e808e85	0.25108734
9	0xbe77996f	-0.24179624
10	0xbecbd7f6	-0.39813203
11	0x3dd6beae	0.10485588
12	0x3d8ab7e9	0.06773359
13	0x3d2c81dd	0.042116035
14	0x3ede38a0	0.43402576
15	0x3d8635f4	0.065532595
16	0x3df5caf8	0.12001604
17	0x3e0bce00	0.13652802
18	0x3d839a73	0.06425943
19	0x3d8734a7	0.066018395
20	0xbe07a933	-0.13248138
21	0xbe9bd344	-0.3043462
22	0x3ed17aae	0.4091391
23	0x3e0aea4e	0.13565943
24	0x3e123f3b	0.14281933
25	0x3e273b3c	0.1633119
26	0xbe461df5	-0.19347365
27	0x3ebef124	0.3729335
28	0x3a2a92a3	0.0006506836
29	0x3eae5908	0.340523
30	0x3e042efe	0.12908551
31	0x3d6a3130	0.057175815
32	0x3bea5953	0.0071517616
33	0x3e609f9d	0.21935888
34	0x3ebfc827	0.37457392
35	0x3ea11b06	0.3146593
36	0x3e4a6279	0.19764127
37	0x3e0c74df	0.13716458
38	0xbd890727	-0.06690817
39	0x3e493b57	0.19651543
40	0x3ec645f8	0.38725257
41	0x3e87c1b2	0.26514965
42	0xbdaac57d	-0.08338449
43	0x3e2d1acd	0.16904755
44	0x3e53c4d7	0.20680557
45	0x3e9b72c4	0.30360997
46	0x3e756c72	0.2396715
47	0xbed4d077	-0.41565296
48	0xbd7902f1	-0.06079382
49	0xbe665a4d	-0.22495385
50	0x3eec05c8	0.4609816
51	0x3e85fb1f	0.26168153
52	0xbe0c0ec1	-0.13677503
53	0xbcd25957	-0.025677366
54	0x3e23600f	0.15954612
55	0xbb9bb5e9	-0.00475191
56	0xbeaec71a	-0.34136277
57	0x3d04ff91	0.03247029
58	0xbe3f8e0f	-0.18706535
59	0x3eecefef	0.46276805
60	0xbebdc076	-0.370609
61	0xbdaa1e49	-0.08306558
62	0x3e214a88	0.15751088
63	0xbd83a813	-0.06428542
64	0x3e71660f	0.23574089
65	0x3e3cecb2	0.18449667
66	0x3e0e3b4c	0.13889807
67	0xbef27034	-0.4735123
68	0x3c81b9f9	0.015835749
69	0x3ee59681	0.44841388
70	0x3ec9aa12	0.39387566
71	0xbde8d6ae	-0.11369072
72	0x3d8ed7a8	0.06974727
73	0xbe6f2892	-0.2335532
74	0xbb8af316	-0.004240404
75	0x3e56c3fa	0.20973197
76	0xbdf2bc14	-0.11852279
77	0x3c061596	0.008183857
78	0xbead53af	-0.33852908
79	0x3dbdac12	0.092613354
80	0x3d26a135	0.040681083
81	0xbd033434	-0.032032207
82	0x3ca3fb77	0.020017369
83	0xbe1c110d	-0.1524088
84	0x3e894589	0.26810864
85	0x3e3f7f80	0.18700981
86	0x3cf59e56	0.029982727
87	0xbddca656	-0.107739136
88	0x3e38df54	0.18053943
89	0x3e587e0c	0.21141833
90	0x3e7462c0	0.23865795
91	0x3ebe3ad9	0.37154272
92	0x3e110c44	0.14164835
93	0xbe949818	-0.29022288
94	0x3c07e925	0.008295332
95	0x3e538164	0.20654827
96	0xbe1aaa94	-0.15104133
97	0x3ea490f6	0.32141846
98	0x3e21e4ac	0.15809888
99	0x3eec5386	0.46157473
100	0x3da8ec1b	0.082481585
101	0x3d69e610	0.05710417
102	0xbe07e5c2	-0.1327124
103	0x3e72b33d	0.23701186
104	0xbe6c8da6	-0.2310091
105	0x3ea643bc	0.32473552
106	0xbba5d404	-0.0050606746
107	0xbe54b644	-0.20772654
108	0x3dba1025	0.090851106
109	0x3d29439f	0.041324254
110	0xbe05caff	-0.13065718
111	0xbdba8c81	-0.0910883
112	0x3d47d7a3	0.04878963
113	0xbe0c916d	-0.1372735
114	0x3dc343ae	0.09534393
115	0x3ee883c8	0.4541304
116	0x3ddd1002	0.10794069
117	0x3ea8883d	0.32916442
118	0xbe9982e2	-0.29982668
119	0xbd8bcd96	-0.06826322
120	0x3e8fc466	0.28079528
121	0xbc0c3c00	-0.008559227
122	0x3ee84b21	0.4536982
123	0xbca9d1d2	-0.020729933
124	0x3eea3708	0.4574511
125	0x3f2fac72	0.68622506
126	0x3ef3275c	0.47490966
127	0xbe44da54	-0.1922391

fc3.weight f4 [5, 192]
0	0xbf800a46	-1.0003135
1	0x3f14d06d	0.5813053
2	0xbf602d02	-0.87568676
3	0x40d8673b	6.7626014
4	0xbfda5db5	-1.7059847
5	0xbf6f6110	-0.9350748
6	0xc1a624a2	-20.767887
7	0xc08b592f	-4.3546367
8	0x407aa872	3.916531
9	0x40110d4c	2.2664366
10	0x3fb8606a	1.4404423
11	0xbe95a988	-0.29230905
12	0x3f31b9a2	0.6942388
13	0xbf6a97c3	-0.9163782
14	0x3ea3d77f	0.32000348
15	0xbfa60499	-1.2970153
16	0xc04d61a9	-3.2090857
17	0xbf03dfb0	-0.51513195
18	0xc0ba2ec7	-5.81821
19	0xbf2ff248	-0.68729067
20	0xbee690e7	-0.45032427
21	0xbe990288	-0.29884744
22	0xbfb95f9a	-1.44823
23	0x3fc0b898	1.5056334
24	0xbfceb97c	-1.6150355
25	0x3f3071cb	0.68923634
26	0xbf82fb35	-1.0232912
27	0xbf0214b7	-0.5081286
28	0x4154f57f	13.309936
29	0x40888aaa	4.266927
30	0x4066ab00	3.604187
31	0x4092f044	4.5918293
32	0xbfbb3dbb	-1.4628214
33	0xc034f299	-2.827307
34	0xc07084db	-3.7581089
35	0x4093de3e	4.620879
36	0x402355a2	2.5521016
37	0xc09adaa5	-4.83919
38	0x410805de	8.501432
39	0x3f9df5f2	1.2340682
40	0xc0cfb916	-6.4913435
41	0xbfd2f0ec	-1.6479774
42	0x401e82e9	2.4767401
43	0xbfc7136b	-1.5552801
44	0x40bbc576	5.867854
45	0xbeefca6c	-0.46834123
46	0xbfe3f16f	-1.7808055
47	0x401de7d7	2.4672754
48	0x4036ab64	2.8542109
49	0xbfa3e2e4	-1.2803617
50	0xc12042dc	-10.016323
51	0x3fb3ded2	1.4052374
52	0xc0482d00	-3.1277466
53	0xc08312a8	-4.0960274
54	0xc0610a1b	-3.5162418
55	0x4145c8ba	12.3615055
56	0x3eb7d5b3	0.35905227
57	0x3fbd49c6	1.4788139
58	0x3ff83b03	1.9393009
59	0xbd0047f9	-0.03131864
60	0x409b0768	4.844654
61	0xc0174ab5	-2.3639348
62	0x4016439b	2.3478763
63	0xc055ed99	-3.3426268
64	0xbf07dc2c	-0.5307033
65	0x3ed82702	0.4221726
66	0x3ff97071	1.9487439
67	0xbfc2aee5	-1.5209624
68	0xbf860ca9	-1.0472614
69	0xbf08663a	-0.53280985
70	0xbe6a8886	-0.22903642
71	0xbd537d11	-0.051632944
72	0x3e0dd6fb	0.1385154
73	0xbf55769c	-0.8338411
74	0xbfa14bd6	-1.2601268
75	0x3ed2a341	0.41140178
76	0xbf9c4a0c	-1.2210097
77	0x3f17d820	0.59314156
78	0xbf0b6b1d	-0.54460317
79	0x3f7d7c0e	0.9901742
80	0xbf45eb7e	-0.7731246
81	0xbf2239db	-0.6336953
82	0x3fe8de62	1.8192866
83	0xbcd291e8	-0.02570434
84	0xbd81d326	-0.063391015
85	0xbf99b21f	-1.2007483
86	0x3f909567	1.1295594
87	0xbf653427	-0.89532703
88	0x401f4887	2.4888017
89	0x3e9efb15	0.31050935
90	0x3f703566	0.9383148
91	0x3f04f6b0	0.51938915
92	0xbc20f4fe	-0.009824036
93	0xbd8d2912	-0.06892599
94	0xbf6004eb	-0.87507504
95	0xbecc4793	-0.39898357
96	0xbe89545e	-0.2682218
97	0x3efb25a7	0.49052164
98	0xbec96ac8	-0.3933928
99	0xbdfdee22	-0.12398936
100	0x3facf861	1.3513299
101	0x3d5fecd6	0.054669224
102	0x3f2fec28	0.6871972
103	0x3fe6012f	1.7969111
104	0xbca2b748	-0.019862786
105	0xbe51e189	-0.20496191
106	0xbd2b389e	-0.04180204
107	0xbd9f332d	-0.07773433
108	0xbf5cc72c	-0.8624141
109	0x3e10c5bb	0.14137928
110	0xbf1ab047	-0.6042523
111	0x3d31b15d	0.043382037
112	0x3f11d53f	0.5696601
113	0xbefd5fdf	-0.49487206
114	0xbf9ddcb2	-1.2332976
115	0xbed4c58e	-0.41556972
116	0x3d83127c	0.0640001
117	0x3c7ac01c	0.0153045915
118	0x3f2479d7	0.6424841
119	0xbdcfef42	-0.10153057
120	0xbcd1cb5e	-0.025609668
121	0x3d20861f	0.039190408
122	0x4047672a	3.1156716
123	0xbe916927	-0.28400537
124	0xbf0c8a4d	-0.5489853
125	0xbe875744	-0.26433766
126	0xc03b24d3	-2.9241226
127	0x3fb6c3d8	1.4278517
128	0xbfea017a	-1.8281701
129	0xbfb9456c	-1.4474311
130	0xbeab4cdd	-0.3345708
131	0xbf671b45	-0.90275985
132	0xbf71ba3a	-0.94424784
133	0xbefb564d	-0.4908928
134	0x3ea83ce8	0.32858968
135	0x3dbd0e3e	0.09231232
136	0x3f892203	1.0713505
137	0xbfaf0392	-1.3672965
138	0xbfa4e547	-1.288247
139	0xbf9b6beb	-1.2142309
140	0xbc4be5ce	-0.012444926
141	0x3ef5d038	0.4801042
142	0xbe7b11f2	-0.24518564
143	0x3e9a2e2d	0.30113354
144	0xbf818b25	-1.0120589
145	0xbcbe76df	-0.023250042
146	0x3f12d169	0.57350785
147	0x3fdb5c30	1.7137508
148	0xbf654afc	-0.8956754
149	0xbfb6daca	-1.4285519
150	0x3d1edabe	0.038782828
151	0x3ec0dd16	0.37668675
152	0xbe8c002e	-0.27343887
153	0xc04fa773	-3.2445953
154	0xbf6c10e9	-0.922133
155	0xbf2f5856	-0.68494165
156	0xc039012f	-2.8906972
157	0xbf156bd4	-0.5836766
158	0xbf4fed66	-0.81221616
159	0xbfb03b6e	-1.3768137
160	0xbde79df4	-0.11309424
161	0x3d4423c7	0.047885682
162	0xbe2483e1	-0.16065933
163	0xbe1e61df	-0.15467022
164	0x3f2b601d	0.6694353
165	0x3f50abdf	0.81512254
166	0x3d536b1b	0.051615816
167	0xbf63dd75	-0.8900979
168	0x3f3c190a	0.73475707
169	0x3eb3f1fc	0.35145557
170	0xbea4da0f	-0.32197616
171	0xbf49d396	-0.7883848
172	0x3ed5c36e	0.41750664
173	0x3e42b7b4	0.1901539
174	0xbcd79f6d	-0.026321137
175	0xbdcfe406	-0.10150914
176	0x3ed9631f	0.42458436
177	0xc024809a	-2.5703492
178	0x3f938179	1.1523887
179	0x3f4e73c1	0.80645376
180	0xbf96a5fa	-1.1769402
181	0x3e3c5973	0.18393497
182	0xbf1c31b0	-0.6101332
183	0x3d5bbd28	0.05364719
184	0x3edbd4c6	0.4293577
185	0xbeb20338	-0.3476808
186	0x3e9ac155	0.30225626
187	0xbf321d39	-0.6957584
188	0xbf1626d5	-0.58653
189	0xbf7c8dca	-0.9865385
190	0xc0127020	-2.2880936
191	0xbf3c3ebe	-0.73533237
192	0x3fa1d3c5	1.2642752
193	0x3f915a3a	1.135566
194	0x3f89f325	1.0777327
195	0xc09af1cb	-4.8420157
196	0x3fbcbdae	1.4745386
197	0x3f33b1de	0.7019328
198	0x41e41b39	28.513292
199	0x407d8e46	3.9618087
200	0xc09568f0	-4.6690598
201	0xbf94505c	-1.1587024
202	0xbf91c5a8	-1.1388445
203	0x3ebe3123	0.37146863
204	0x3e47af39	0.19500436
205	0xbe086e70	-0.13323379
206	0xbee7a44a	-0.4524253
207	0x3f9d3409	1.2281505
208	0x40453b49	3.0817435
209	0x401a4ba0	2.4108658
210	0x409c0c58	4.876507
211	0x3f0d7025	0.55249244
212	0x3ed8e1b2	0.42359692
213	0x3f2bc776	0.6710123
214	0x3ff7f5d8	1.93719
215	0xbfe730bd	-1.8061749
216	0x3f7a48c1	0.97767264
217	0xbe0240be	-0.1272001
218	0x3fbbf420	1.4683876
219	0x3f4c974c	0.7991836
220	0xc12a49e4	-10.64304
221	0xc0661914	-3.5952806
222	0xbfd77e5c	-1.6835437
223	0xc07409c7	-3.8130968
224	0x3f748b18	0.9552474
225	0x3fc04602	1.5021365
226	0x4048e2c4	3.1388407
227	0xc06dd03c	-3.7158346
228	0xc00820e1	-2.1270068
229	0x409da35d	4.926192
230	0xc0dc8833	-6.891626
231	0x3eb09712	0.34490258
232	0x40bcf167	5.904468
233	0x3fface81	1.959427
234	0xc01e1238	-2.469862
235	0x3ea1bac8	0.31587815
236	0xc09e54a0	-4.94783
237	0x3dcb7465	0.0993431
238	0x3feaec4e	1.8353364
239	0xc0195635	-2.3958867
240	0xc0268a89	-2.6022055
241	0x3f616d33	0.8805725
242	0x411450d3	9.269732
243	0xbfc5b0cf	-1.5444583
244	0x3feda09b	1.8564638
245	0x40944675	4.6336007
246	0x4057e892	3.37357
247	0xc0f78203	-7.7346206
248	0x3f68e21a	0.90970004
249	0xbf8fdd2d	-1.1239372
250	0xbfa97a15	-1.3240381
251	0xbe2b1dd9	-0.16710605
252	0xc0995ade	-4.792342
253	0x402849fc	2.6295156
254	0xbfb66281	-1.4248811
255	0x405e65ac	3.4749556

fc3.bias f4 [5]
0	0xc0abaac7	-5.364597
1	0x408ed37c	4.463316
2	0x3f35c2bf	0.71000284
3	0xbf80ee44	-1.0072713
4	0xc061c8c1	-3.527878

fc4.weight f4 [4, 128]
0	0xbf86c74e	-1.0529573
1	0xbf1c7d49	-0.6112867
2	0xbef7472e	-0.48296493
3	0xbfb883cb	-1.441522
4	0xbf366015	-0.7124036
5	0xbf4b54e7	-0.79426426
6	0x3f5a76fa	0.85337794
7	0xbbd44712	-0.006478199
8	0x3ed9c463	0.42532644
9	0xbec68b8c	-0.3877834
10	0xbda24b3e	-0.079245076
11	0xbebae4a3	-0.3650256
12	0xbe5241c7	-0.20532905
13	0x3fae6fca	1.3627865
14	0x40347948	2.8199024
15	0xbee45ebe	-0.44603533
16	0xbeab496e	-0.3345446
17	0xbe39d6b8	-0.18148315
18	0xbedc5998	-0.43037105
19	0x3f0fb0ba	0.5612904
20	0xbb95ee70	-0.004575543
21	0x3f7e3328	0.9929681
22	0xbf7a2c0a	-0.9772345
23	0xbeae4384	-0.34035885
24	0xbf2aa227	-0.66653675
25	0xbeeb4bd1	-0.4595628
26	0x3f4a64d7	0.7906012
27	0xc0195ead	-2.3964036
28	0x3d271532	0.040791698
29	0x3f8fed68	1.1244326
30	0x3f6a7cd6	0.91596735
31	0x3e8bc79c	0.27300727
32	0xbf26aab2	-0.6510421
33	0xbf302fcc	-0.6882293
34	0xbf0e5555	-0.55598956
35	0xbf036490	-0.5132532
36	0xbf8b7ac0	-1.0896835
37	0xbf85b8fa	-1.0447075
38	0x3f74f217	0.956819
39	0xbd9c0024	-0.07617214
40	0x3f938e33	1.1527771
41	0xbf6328d1	-0.88734156
42	0xbd87a547	-0.06623321
43	0xbf064727	-0.5245232
44	0xbf07b603	-0.530121
45	0xbf61b43f	-0.8816566
46	0xbe724ec4	-0.23662859
47	0xbf680885	-0.90638
48	0xbf25af28	-0.6472039
49	0xbf89687d	-1.0735012
50	0x3f160391	0.5859919
51	0x3e6850c2	0.22687057
52	0x3d5a6c62	0.05332602
53	0xbb5d1f65	-0.0033740636
54	0x3ef3bd58	0.47605395
55	0x3d7ebb26	0.062190197
56	0xbf25163e	-0.64487064
57	0x3cd0d8ff	0.025494097
58	0x3e9d67e7	0.30743334
59	0x3ef74345	0.4829351
60	0xbf88da01	-1.069153
61	0xbf0ab132	-0.5417663
62	0xbe91b673	-0.2845951
63	0xbf03cabe	-0.51481235
64	0xbeecec32	-0.46273953
65	0xbeae5881	-0.34051898
66	0x3f16870b	0.5879981
67	0xbf24a8dc	-0.6432016
68	0xbee4a61f	-0.4465799
69	0x3ed24ea9	0.41075638
70	0x3f91156c	1.1334662
71	0xbefdd9d7	-0.4958026
72	0xbe46155c	-0.19344085
73	0xbe1858fa	-0.14877692
74	0xbf5ce9ab	-0.8629405
75	0xbefa3e16	-0.48875493
76	0x3d6cda25	0.057825226
77	0xbdf1e023	-0.11810329
78	0xbf586edf	-0.84544176
79	0x3f3e399c	0.74306655
80	0xbfa83663	-1.3141598
81	0xbd837998	-0.064196765
82	0xbeeeccca	-0.46640617
83	0x3f896f2b	1.0737051
84	0xbf1e9b7e	-0.6195601
85	0xbedffcea	-0.43747646
86	0x3d1cd7b3	0.038291644
87	0xbfc09760	-1.5046196
88	0x3eff4b08	0.49861932
89	0xbe02afd8	-0.12762392
90	0xbe8520d0	-0.26001596
91	0xbf53ed12	-0.82783616
92	0xbe7439eb	-0.23850219
93	0xbf74412f	-0.9541196
94	0x3e027df7	0.12743364
95	0xbf478347	-0.7793469
96	0xbf85f95c	-1.0466723
97	0x3f2002af	0.62504095
98	0x3fabcbc3	1.3421558
99	0xbf6328f7	-0.8873438
100	0x3f06c3a0	0.5264225
101	0xbe9e4289	-0.30910137
102	0xbdba3807	-0.090927176
103	0xbef43889	-0.47699383
104	0x3f9915f9	1.195983
105	0xbf845d58	-1.0340986
106	0x3ec5f517	0.3866355
107	0x3e937526	0.28800315
108	0xbf3e5a02	-0.7435609
109	0x3eccef23	0.40026197
110	0x3d3e893e	0.046517603
111	0x3d2ae0ff	0.04171848
112	0xbe2e692b	-0.17032306
113	0xbee3b3c5	-0.4447309
114	0xbe366125	-0.17810495
115	0x3eae0ff7	0.33996555
116	0xbe45b7cd	-0.19308396
117	0x3ef79069	0.48352364
118	0xbf36b718	-0.7137313
119	0x3d4a4a52	0.049387284
120	0xbdedc36f	-0.116095416
121	0x3fd695c7	1.6764458
122	0xbee7eb40	-0.4529667
123	0xbf4bff7c	-0.79686713
124	0xbf13c543	-0.5772287
125	0x401c3956	2.4409995
126	0xbf643ca7	-0.8915505
127	0x3f703e91	0.9384547
128	0xbdb51ab9	-0.088429876
129	0xbf1963f4	-0.5991814
130	0xbe7348a0	-0.23758173
131	0xbf35f38d	-0.71074754
132	0xbded33f7	-0.11582177
133	0xbdfd8265	-0.123783864
134	0x3f1cf824	0.6131613
135	0xbc9afa20	-0.018918097
136	0x3e3e5b9c	0.18589634
137	0xbf0c2ca5	-0.5475562
138	0x3d40543c	0.046955332
139	0xbec25a64	-0.37959588
140	0x3e9cafea	0.30602962
141	0x3f9ad0d2	1.2094977
142	0x400f0163	2.2344596
143	0xbe988d3b	-0.2979525
144	0xbede6596	-0.4343688
145	0xbed4edcb	-0.41587672
146	0xbeae94ec	-0.34097993
147	0xbe3f0f92	-0.18658283
148	0xbc017bd5	-0.007903059
149	0x3f953ec6	1.1659782
150	0xbf252a36	-0.64517534
151	0xbf0da727	-0.5533318
152	0xbf30b351	-0.69023615
153	0xbe6eeab7	-0.23331724
154	0x3f09fdfd	0.5390318
155	0xc0041259	-2.0636199
156	0x3d3bfeb1	0.04589719
157	0x3faf148f	1.3678149
158	0x3f9a3c1c	1.2049594
159	0x3ecc569b	0.39909825
160	0x3f1c310e	0.6101235
161	0xbf3f92ea	-0.7483355
162	0xbf9110e6	-1.1333282
163	0x3dba3a5a	0.09093161
164	0xbf641293	-0.8909084
165	0xbee0735d	-0.43838015
166	0x3e85293d	0.26008025
167	0xbe04e21e	-0.12976882
168	0x3fe676ea	1.800504
169	0xbf94f8b3	-1.1638397
170	0xbdb29fff	-0.08721923
171	0xbeb8bd47	-0.36081907
172	0xbf4d7cb8	-0.8026843
173	0xbf1d070f	-0.61338896
174	0xbf23187f	-0.63709253
175	0xbe842e3a	-0.25816518
176	0xbf303a8b	-0.6883933
177	0xbec66473	-0.38748512
178	0x3f6b318f	0.91872495
179	0x3eee2a95	0.46516863
180	0xbc8a5852	-0.016887818
181	0x3cadb50b	0.021204492
182	0x3f39ffd6	0.72656
183	0x3bf15799	0.007365179
184	0xbec552d3	-0.38539752
185	0xbbaf2730	-0.0053452477
186	0x3f2ac372	0.66704476
187	0x3e979437	0.29605266
188	0xbb2a3faf	-0.00259779
189	0xbf43b52e	-0.76448333
190	0xbf947675	-1.159865
191	0xbeba6677	-0.364063
192	0xbe078cbc	-0.1323728
193	0xbf1e829a	-0.6191803
194	0x3f382cf1	0.71943575
195	0xbed72f6a	-0.42028362
196	0xbf038419	-0.5137344
197	0x3e8b235b	0.27175412
198	0x3f890eb2	1.070761
199	0xbe4a2ef1	-0.19744469
200	0xbf685965	-0.90761405
201	0xbecb1c77	-0.39670154
202	0xbf0a3ea6	-0.54001844
203	0xbf50fe20	-0.81637764
204	0x3d1505d3	0.036382508
205	0xbf1c7698	-0.6111846
206	0xbecdf0fb	-0.40222916
207	0x3f2e3dc1	0.6806298
208	0xbdd5a422	-0.104316965
209	0x3d0134b0	0.031544387
210	0xbe943615	-0.2894751
211	0xbf04fbd3	-0.51946753
212	0xbf2f0ca5	-0.6837867
213	0xbedd52ca	-0.43227226
214	0x3d6c2167	0.057649042
215	0xbfa8f740	-1.3200455
216	0x3f7e40e0	0.9931774
217	0xbf112dfe	-0.56710804
218	0xbef376e9	-0.4755166
219	0xbf59152a	-0.8479792
220	0xbe64fe63	-0.22362666
221	0xbd8dd9ed	-0.06926332
222	0xbf562aea	-0.8365923
223	0xbf49a055	-0.7876027
224	0xbec02ff9	-0.375366
225	0x3ee82c03	0.45346078
226	0x3f8e14c0	1.1100082
227	0xbfc76bb8	-1.5579748
228	0x3e2439ae	0.16037628
229	0xbda3eb12	-0.080038205
230	0x3c761956	0.015020689
231	0xbee144a8	-0.43997693
232	0x3f9b9a1c	1.2156405
233	0xbf789fa6	-0.97118604
234	0xbd0b65a6	-0.034032486
235	0xbd90b61d	-0.07065985
236	0xbe863427	-0.26211664
237	0x3e9afe65	0.30272213
238	0x3cd3a595	0.025835792
239	0xbd832d7e	-0.06405161
240	0xbe84c309	-0.2593005
241	0x3eaf192f	0.341989
242	0xbdb7047a	-0.08936401
243	0x3eab46fe	0.334526
244	0xbeb71a26	-0.35762137
245	0x3f644d23	0.891802
246	0xbf6c70f9	-0.9235988
247	0xbccd5c54	-0.02506844
248	0xbed1c0c6	-0.40967387
249	0x3fa8c0ca	1.3183835
250	0xbf44ad3a	-0.7682682
251	0xbef291e5	-0.47376934
252	0xbf918789	-1.1369487
253	0x401ff69f	2.4994276
254	0xbf653182	-0.8952867
255	0xbf89d660	-1.0768547

fc4.bias f4 [4]
0	0x3cbdd4b4	0.023172714
1	0x3e1087d7	0.14114319
2	0x3eecb79b	0.4623383
3	0x3b82e192	0.0039941752
